checkpoint/model_epoch8.pth (torch, 268573 bytes, 24 tensors)

conv1.weight f4 [10, 1, 5, 5]
000000 8d 39 f8 3c e2 86 96 3e c6 b1 cf 3e 5e 0b ba 3c
       0.03030088 0.29399782 0.40565318 0.022710498
000010 78 8d 56 bd cc b5 f2 bd 7a 26 36 3d 32 94 a3 3e
       -0.05238101 -0.11851081 0.044470288 0.31949002
000020 4e f0 75 3e 2f e0 18 bd d0 fe c6 be 7a 1f d7 3d
       0.2401745 -0.037323173 -0.38866282 0.105040506
000030 81 48 f8 3e dd a9 0f 3e b3 0f 0a be 67 93 8b be
       0.48492816 0.14029641 -0.13482551 -0.27260897
000040 48 1c f1 bc 50 84 b8 3e e6 87 4a 3e 31 da ea 3d
       -0.02943243 0.36038446 0.19778404 0.11467398
000050 7b c9 52 be 4f 74 22 3c 0e b4 77 3e 92 4a 86 3e
       -0.20584671 0.009915425 0.24189779 0.26228768
000060 b4 b3 67 3d 64 99 ac 3d d6 7e 87 3e 15 f0 46 3e
       0.056567863 0.084276944 0.26463956 0.19427522
000070 d6 d7 d9 b9 70 ba 98 bb 4e 86 ef bd 99 0e aa 3e
       -0.00041550276 -0.004660897 -0.116955385 0.33214262
000080 97 5a 96 3d bc 66 3b bd 09 9e 56 be 21 34 11 3d
       0.073414974 -0.045752272 -0.20958723 0.035450105
000090 f0 ba a0 3e dd ba 21 3e 19 4c 93 bd 03 19 5e be
       0.31392622 0.15793939 -0.07192249 -0.21689229
0000a0 ab 66 25 3e 96 6a 68 3e c6 4c fd 3c cf 9c 13 be
       0.16152446 0.2269691 0.030920397 -0.14415286
0000b0 34 c5 1a be e7 85 0c 3e 76 eb 77 3e 7a 25 cb bc
       -0.1511429 0.13722955 0.24210915 -0.024798144
0000c0 bf 77 5e be 9f cf 42 be 72 0c f3 3e f4 9f 0a 3f
       -0.21725367 -0.19024514 0.47470433 0.5415032
0000d0 e2 b4 96 3e de 25 3d 3e ba 7c 95 be 49 23 98 bd
       0.29434878 0.18471476 -0.2919672 -0.07428605
0000e0 cc 9c 50 be f3 4e bc bb cf 9a 24 3e 08 b0 9a 3d
       -0.20372313 -0.005746716 0.1607468 0.075531065
0000f0 40 92 80 be f7 4e 0e bf 79 00 c3 bd 92 b7 13 bb
       -0.2511158 -0.5558924 -0.095215745 -0.0022539836
000100 24 38 a4 3e 47 ef 28 bd f3 c2 88 be 7f 26 94 3c
       0.32074082 -0.041243818 -0.26711234 0.018084763
000110 db 31 55 3e fe b0 f4 bc 94 66 b0 3e d8 a1 02 3f
       0.208198 -0.029869553 0.3445326 0.51028204
000120 7e 8e c9 3d 32 6c 75 be 91 b5 6c 3d 30 aa e6 bd
       0.09841631 -0.23967054 0.057790343 -0.112629294
000130 c1 a3 8a bd 17 5a 11 3e 07 51 12 3e dd 1d a4 bd
       -0.06769515 0.14194523 0.14288722 -0.080135085
000140 76 c7 a3 be 99 69 12 be 16 c5 68 be 73 ea 70 3d
       -0.31988114 -0.14298095 -0.22731432 0.05881734
000150 1b e6 18 3e 3a 30 75 bd ca f9 6c be 85 00 7b be
       0.14931528 -0.059860446 -0.23142162 -0.24511917
000160 35 f6 13 3e 92 9a 07 3e a2 02 aa be 19 2b 14 be
       0.1444939 0.13242558 -0.33205134 -0.14469565
000170 8b 2e 38 3d d5 06 b3 3e 52 de 42 3e 50 5f 1d be
       0.04496626 0.3496615 0.19030121 -0.1536839
000180 11 03 29 3d db 2d 7a 3e aa be 98 3e 92 63 a3 3e
       0.04126269 0.24431555 0.29832965 0.31911904
000190 2d b7 3d 3d 2c 1e 78 3d 2e 9a 4f 3e 65 bf 01 3d
       0.04631727 0.06057565 0.20273659 0.03167667
0001a0 a9 30 e7 3d 31 aa 58 3e 00 7b ac 3d 20 20 8e bd
       0.11288578 0.21158673 0.08421898 -0.06939721
0001b0 2f f8 60 bd 1b 94 9a bd ad 5d 01 3f 18 5d 8e 3b
       -0.054924186 -0.0754778 0.5053356 0.0043445937
0001c0 dc 98 8d be 16 3d 95 bd 99 26 8a 3d 34 89 b6 3e
       -0.27655685 -0.07287042 0.06745643 0.35651553
0001d0 c1 83 00 be f9 e7 57 be cc d4 13 be b3 be 17 be
       -0.1255026 -0.21084584 -0.14436644 -0.1481884
0001e0 74 a0 37 3e ab 84 21 be 51 d8 73 bd 15 ed 02 bd
       0.17932302 -0.15773265 -0.059532467 -0.03196438
0001f0 15 6a 19 be 7e 9f 01 be bc bc 8e 3d df bb 31 3e
       -0.14981873 -0.12658498 0.06969592 0.17356823
000200 22 df 2a 39 18 3d 87 be f1 d1 14 be 6a 34 59 3e
       0.00016295587 -0.26413798 -0.14533211 0.212114
000210 0a ec 04 3e a6 6d 2d be b4 d5 11 be 6e a4 e9 bc
       0.12980667 -0.16936359 -0.14241678 -0.028520789
000220 04 47 12 bc 26 d2 0f bd 73 5d 6e bc 6e 28 4f be
       -0.008928064 -0.035112523 -0.014548647 -0.20230266
000230 f6 de 20 bc 4d 4f 9a bd e5 bc 9d ba 59 41 b8 bc
       -0.009818783 -0.07534657 -0.0012034444 -0.022492098
000240 82 61 3f be 9f ae c2 3d e1 e9 fc bd a0 09 fb 3d
       -0.1868954 0.095059626 -0.12349296 0.12257695
000250 da a6 80 be 10 d8 91 bd ea f3 53 3e 8f e5 43 3e
       -0.25127298 -0.07121289 0.20698515 0.19130538
000260 92 ad 6b 3e f6 c7 8a 3e cf 13 93 3e 36 7f b2 3e
       0.2301543 0.27105683 0.2872605 0.3486268
000270 95 60 3b 3e 39 39 8a 3e 83 70 d6 3d 54 78 a3 3e
       0.18298562 0.26996782 0.10470679 0.3192774
000280 00 d4 ee 3c 3e 02 32 3e 2b 6f 92 bc 7c 51 43 3d
       0.029153824 0.17383668 -0.017875275 0.04768513
000290 b4 c4 b2 3d 45 41 99 be 3d 0a cc bd 4d 70 57 be
       0.087289244 -0.2993261 -0.0996289 -0.21038933
0002a0 9e f9 a3 bd 8f 76 98 bd 5f 0f ba be f1 87 00 bf
       -0.08006595 -0.07444488 -0.36339852 -0.5020743
0002b0 19 2f b5 be 8b a8 c0 be b5 e6 d2 bd 15 3b 93 3b
       -0.35387495 -0.37628588 -0.1029791 0.004493127
0002c0 cd 2e a1 3e d0 04 37 3e 3d 13 25 bd 96 41 3e be
       0.3148102 0.1787293 -0.04030155 -0.18579707
0002d0 31 07 e3 3d 01 70 01 3e 63 53 56 3e 03 bd 46 3e
       0.11085356 0.12640382 0.20930247 0.1940804
0002e0 c6 1d 5e bd 8d 95 b0 be 94 ae c8 bd bc e9 3d 3e
       -0.054227613 -0.34489098 -0.09798923 0.18546194
0002f0 4c 0a c7 3e 90 fd 5e 3e a6 e7 8f bd 58 63 02 be
       0.38875043 0.21776414 -0.07026605 -0.12733209
000300 6e 5d 65 be 6e 5e 1f 3d 35 d5 40 3e 55 cb a1 be
       -0.22398922 0.038908415 0.18831332 -0.31600443
000310 60 84 18 bd 69 4e 68 be 49 f9 38 be 9a da 6c 3c
       -0.037235618 -0.22686161 -0.18063845 0.014456416
000320 25 4d 9f 3c 19 ab a6 bd 74 d3 21 3e 5f e1 c9 3c
       0.019445965 -0.08138103 0.15803319 0.024643598
000330 a7 bb 25 3e 5e e8 14 be 22 3b cb 3d fb ba 8e bc
       0.16184865 -0.14541766 0.09923388 -0.017423144
000340 60 6c 7a be 91 0f 48 be ae b5 a9 b9 bf ea 96 3e
       -0.24455404 -0.19537188 -0.00032369554 0.29475972
000350 08 5a 0c be b4 75 d0 be f7 cf b2 be ab 0a 31 be
       -0.13706219 -0.407148 -0.3492429 -0.17289226
000360 42 94 02 3f b1 80 bb 3e d6 f8 a8 be 25 12 f8 bc
       0.51007473 0.3662162 -0.33002347 -0.03028209
000370 d2 1a 1c be da 1d 47 3e 5f b5 07 3f 73 c7 2c 3e
       -0.15244606 0.19444981 0.53011125 0.16872959
000380 7b 27 52 3e c4 01 f6 be 9e 96 24 3d 21 98 98 3e
       0.20522873 -0.48048222 0.040182702 0.29803565
000390 89 8d 9f 3e 64 bc f9 3d c4 95 01 3d c2 2f 02 3f
       0.3116267 0.12194136 0.03163697 0.5085412
0003a0 42 db d1 3e d5 a8 bc bd f7 77 96 bc 1c 26 00 3e
       0.40987593 -0.0921189 -0.01836775 0.12514538
0003b0 12 61 86 3e 8b 4d 5a be 9d 98 a1 be 7b 28 7c be
       0.26245934 -0.21318643 -0.31561747 -0.24624817
0003c0 65 4e 57 3e 46 66 06 bd 87 df 39 be f5 a0 23 be
       0.21025999 -0.03281238 -0.18151675 -0.15979369
0003d0 ef 99 b4 3c 69 7c c0 3d e0 e7 00 be c8 4d aa 3d
       0.022046058 0.09398729 -0.12588453 0.08315617
0003e0 e2 58 e8 bc 71 34 52 3e
       -0.028362695 0.20527817

conv1.bias f4 [10]
000000 51 12 4f bd fb 0e 32 be 3a f7 f2 3d 59 6d 71 bd
       -0.050554577 -0.17388527 0.11863561 -0.058942173
000010 6b 39 9a be 5d bf fb be 35 74 1f 3e f3 1f f0 3d
       -0.3012193 -0.49169436 0.15571673 0.11724844
000020 93 16 5c be 77 fd ac 3d
       -0.21492986 0.08446782

conv2.weight f4 [20, 10, 5, 5]
000000 6b 56 eb bd 96 4c e8 3d d6 ab 0b bb e6 27 53 bd
       -0.11491092 0.113427326 -0.002131214 -0.051551722
000010 d7 a1 14 3e 18 55 da bd 0b 54 3e 3e ed 54 08 3e
       0.14514862 -0.106607616 0.18586747 0.13313647
000020 c0 ab 24 bc 2f e1 5a 3e 42 81 f1 bd 85 4d 04 3d
       -0.010050714 0.21374963 -0.11792232 0.03230049
000030 77 f8 b9 3d 93 ca 26 be 24 d3 9f bd 5c 85 eb bd
       0.09080594 -0.16288213 -0.07803944 -0.11500046
000040 70 d0 4f 3c d4 8e 01 3c 14 34 3e be c6 c2 4e be
       0.012683973 0.007907588 -0.18574554 -0.20191488
000050 62 11 a7 bd c6 8a 97 bd a8 11 80 bb b2 ea 0e be
       -0.081576124 -0.07399516 -0.003908355 -0.13956717
000060 f4 ee 83 be 20 8b e2 bc 92 36 0e 3d 05 72 62 3d
       -0.25768244 -0.02765423 0.03472001 0.05528452
000070 e4 6c 77 3d 16 06 97 bd 89 5e a8 be 42 63 2b 3d
       0.06040658 -0.07374208 -0.32884625 0.041842707
000080 7d 98 d5 3d 8c ad 65 3d 87 8f 01 3c 58 cb 22 be
       0.104294755 0.05607371 0.007907755 -0.15897882
000090 54 a7 45 3d ed 2e c4 3d 8e f0 49 3d 30 82 d8 3b
       0.04825528 0.09579263 0.049301676 0.0066073164
0000a0 3a 8d 8d 3d e2 8b 0a 3d e9 3b 0d 3d ab 29 83 bd
       0.069117025 0.03382481 0.034480963 -0.06404432
0000b0 6e 60 05 bd db 0c e4 bc 1c 81 84 bc 7d 0d 9a 3d
       -0.032562666 -0.027838161 -0.016174845 0.07522104
0000c0 3b 3c 09 3d 2b 55 5f 3c 65 76 65 be 73 7c 0d be
       0.033504706 0.0136311455 -0.22408445 -0.13817005
0000d0 7e 00 74 bd 30 25 be bd c6 75 be 3c fc 22 8a bd
       -0.059570782 -0.09284437 0.023249518 -0.06744954
0000e0 16 40 6a 3c 9c 98 81 3d ff 3a 52 be f7 45 a7 3b
       0.014297506 0.06327936 -0.20530318 0.005104776
0000f0 3f 39 35 3c b2 e2 93 bd f4 6e ca be 19 f5 3e be
       0.011061012 -0.07220973 -0.39537776 -0.18648185
000100 70 8f 28 be 4c fe f2 bd 18 68 81 be 69 85 09 be
       -0.16460967 -0.118649095 -0.2527473 -0.13429798
000110 4e d1 51 be f9 08 21 be de ad 14 be 78 6c 18 be
       -0.2049 -0.15726079 -0.1451945 -0.14885128
000120 8d c6 0e be 0f 1f 50 bd 79 e7 df bd 58 f7 a7 3d
       -0.13942929 -0.05081087 -0.10932822 0.08201474
000130 fc df f4 3d e4 34 9f 3d bb 89 1e be 35 b4 87 be
       0.11956784 0.0777376 -0.15482228 -0.26504675
000140 2e 71 c8 3d 60 97 e5 3d 57 47 0e 3d 9e 46 25 be
       0.09787212 0.11210513 0.034736004 -0.1614022
000150 25 5d 42 be b8 e4 20 3e 53 7a 47 3e 01 92 f6 3d
       -0.18980844 0.1571225 0.19480257 0.12039567
000160 ec 82 26 bd 69 81 c2 bc 7c 19 dc 3d ae f2 07 3e
       -0.0406522 -0.023743348 0.10747048 0.13276169
000170 d7 a0 33 bd 55 09 0c be a8 b7 f5 bd 25 5c 07 3d
       -0.04385456 -0.13675435 -0.1199792 0.03304686
000180 de 0b cb 3d 40 68 d7 3d 6f 44 51 3d c6 73 26 be
       0.09914373 0.10517931 0.051090654 -0.16255102
000190 64 cd 48 bd 19 2c 51 be de 53 b3 3d ea 3e 3e 3d
       -0.049024 -0.20426978 0.08756231 0.04644672
0001a0 d4 f8 72 bd 12 68 b7 be 20 6a ad bd c1 9b b8 3d
       -0.059319332 -0.35821587 -0.08467507 0.09014083
0001b0 03 08 09 3e de e4 0c 3c 7c cb a4 be 8d 4c 4c 3d
       0.13381962 0.008599488 -0.32186496 0.049877692
0001c0 b4 20 1e 3e b1 fc 07 3e 88 6f 89 bd 80 93 03 bc
       0.15442163 0.13279988 -0.06710726 -0.008030772
0001d0 c8 24 0f 3d 44 10 f1 bc 9a 0e ad bd de 81 98 bd
       0.034947187 -0.029426701 -0.08450051 -0.07446645
0001e0 e5 81 ab 3d c3 cd 43 bd 41 06 2a be 1a 99 2f 3b
       0.08374385 -0.04780365 -0.16603948 0.0026794137
0001f0 f5 62 c4 bb fd c0 5e 3c 88 c4 25 3d 64 7f ee bc
       -0.005993242 0.013595817 0.04047063 -0.029113479
000200 59 b2 fd bd 55 82 07 be 6a d0 3d bd 9d bd fa 3d
       -0.12387533 -0.13233311 -0.046341337 0.12243197
000210 00 72 ce bc 17 3d 3e 3d 49 a6 ae bd a5 14 18 3d
       -0.025200844 0.04644498 -0.0852781 0.037129063
000220 88 44 1f 3d d8 b2 8a 3c ec 57 11 bd b9 43 3f bd
       0.038883716 0.016930982 -0.03548424 -0.046695445
000230 3a f1 8f 3c c0 21 d0 3d 27 f4 bb 3d d2 50 87 bd
       0.01757108 0.10162687 0.09177428 -0.06607212
000240 13 97 07 bd 81 7a 92 bc ff c1 ee 3c 91 0a 4e 3d
       -0.03310306 -0.01788068 0.029145239 0.050303046
000250 cd 3e 6a 3d 07 a6 a9 3c e5 6d 3e be 1c 19 82 bd
       0.057188798 0.02070905 -0.18596609 -0.063524455
000260 5c bd 86 3c e1 ba 36 3d 8f 31 d7 3d 91 66 80 3d
       0.016447715 0.044611815 0.105074994 0.06269563
000270 c9 e4 3a bb 3d 95 bc bc a8 0c 45 3d 5f b8 22 3d
       -0.0028517714 -0.023020381 0.048107773 0.03972661
000280 7f 32 1a 3d 15 71 b0 bc 5b 09 f4 3c 43 76 d8 bd
       0.037645813 -0.021538297 0.029789617 -0.10569432
000290 9e 68 08 bc f7 79 6e bd d3 ef 96 bd 3f cf e0 bc
       -0.008325724 -0.058221783 -0.073699616 -0.027442573
0002a0 cc 00 89 bd 2f 2c 53 bd 42 d5 e1 bd 78 11 53 3c
       -0.06689605 -0.05155581 -0.11027004 0.012882583
0002b0 9a 52 33 bd 3a 52 95 bd 37 88 c0 bd 03 6e 66 be
       -0.043779947 -0.07291074 -0.09400981 -0.22502904
0002c0 15 82 81 be ca 67 1e be 01 c5 ca bd e4 be 21 3c
       -0.25294557 -0.1546928 -0.09900857 0.009872172
0002d0 6a a8 99 b9 21 23 af bc 72 e4 55 3c e4 f6 7c 3c
       -0.00029307912 -0.021379055 0.013054954 0.015439723
0002e0 1f 05 1e 3d 37 bb d1 bd a5 11 98 3d 86 84 12 3d
       0.038579103 -0.102407865 0.074252404 0.035770915
0002f0 af 0d 4d bd eb c0 93 bd 2e f6 ea bd 63 c5 6a bc
       -0.050061878 -0.072145306 -0.11472736 -0.014329287
000300 0c cf 93 3d 9b b3 68 3c 65 94 5e bd 1f 22 ad bd
       0.072172254 0.0142029775 -0.05434074 -0.08453774
000310 c0 04 62 bd 4e c3 01 be ea 3b b7 bc 42 8b 85 bd
       -0.05518031 -0.12672159 -0.022367436 -0.06520702
000320 36 ce b0 be ba 21 62 be 52 e1 6e bd 01 71 6c 3d
       -0.34532326 -0.22083178 -0.05832035 0.057724956
000330 17 35 11 be 91 71 fe be 3f a4 03 bd ce c4 d7 bb
       -0.14180408 -0.4969602 -0.03213906 -0.0065847402
000340 52 c0 ed 3d 2d 41 0b be 4c 2b 98 be 90 78 d3 3d
       0.11608948 -0.13599081 -0.29720533 0.1032573
000350 98 99 42 3d 5b 20 f4 bb 6f fa a4 bd 56 7d 1f bd
       0.04750976 -0.007450146 -0.08055579 -0.03893789
000360 47 f9 ac 3d ae 9a 02 bc 2a ad 9e bd 92 96 10 3c
       0.084459834 -0.007971449 -0.07747872 0.008824961
000370 63 33 c2 3d d2 0c 2b 3d 07 43 27 3c f9 19 15 bc
       0.094824575 0.041760273 0.010208852 -0.009100431
000380 97 4f d0 bd bd e2 b8 bd 2d 70 35 3e fc 72 3d bc
       -0.101714306 -0.09027622 0.17718573 -0.011563059
000390 5f 14 ca bc af 05 2a bd 5f 7b 6e bd a6 39 d1 3d
       -0.024667917 -0.041509327 -0.058223125 0.10216074
0003a0 37 cc 17 3e da 4e 59 3d 97 84 c9 bc 1e b4 00 be
       0.14823996 0.053053714 -0.024599357 -0.12568709
0003b0 0e 8e 8c 3c f2 a0 a7 3d 1b 15 54 3d 44 65 f6 bc
       0.01715758 0.08184995 0.05177794 -0.030077584
0003c0 ba 6c 9d bd ca 05 22 3d 85 8f 66 bd fa 5a d7 bd
       -0.076867536 0.039556302 -0.056289215 -0.10515399
0003d0 ae 5a 28 be 60 14 b2 bc 92 33 1d be 81 14 ff bd
       -0.16440842 -0.021738231 -0.15351704 -0.12455083
0003e0 00 2c d7 bd 4d 3d 63 bd 1c fb cb bd 7f bb 8a bd
       -0.10506439 -0.055478383 -0.09960005 -0.06774043
0003f0 49 83 77 be 59 6f d9 3d e3 88 11 3e 1a a5 af bd
       -0.24171175 0.10616941 0.14212374 -0.085764125

conv2.bias f4 [20]
000000 3a f0 d6 3b 14 3f 10 bc 61 10 eb 3c d3 dc cb bd
       0.006559399 -0.0088041015 0.028694334 -0.09954228
000010 c4 80 16 bc 80 7e a7 bd b5 d8 96 bd e0 2e d9 bc
       -0.009185974 -0.08178425 -0.07365552 -0.02651161
000020 ad d2 54 3d 61 61 7e bb 0b fe 1a 3c 7b b2 74 bc
       0.05195873 -0.0038815367 0.009459983 -0.014935131
000030 23 43 f4 bd 0b f0 23 3d d8 e4 20 3d 00 04 1b bd
       -0.11926868 0.040023845 0.039280742 -0.03784561
000040 92 d7 81 bc 91 cb 60 bd 61 b6 94 bc f3 33 67 bc
       -0.015849862 -0.054881636 -0.018153371 -0.014111507

fc1.weight f4 [50, 320]
000000 28 e8 1a 3e 58 ce a4 3d ec eb 4d 3d 19 59 c4 3d
       0.15127623 0.080471694 0.05027382 0.095873065
000010 86 df 2c be 45 c9 63 bd 5e 31 ff 37 a4 3c a0 3d
       -0.16882142 -0.055611867 3.0421357e-05 0.07824066
000020 d1 65 07 be 83 60 ae bd 81 99 7f bc 67 2f 1f 3d
       -0.13222434 -0.08514502 -0.015600563 0.038863566
000030 8d 2f 70 3e 3c 08 56 bc 3c 67 07 be b2 1a b1 bc
       0.23455639 -0.013063487 -0.13222975 -0.021619175
000040 38 79 51 bc 63 75 17 bc 05 cf 03 3d 32 bf 04 3d
       -0.012785248 -0.009244296 0.03217985 0.0324089
000050 8b 49 4f 3d b2 5b a0 3d b1 8a 04 3e a5 55 16 bd
       0.050607245 0.078299895 0.12943532 -0.03670277
000060 f1 39 88 3d a7 6f eb bd df 14 e1 3d 6f db 82 bd
       0.066516764 -0.11495905 0.10990309 -0.0638951
000070 b2 3f 0d be 4f 47 be bd ad 5b 5e be 07 ca e8 bd
       -0.13793829 -0.09290945 -0.21714659 -0.11366659
000080 73 54 d6 bd 07 3b 14 be 2d fb c7 bc 66 3b ed bd
       -0.10465326 -0.14475642 -0.024411762 -0.11583595
000090 90 08 99 3b d4 e0 53 3c 92 02 a4 3b 5e a7 89 be
       0.00467021 0.012932021 0.005005189 -0.26885504
0000a0 ef 67 9d 3d ef 42 1e 3d 2d 9b 94 3d 25 3f 94 bd
       0.076858394 0.03863805 0.0725616 -0.07238606
0000b0 89 47 d6 3d f3 a9 97 3c a7 d7 2b 3b 72 c7 81 3e
       0.10462863 0.018513655 0.0026221068 0.25347477
0000c0 b0 47 66 be ae f3 1b be 4c ec bd bd 26 68 95 bd
       -0.22488284 -0.15229675 -0.09273586 -0.07295255
0000d0 f2 3e 23 3e fb 1d 0f bd af e3 d6 bd 32 35 71 be
       0.1594198 -0.0349407 -0.10492646 -0.23555449
0000e0 c4 6d 59 3e 4d 6e e0 3d 30 44 61 bb 14 3b 9b 3d
       0.21233279 0.10958538 -0.0034372918 0.07579628
0000f0 f1 48 81 3c 7a c0 f8 3c ea 35 12 be 19 07 bc 3d
       0.015781851 0.030365217 -0.14278379 0.09181041
000100 bc 02 aa bd d7 89 28 bd a5 ae bf bd ce 7d 68 bd
       -0.08301303 -0.04114708 -0.09359483 -0.0567606
000110 3f d6 f8 3d 8b 1e 49 bd bf cc 06 3d 50 b5 ff bb
       0.12150239 -0.049101394 0.032910105 -0.0078035966
000120 f2 9e 18 3e 66 a2 98 3d 93 9f 92 bc bd 20 ee 3d
       0.14904383 0.0745285 -0.017898357 0.11627338
000130 ea 9c 70 bd c3 54 97 3d d9 a1 04 be d3 28 c5 bd
       -0.058743395 0.07389214 -0.12952365 -0.09626927
000140 14 90 e5 bc d9 ec f0 bc eb c4 de bd 2e 7f 07 bc
       -0.028022803 -0.029409813 -0.10877403 -0.008270068
000150 29 ed 8b 3d a3 63 83 3d 24 24 77 bd 89 73 2b 3c
       0.06832344 0.064154886 -0.0603372 0.010464557
000160 41 dd 9c bd f9 29 52 3d b1 81 85 3d 99 4a c5 3c
       -0.07659388 0.05130956 0.06518877 0.024083422
000170 62 de 82 3c 89 ef e1 bd 72 eb a4 3a b3 5e c1 bd
       0.015975181 -0.11032016 0.0012582375 -0.094418906
000180 21 82 57 bd e6 82 3e bd ee 43 ea 3d 90 7e 9b 3d
       -0.052614335 -0.046511553 0.11438738 0.07592499
000190 0b c7 b7 bd 1f 5d cf bd d5 ba 4a 3d 2d 1f 19 3e
       -0.08973511 -0.10125183 0.049494583 0.14953299
0001a0 b5 f6 97 3d 65 dc f0 bc cc 4e 9a bd d0 95 98 bc
       0.074201025 -0.029401967 -0.075345606 -0.018626124
0001b0 d5 4d 11 3d 5e 9d c4 3d 19 08 0d be e0 05 91 be
       0.035474617 0.09600328 -0.1377262 -0.28324795
0001c0 8a 08 d7 bb f1 29 a9 3d 18 24 98 3d 3b ed f0 3c
       -0.006562297 0.08259953 0.07428759 0.029409995
0001d0 00 0f 50 bd eb 49 17 3d af df 80 bd e4 5e 17 3d
       -0.050795555 0.036935728 -0.06292664 0.03695573
0001e0 28 9f a8 3c 0f 8f d3 bd ac e5 dc 3d bc 3b 1b bd
       0.020583704 -0.10330021 0.10785994 -0.037898764
0001f0 8b c5 87 be 2d e8 bb bd 5e 7e 3b 3d 33 30 76 bd
       -0.265179 -0.091751434 0.04577481 -0.06010456
000200 e1 92 04 be 4b ba 9d bd 5f 27 00 bd 74 05 c5 bd
       -0.12946655 -0.07701548 -0.031287547 -0.09620181
000210 71 8e 9a bd 51 51 1d 3d d8 94 15 be c1 1f 64 be
       -0.075467 0.038407627 -0.1460756 -0.22277738
000220 83 16 15 bd aa 5e 0f 3e 2e 2a c5 39 56 9c 76 3d
       -0.036398422 0.14000955 0.00037606194 0.060207687
000230 50 eb 72 bd 68 82 84 bd 02 63 23 3e 99 9b 7d 3e
       -0.059306443 -0.064701855 0.15955737 0.24766387
000240 57 63 1b bd 55 17 d9 3b 2f a2 c3 bc 3c 6d bd 3c
       -0.037936535 0.006625096 -0.023881046 0.023123376
000250 5e 02 95 3e ce b6 07 3d d9 ac a4 bd 7b 47 53 bd
       0.2910337 0.03313332 -0.080407806 -0.05158184
000260 f4 ed f4 3c 8a cc 15 3d 58 8c b3 3d d5 0a aa 3d
       0.029898621 0.036572017 0.08767003 0.08302847
000270 a1 b1 6e 3e 57 d9 91 3d d2 40 f6 bd fd 4e a2 be
       0.23309948 0.071215324 -0.12024082 -0.31700888
000280 cd 25 36 3d 90 f7 95 3d 78 61 cb 3d cb 38 15 be
       0.044469643 0.073226094 0.099307 -0.14572446
000290 2e 3f 01 bd a6 d7 2d 3d 85 02 25 3e e1 c3 44 be
       -0.031554393 0.042441987 0.16114242 -0.19215347
0002a0 d9 6e 35 3c 16 d9 22 bb 17 83 d3 bc 07 d8 74 be
       0.011073791 -0.0024848632 -0.025819344 -0.23910533
0002b0 5a b6 a3 3c 79 a8 51 3c 92 f5 f2 bd 64 e2 84 bc
       0.019984413 0.012796515 -0.11863245 -0.016221233
0002c0 d1 5e ed 3b fe a3 df 3d c1 96 0c 3e d6 74 1c 3d
       0.007243969 0.10919951 0.13729383 0.03819736
0002d0 b2 b4 14 bd 7b 6f 84 bd ee 97 07 3d df d2 0b 3e
       -0.036305137 -0.06466576 0.033103876 0.1365466
0002e0 b5 11 ca 3d 4c 6b 19 be 8e d9 52 3d dd 75 67 3d
       0.098666586 -0.14982337 0.051477008 0.056508888
0002f0 2a 67 ad 3d c5 77 fd bd ae 0e c4 bd 23 11 24 be
       0.084669426 -0.1237636 -0.095731124 -0.16022162
000300 d1 f5 bf bd 4e 6d 20 3d 8d 86 d1 bd 6b 44 85 3c
       -0.09373058 0.03916674 -0.10230742 0.016267976
000310 1f 51 8b bd c6 79 ae 3b 43 af b4 bd 92 0f fe bc
       -0.06802582 0.005324575 -0.08822491 -0.031013284
000320 dc 48 d7 3d c8 bd 5c bd 72 ac 82 3e 7c 45 23 3c
       0.10511944 -0.053891927 0.2552219 0.009965297
000330 25 76 fd bd 32 6b 2d be 59 20 80 3d 9a 80 d8 3d
       -0.1237605 -0.16935423 0.0625617 0.10571404
000340 a6 82 71 3e 20 51 76 3d 2a 82 36 3e ab c8 c6 bd
       0.23584995 0.06013596 0.17823091 -0.09706243
000350 3e 1d 00 be 73 5b 08 be 02 d1 f9 3d f6 5e 06 3d
       -0.12511155 -0.13316135 0.12198068 0.032805406
000360 08 3c 8f bd 1c 27 c3 3d 10 ce 0c be c6 84 c3 bd
       -0.06993872 0.09528944 -0.13750482 -0.09546809
000370 90 52 c1 3d 57 65 c8 3d 75 9d bb 3d 90 8d ce bd
       0.09439576 0.09784954 0.09160892 -0.10085595
000380 3a 7e 19 3e 8a 4e a2 3d 3f 3b 08 be 54 a1 92 bd
       0.14989558 0.079251364 -0.1330385 -0.07159677
000390 c6 bb 33 3e 84 cc bb 3d b4 a2 19 bd 0a 6d 72 3d
       0.17552099 0.09169868 -0.03750868 0.05918602
0003a0 a4 ab 4b 3d 50 db de 3b 66 9e 8b bb c3 45 e5 bd
       0.049724236 0.0068010464 -0.004260826 -0.111949466
0003b0 fb bb 44 be 82 fe 46 be ca 2b dc bd 26 87 f2 bc
       -0.19212334 -0.19433025 -0.107505396 -0.02960546
0003c0 21 8e b2 3c ba 09 73 3d 1a b4 46 bd d7 25 bd be
       0.021796288 0.059335448 -0.048511602 -0.36942932
0003d0 6a f5 a3 3d de e9 90 3d a2 77 5e be ca 88 33 be
       0.080057934 0.070758566 -0.21725324 -0.1753265
0003e0 2a 95 be 3c c5 b8 a6 bd 4d 47 9a bc eb a3 6b 3e
       0.023264486 -0.08140711 -0.018832827 0.23011748
0003f0 bd 4c 20 3d d6 29 8f bd e3 68 5c bc 5d b4 49 3e
       0.039135683 -0.069904014 -0.013452741 0.1969771

fc1.bias f4 [50]
000000 e5 20 58 3c 19 de d9 3d ab 90 51 3e 62 c6 98 3e
       0.013191436 0.10638065 0.20465343 0.29838854
000010 8c 14 69 3e 5c 32 8a 3e 3d fb 62 3e f8 76 5e 3e
       0.22761744 0.26991546 0.22166152 0.2172507
000020 13 cd a2 3d 45 18 03 3e 19 20 d1 bd b6 4e 21 3d
       0.07949271 0.12802227 -0.102112 0.039381705
000030 c9 eb ec 3d 8c ed 26 3d 31 f1 ce 3d 19 32 69 3e
       0.1156841 0.040753886 0.10104597 0.22773017
000040 bf be da 3d 2c 5b 5f 3d a5 5d de bd f5 e9 e1 3d
       0.10680913 0.054530308 -0.10857705 0.11030952
000050 88 d1 9e 3e 95 29 a7 3b db 58 03 3e e0 6a 34 3e
       0.31019235 0.0051013925 0.12826864 0.17618895
000060 fa 0f d1 3d 80 8b 44 3e d0 da 41 3d 4b 3d 38 3e
       0.102081254 0.1919384 0.047327816 0.17992131
000070 cd d1 0f 3e ad 66 44 3e 16 ef dd 3d 8f df 01 3e
       0.14044876 0.19179793 0.10836618 0.12682937
000080 cd 5c 53 3e 29 17 cc 3d c2 26 2b 3e 0d fa 83 3d
       0.2064087 0.09965355 0.16714004 0.06444178
000090 5a e3 ad 3d 83 97 9d 3e a0 22 37 3a e3 67 71 3d
       0.084906295 0.30779657 0.00069860555 0.058936965
0000a0 15 d0 5b 3d fa 5c 4c 3e 79 02 2b 3e ab 51 0c 3b
       0.05366524 0.19957343 0.16700162 0.0021410983
0000b0 f8 d0 39 3e d0 0c 09 3e 95 e4 37 3e aa aa 16 3e
       0.18146122 0.13383794 0.17958291 0.1471354
0000c0 e1 bc 87 3e c4 3d e8 3d
       0.2651129 0.11339906

fc2.weight f4 [10, 50]
000000 b7 9c 62 bd 82 42 b0 3d 0c 21 ea be 7f c3 4a be
       -0.055325236 0.08606435 -0.45728338 -0.19801138
000010 71 2d 2a be e3 96 11 3e 37 c0 0c 3e b7 bb 53 be
       -0.16618897 0.14217715 0.13745199 -0.20677076
000020 96 1b 79 be 08 e3 96 bd a3 d5 aa bc 8f 56 18 3e
       -0.2432693 -0.073675215 -0.020853823 0.1487677
000030 c8 b2 31 be 53 82 99 be 63 2c 4c be fd a8 84 be
       -0.17353356 -0.29982242 -0.19938807 -0.25910178
000040 6b c0 02 bd 9a 14 0b 3e ac 02 3a be dc 84 f1 3d
       -0.031921785 0.13582078 -0.18165082 0.11792919
000050 d8 53 13 be 56 87 25 be 95 a4 ef 3b ac a6 1d 3d
       -0.14387453 -0.16164908 0.007313321 0.03848903
000060 27 59 05 3e 84 60 27 be c9 12 e4 bd 9d 54 3c 3e
       0.1302229 -0.16345412 -0.111363955 0.18391652
000070 7d 65 bb be e7 6e bf be 06 1b 34 3e 64 6c 2d 3e
       -0.36600867 -0.373893 0.17588434 0.16935879
000080 d2 26 cf be af 5a 41 3e 1c 5a dc 3d 10 32 c3 3d
       -0.40459305 0.1888225 0.107593745 0.09531033
000090 c3 80 48 be 9f 24 d6 3d eb f4 cc 3b 4a 53 c2 bd
       -0.19580369 0.10456204 0.0062547824 -0.094885424
0000a0 e3 57 1f 3e 72 2b 94 be 82 ed ff 3d 90 fd b4 3d
       0.1556087 -0.28939396 0.12496473 0.08837426
0000b0 f8 db 97 be 4c ce f2 bd 9c e3 04 be 70 b4 d1 3d
       -0.2966001 -0.11855754 -0.12977451 0.10239494
0000c0 be c9 ab bd 2e 68 41 be b1 ad ef 3d 5c 1f fc 3d
       -0.08388089 -0.18887398 0.11703051 0.12310669
0000d0 40 b8 d6 3d 72 0f 03 3e 00 e0 0d 3e ab d9 04 3e
       0.10484362 0.1279886 0.1385498 0.12973659
0000e0 72 58 f0 3d d6 6b 8b 3d 3b 15 ad be 5d f7 15 3e
       0.117356196 0.068076774 -0.3380526 0.14645143
0000f0 54 8b d7 be cf 48 d5 be c1 b3 59 be ff c1 33 be
       -0.42098486 -0.4165711 -0.21259977 -0.17554472
000100 14 67 bd 3d a6 99 11 3e b4 80 07 be 5d e7 26 be
       0.09248176 0.14218768 -0.1323269 -0.16299196
000110 05 2a ad be 4e 21 56 be 68 39 23 3e c6 aa 5a be
       -0.3382112 -0.20911142 0.15939867 -0.21354207
000120 42 b9 a0 bd bc 53 c5 bd 0c 9d a6 be 65 1d 07 3e
       -0.07847835 -0.09635112 -0.32541692 0.13194807
000130 6a c7 1a be 12 11 7b be f6 eb c7 3d 15 12 07 3e
       -0.15115133 -0.2451823 0.09761803 0.13190491
000140 e8 86 93 bd 9a d8 7f bd 9d 48 ab be 84 a2 48 be
       -0.07203466 -0.062462427 -0.33453837 -0.19593245
000150 85 11 82 3d fe df 0e be c6 00 30 3d 64 a6 1f 3e
       0.06350998 -0.13952634 0.042969488 0.15590817
000160 80 70 ef be 03 a4 9d be 27 89 a5 be e8 1c 74 3d
       -0.46765518 -0.30789194 -0.323312 0.05959788
000170 60 6d b0 3d 91 ee 99 be 51 6c 00 3e b6 24 57 bd
       0.086146116 -0.30064824 0.1254132 -0.052525245
000180 ba 89 e6 3d 9c fd 83 be 2a d8 01 3e c4 a9 84 bd
       0.11256738 -0.25779426 0.12680116 -0.06477693
000190 af 42 22 3e a7 7f 5c bd 7c 7a ff bd 7d fc 14 3e
       0.1584575 -0.053832676 -0.12474534 0.14549442
0001a0 c8 48 43 bd a2 f2 f0 3d 39 6c 9f 3d b2 9a bf bd
       -0.04767683 0.117650285 0.07784314 -0.09355678
0001b0 fe 79 d5 bd 30 a9 e9 bc 58 4b cd bd 24 0a 43 be
       -0.10423659 -0.028523058 -0.10024136 -0.19046837
0001c0 01 e7 39 be 34 4e bc bd b0 0e bc 3d 4e 9e 11 be
       -0.18154527 -0.091946036 0.09182489 -0.14220545
0001d0 9e d5 0f 3e 8a 5e 09 3e b1 b4 58 bc be a4 ae 3d
       0.14046332 0.1341497 -0.013226674 0.08527516
0001e0 90 84 31 3e f6 44 7e 3d 92 13 e2 bd df ec f5 3d
       0.17335725 0.062077485 -0.11038889 0.1200807
0001f0 b3 97 43 be ed 7a 18 be e5 2f 1b 3e bf fc 88 be
       -0.19100837 -0.14890642 0.15154989 -0.2675533
000200 9f 09 4d be 4f 6f 12 3e 40 da 41 3e f3 02 13 3e
       -0.20023201 0.14300273 0.18930912 0.14356594
000210 6c e7 f9 bb d9 38 25 be 58 de 13 3d 5b 05 a0 3d
       -0.0076264646 -0.16134967 0.036100715 0.078135215
000220 5a 6e cc be de 19 76 be 15 8b 80 be f8 77 aa bd
       -0.39927942 -0.24033305 -0.2510611 -0.083236635
000230 f5 b6 0e bd 9c 46 4e be b8 09 a6 bd 8a 9d c5 3d
       -0.03484245 -0.20144123 -0.081073225 0.09649189
000240 f8 23 19 3e 89 90 d9 3d 3b 8e 7b 3d 8e 6e bd bd
       0.14955127 0.10623271 0.06141494 -0.09249602
000250 0c 7c 21 3e 42 44 f8 3d 4e 17 1c be 08 f3 13 be
       0.15769976 0.12122394 -0.15243265 -0.14448178
000260 13 9e 12 be 26 75 7e bc 10 36 59 be e3 9b b4 bd
       -0.14318113 -0.01553086 -0.2121203 -0.088187955
000270 3c f2 00 3e 09 2e 97 be 85 7b 3d 3e 9b cf a4 be
       0.12592405 -0.2952731 0.1850415 -0.3218964
000280 e8 30 28 be c7 5a 51 be 12 ba 3e 3e d5 3a 0c 3e
       -0.16424906 -0.20444785 0.18625668 0.13694318
000290 41 16 94 3d a2 aa 3f 3e 57 7a c2 bd 4d 08 13 3e
       0.07230807 0.18717435 -0.09495991 0.14358635
0002a0 0e f9 49 be e2 e9 e9 3d fa ec 20 3e 09 61 c5 bd
       -0.19723913 0.11421563 0.157154 -0.096376486
0002b0 c5 12 de bc 57 0b a4 3d 0a d5 de 3d 45 16 41 3e
       -0.02710856 0.080099754 0.10880478 0.18856151
0002c0 cb 76 88 3d ff 43 51 be b9 a1 92 bd 5c c0 06 3e
       0.06663283 -0.20436095 -0.071597524 0.13159317
0002d0 73 0f b6 bd 64 79 c9 3d e3 eb 60 3e 89 af a2 bd
       -0.088896655 0.098376065 0.21964984 -0.07943637
0002e0 85 9e 82 be e9 ec b6 3d 72 a2 51 bd 3c 2e c6 3d
       -0.25511566 0.08931906 -0.05118031 0.09676787
0002f0 e5 c0 9d bd 3d ec 73 be e2 40 19 be 02 07 12 3e
       -0.07702807 -0.23820587 -0.14966157 0.14260486
000300 aa 1f ad be 1a 0e 83 be 94 50 85 bd 70 f4 fa 3d
       -0.3381322 -0.25596696 -0.0650951 0.12253654
000310 59 30 76 be 68 2e 43 be 6c 57 46 be 68 0d 2c 3e
       -0.2404188 -0.19060671 -0.19369286 0.16801989
000320 e6 93 33 3e 22 3f 1a 3e b6 03 0d 3e e4 39 a4 bd
       0.17536888 0.15063146 0.13770947 -0.08018854
000330 4d 0a 14 3e ad fb 07 be ae 63 9f be 13 4d 56 3d
       0.14457054 -0.132796 -0.31130737 0.052319597
000340 de a8 6a bd 67 8f 23 3e a2 63 40 3e d1 d7 4b bd
       -0.05728995 0.15972672 0.18788007 -0.049766365
000350 a4 76 2e be ce 10 0d 3e 4f 10 a1 3d 8a b2 2e be
       -0.17037445 0.13775942 0.07864439 -0.17060295
000360 8c 70 c8 bd d9 82 b9 be a6 bc 1b 3e b5 8f ee 3d
       -0.097870916 -0.3623264 0.15208682 0.11648504
000370 34 74 0b be b6 5e ce 3d 12 29 05 3e 71 b9 75 be
       -0.13618547 0.100766584 0.13003948 -0.23996522
000380 ee 65 d8 bd 34 4e 37 be 3a 71 71 be 27 33 09 3e
       -0.105663165 -0.17900926 -0.23578349 0.1339842
000390 42 f1 ac 3d 3b d6 d0 3d 68 1a 0c 3d da d0 d8 3c
       0.08444454 0.10197111 0.03420487 0.026466776
0003a0 49 c7 fc 3b aa f2 7f be 59 d9 c0 bd 71 31 03 3e
       0.0077141863 -0.24994913 -0.09416456 0.12811829
0003b0 ea cc b5 3d c2 47 63 be d8 c8 c2 3d 81 82 ca 3d
       0.08876975 -0.22195342 0.09510964 0.09888173
0003c0 0b b1 e7 bd ef 27 7e bb cf 1c f3 3d 89 4d a9 bc
       -0.11313065 -0.0038781126 0.11870729 -0.020666854
0003d0 a8 9a 65 bc 18 dc 3d be 5e 78 c9 3d 6c 21 8e be
       -0.014013924 -0.1854099 0.09837411 -0.27759874
0003e0 66 54 e1 bc 61 7a a9 be c6 45 4e be a7 49 a2 3c
       -0.027506065 -0.3310118 -0.20143804 0.01981051
0003f0 31 03 80 be 51 d6 8b bd e0 ce da bd 1f 5d 18 3d
       -0.25002435 -0.06827987 -0.106839895 0.037198182

fc2.bias f4 [10]
000000 3b 1b a8 3e 70 1b b1 3e ff d8 ed bd 81 5e 8c 3d
       0.32833275 0.34591246 -0.11613654 0.06853963
000010 61 22 c9 be 04 1b 1e be b1 92 6e be e8 cb 8a bd
       -0.39284042 -0.15439993 -0.23298146 -0.06777173
000020 20 88 43 3e f2 bc 36 3d
       0.19094896 0.044613786

exp_avg f4 [10, 1, 5, 5]
000000 3e a7 83 ba f9 ac 55 3b e1 b3 2a 3b f2 7c 52 3a
       -0.0010044349 0.003260432 0.0026047158 0.00080294826
000010 e7 11 d2 bb 65 69 a9 bb 7e 7e 39 3b dc e5 49 3b
       -0.0064108255 -0.0051700347 0.0028304155 0.0030807173
000020 62 a3 8c b9 bb 7d c9 bb 8c f9 a6 bb 4c f1 3e 3a
       -0.0002682461 -0.0061490214 -0.0050956663 0.0007283881
000030 9b 62 84 3b b5 02 2c 3b 71 a3 05 bb b4 a9 ad bb
       0.004040075 0.002624673 -0.0020391608 -0.005299771
000040 51 21 ac bb 32 c3 59 3a 5b 8d 88 3b 7c 63 81 3b
       -0.005252995 0.00083069794 0.0041672415 0.003948627
000050 7f b3 09 bc 55 fd f2 bb bd ab 4b bb 2e d7 77 3b
       -0.008404612 -0.0074154534 -0.0031077706 0.0037817466
000060 2e e5 97 3b 69 9d c5 3a a0 2f 79 ba 7d 90 ad bb
       0.0046354746 0.0015076819 -0.0009505693 -0.0052967654
000070 48 03 09 bc a0 e4 03 bc 3b 0d bf b9 c2 f6 82 bb
       -0.008362599 -0.008050114 -0.00036440216 -0.003996701
000080 c8 9f 82 bb 64 d4 e0 bb 43 c0 e6 bb 28 28 60 bb
       -0.0039863326 -0.0068612564 -0.0070419624 -0.0034203622
000090 c4 9f 45 ba be 89 ca 3a 3c d5 21 bb b6 82 0d bb
       -0.00075387605 0.0015452427 -0.0024693748 -0.0021592802
0000a0 b1 fe bb ba 26 bf cf 3b cd 9f 05 3c cf f2 18 3b
       -0.0014342872 0.0063399253 0.008155775 0.0023338085
0000b0 fe 26 e9 39 ef 27 94 ba 0b 98 01 3c 28 52 3b 3c
       0.00044470275 -0.0011303405 0.007909785 0.011433162
0000c0 9e d5 88 3b 2c 59 b6 39 3e 73 da ba 32 c5 83 bb
       0.004175856 0.00034780183 -0.0016666425 -0.0040213102
0000d0 45 63 84 bb dd 32 c4 ba 2b 40 5d bb 12 b6 cf bb
       -0.004040154 -0.0014968772 -0.003376017 -0.006338843
0000e0 6d 87 15 bc 56 6c cb bb a0 dc 23 ba ca d7 aa ba
       -0.009126526 -0.006207983 -0.0006250832 -0.0013034281
0000f0 60 ac 5b bc 33 e6 4a bc 2a 13 67 bb be 23 f6 3a
       -0.013407797 -0.012383985 -0.0035259225 0.0018778963
000100 86 77 34 3b e0 72 6f bc 3f 73 19 bc af 19 9f bb
       0.0027537062 -0.014614791 -0.009365856 -0.0048553566
000110 f8 3e 17 3b a2 7f 8f 3b dc 43 59 bc 11 5c 42 bc
       0.0023078304 0.0043792287 -0.013260808 -0.011862771
000120 f3 50 e8 bb 9e 04 16 3b a0 c6 a5 38 06 0e a9 3b
       -0.007089728 0.0022890936 7.90481e-05 0.0051591424
000130 c6 29 0a 3c 1f f8 6b 3c b7 4a 88 3c 7d bf 39 3c
       0.008432811 0.014402418 0.01663719 0.011337158
000140 d4 b3 59 3b 77 d2 d1 3b 71 bb 2a 3c 54 cb 56 3c
       0.0033218758 0.006403263 0.010420666 0.013110001
000150 b9 d6 c5 3b 00 29 d7 35 de 81 a0 3a 82 2b 98 3b
       0.00603756 1.6030681e-06 0.0012245735 0.0046438584
000160 b8 5d d0 3b 66 f4 34 3b c4 88 8d b8 16 b8 54 ba
       0.0063588284 0.0027611493 -6.7488785e-05 -0.0008114589
000170 22 02 e8 ba 00 85 b0 b7 ff 86 64 3a 0a 4e de ba
       -0.0017700831 -2.1042768e-05 0.0008717626 -0.0016960513
000180 e4 21 ba bb 99 cd 09 bc cc 32 be bb cc bd 6b bb
       -0.0056803096 -0.008410835 -0.0058043953 -0.0035971282
000190 a2 0e f1 3a c5 d1 75 bb cd 98 e3 bb 74 df 2e bb
       0.0018391202 -0.0037509066 -0.0069457055 -0.0026683481
0001a0 02 54 7a 39 38 84 e5 bb 5f a9 1f bc 27 7d dc bb
       0.00023873153 -0.007004287 -0.009744971 -0.0067287865
0001b0 64 c1 0f bb c0 70 b3 b7 83 6d 3d bc 9b ea f6 bb
       -0.0021935338 -2.1390966e-05 -0.011561754 -0.0075352914
0001c0 f2 28 2f bb 4b d9 d6 3a 87 38 a0 3b 09 c7 8e bb
       -0.0026727286 0.0016391663 0.004889551 -0.004357223
0001d0 f6 1b 03 ba 4c bc 5c 3b 6e 3a ce 3b 76 49 f4 3b
       -0.000500142 0.003368157 0.0062935865 0.0074550463
0001e0 1e c6 4c ba 38 62 99 3b 33 f7 1d 3c fe e5 2a 3c
       -0.0007811504 0.004680898 0.009641456 0.010430811
0001f0 7f 1b 15 3c c2 ae 48 bb 21 38 60 bb 68 a0 c6 bb
       0.009100794 -0.0030621742 -0.0034213143 -0.0060616024
000200 e8 9d 90 bb fb cc 93 bb fe a6 6d bb 16 01 53 bb
       -0.004413355 -0.0045105196 -0.0036262865 -0.0032196692
000210 e2 a4 4c bb 4e 7e 82 bb 9e 0e 6d bb 6b c9 27 bb
       -0.0031226208 -0.003982342 -0.0036172043 -0.0025602232
000220 03 f4 0e bb 70 6a ea 38 a0 1b 16 38 3e a0 0d bb
       -0.0021812923 0.00011177815 3.5788515e-05 -0.0021610404
000230 b5 6d da b9 c3 99 e9 38 6e 14 89 39 8b fe 54 3b
       -0.00041661938 0.00011138946 0.00026145898 0.0032500352
000240 07 60 c6 b7 40 74 4a 3a 0c e7 bb 3a 56 5b 5f 3b
       -2.3648156e-05 0.0007723011 0.0014335825 0.003408154
000250 bc d9 bd 3b 32 0f 92 3b de 4d a6 3b a0 f6 23 3c
       0.005793778 0.004457378 0.0050752005 0.01000753
000260 7a cc 0c 3c 61 b1 99 3b 3d 20 35 3a a0 b5 50 3c
       0.008593673 0.0046903347 0.0006909406 0.012738615
000270 79 eb 3f 3c 85 4e 80 3b 2c 1a bb ba 5c 44 4d bb
       0.011713856 0.0039156103 -0.0014274768 -0.0031321263
000280 3a 65 02 3c 9d 17 30 3b 68 db 68 bb a9 54 92 bb
       0.007958705 0.0026869543 -0.0035531167 -0.0044656587
000290 6d f6 a5 bb 40 73 ec 3b 00 a4 85 3a e2 b7 98 bb
       -0.0050647766 0.0072158873 0.001019597 -0.0046605924
0002a0 12 49 56 bb 3a 71 68 bb 78 70 1b 3b c5 d9 4a ba
       -0.0032697362 -0.003546788 0.002371816 -0.00077381387
0002b0 4b 25 cb bb ba b8 8f bb 4e 9d 1d 3b 1f 6b f8 3b
       -0.006199514 -0.004386035 0.002405006 0.007581129
0002c0 36 aa 0d 3b 86 d1 06 bc f7 1e 40 bc 57 ae a8 bb
       0.0021616346 -0.008228665 -0.011726133 -0.005147736
0002d0 67 d9 ea 3b 33 a5 11 3a f8 66 07 bc fd 86 fc bb
       0.0071670297 0.00055559276 -0.008264296 -0.0077065215
0002e0 f4 33 23 3b 5c 5d 33 ba 56 a2 1e bc 30 b3 0d bc
       0.0024902793 -0.000684222 -0.009682259 -0.008648679
0002f0 fd 69 d5 39 d8 75 de 3b 8a 10 ba bb 81 cd 1c bc
       0.00040705493 0.0067889504 -0.005678241 -0.00957048
000300 5d ef ca bb 60 be 5a 3b f1 83 3e 3b 7d 6e dc bb
       -0.006193085 0.0033377632 0.0029070342 -0.0067270384
000310 8a 49 c8 bb 7e 04 91 bb 77 54 b1 3a f0 f5 0c 3b
       -0.006112282 -0.0044255843 0.0013529201 0.0021508895
000320 aa 36 eb ba 74 5a 89 bb 5c 08 9a bb 1e 69 0c bb
       -0.0017945368 -0.004191691 -0.0047007035 -0.002142496
000330 b2 da b3 3a 91 d3 c8 bb 00 6f 35 bc e0 8e e9 bb
       0.0013721792 -0.0061287363 -0.011073828 -0.0071276277
000340 94 bd fa 38 94 1c 2e 3b 5d cf ca bb 00 db 30 bc
       0.000119562406 0.0026567327 -0.0061892704 -0.010794401
000350 04 95 08 bc 92 62 d4 b9 75 3e e7 3a 49 45 19 bb
       -0.008336309 -0.00040509232 0.0017642515 -0.0023387244
000360 9a 1d ab bb 03 ea 89 bb 91 08 a7 3b b5 c4 3a 3c
       -0.0052220346 -0.0042088046 0.0050974567 0.011399438
000370 bb 38 de ba b8 8e a7 bb 70 74 d7 bb f7 7b ab 3a
       -0.0016954163 -0.005113449 -0.0065751597 0.0013083209
000380 86 14 11 3c 36 73 81 3a 60 49 2e bb ab 2e cd bb
       0.008854991 0.0009876254 -0.0026594028 -0.006261667
000390 76 65 99 bb d0 d2 7d 3a a6 14 4c 39 18 37 df bb
       -0.0046812845 0.00096825976 0.00019462648 -0.0068119876
0003a0 59 f6 d6 bb 4c 9c 5f bb a0 a7 57 b7 b5 ac 40 39
       -0.0065601286 -0.003412026 -1.2854027e-05 0.00018374885
0003b0 55 15 77 bb 21 d3 6c ba 04 04 39 3b 1a 6a 63 3b
       -0.0037701924 -0.0009034146 0.0028231153 0.0034700693
0003c0 9e e8 26 3b 3c 31 1f 39 20 26 5d 3b c7 ab 23 3c
       0.002546824 0.00015181763 0.0033744648 0.009989685
0003d0 31 c3 03 3c 7a 5e 4b 3a be 4e 70 b9 7b e7 a1 3b
       0.008042143 0.00077579136 -0.00022917517 0.0049409247
0003e0 aa 54 16 3c 94 6c d8 3b
       0.009175459 0.0066047404

exp_avg_sq f4 [10, 1, 5, 5]
000000 ce 99 51 3a 85 55 2e 3a 0e b1 16 3a c6 58 16 3a
       0.0007995636 0.00066503166 0.0005748429 0.0005735274
000010 a1 cb 26 3a c7 bd 3e 3a 54 08 0f 3a 0b ef 12 3a
       0.00063627405 0.0007276204 0.0005456258 0.0005605078
000020 58 86 16 3a e7 16 0c 3a 1c c0 37 3a 19 ce e8 39
       0.00057420647 0.0005343989 0.00070095225 0.00044404043
000030 00 1d 20 3a 19 2e 1c 3a 3c dd 05 3a 6d 31 3a 3a
       0.0006107837 0.0005957797 0.0005106514 0.0007102702
000040 87 b5 fe 39 1c b0 2e 3a 8e 58 25 3a 6d 7a 17 3a
       0.00048581904 0.00066638156 0.0006307446 0.0005778436
000050 3c c9 3f 3a ec ad 22 3a fa 3c 24 3a 63 a6 20 3a
       0.0007316058 0.0006205726 0.000626519 0.0006128309
000060 98 3a 2c 3a 95 e1 3b 3a 07 32 2d 3a 85 be 2c 3a
       0.00065700104 0.0007167098 0.0006606881 0.0006589669
000070 8e 3d 24 3a 40 4c 36 3a a3 d3 06 3a c2 e2 24 3a
       0.0006265276 0.0006954111 0.00051432307 0.0006289893
000080 2f 42 18 3a 77 12 08 3a ef 49 41 3a 99 a9 02 3a
       0.0005808202 0.000519074 0.00073733827 0.00049843785
000090 64 c0 24 3a f3 3f ec 39 72 ad 13 3a f1 34 68 3a
       0.0006284772 0.00045061074 0.00056334503 0.00088579865
0000a0 70 d0 18 3a ee 31 18 3a 97 ab 02 3a bd f6 47 3a
       0.00058293995 0.000580578 0.00049846753 0.00076280144
0000b0 3a 47 84 3a 8e dd 18 3a 9a d1 2a 3a ed 2b 52 3a
       0.0010092028 0.0005831354 0.00065162184 0.000801741
0000c0 25 bb 7b 3a 14 71 8e 3a 5b 28 ab 3a 77 8b a8 3a
       0.0009602777 0.001086744 0.0013058292 0.0012858947
0000d0 d3 70 a2 3a 8d 93 9b 3a 64 f0 9f 3a a9 83 9b 3a
       0.0012393243 0.0011869535 0.0012202379 0.0011864799
0000e0 a6 f6 9c 3a 57 79 a7 3a 6b 77 a4 3a 2d 34 94 3a
       0.0011975362 0.0012777251 0.0012547796 0.0011307054
0000f0 bc 7e c7 3a 9a 05 e5 3a 22 7e a7 3a 01 51 a5 3a
       0.0015220265 0.0017472983 0.0012778679 0.0012612642
000100 c5 7b 9b 3a 61 6e c4 3a f8 30 a5 3a 4f e2 b7 3a
       0.0011862448 0.0014986509 0.0012603095 0.0014029237
000110 a8 78 a2 3a 8d 86 ae 3a 2f 84 b4 3a 89 32 d2 3a
       0.0012395578 0.0013315246 0.0013772304 0.0016036789
000120 36 12 bf 3a 1b df a9 3a 0b 92 d1 3a ac 2d 64 3a
       0.0014577571 0.0012960167 0.0015988959 0.00087043154
000130 c7 ee 5a 3a 0a ce 4b 3a a6 91 3e 3a 28 c5 2a 3a
       0.00083516206 0.00077745377 0.0007269628 0.0006514364
000140 34 d2 63 3a 80 5f 55 3a 38 6b 3b 3a 61 65 23 3a
       0.00086906855 0.0008139536 0.0007149461 0.0006233063
000150 ca be 23 3a 04 e8 66 3a a9 d1 55 3a 4d ea 1d 3a
       0.00062463863 0.0008808377 0.0008156547 0.0006023988
000160 3f 35 1b 3a 01 65 26 3a d8 36 66 3a 9e 87 3f 3a
       0.0005920715 0.0006347448 0.0008781976 0.00073062803
000170 0c b6 0d 3a 7f dd 34 3a 70 7e 24 3a 3e 82 58 3a
       0.000540585 0.00068994606 0.0006274944 0.00082591537
000180 17 1b 2e 3a de 11 2f 3a 9a fc 36 3a dc 45 10 3a
       0.000664161 0.00066783826 0.00069803896 0.0005503574
000190 35 4c 16 3a 9f 4b 24 3a 80 ac 27 3a 64 e0 2a 3a
       0.00057334016 0.0006267372 0.0006396249 0.0006518422
0001a0 6d f2 48 3a 67 e1 09 3a e5 67 1d 3a ba 91 01 3a
       0.0007665519 0.0005259723 0.0006004556 0.00049426744
0001b0 34 d4 1b 3a 1d 20 50 3a ac ce 0a 3a e7 58 bb 39
       0.00059444015 0.00079393556 0.0005295079 0.00035733657
0001c0 2b b4 05 3a 6a 94 3f 3a 71 a3 65 3a 10 07 0b 3a
       0.00051003945 0.0007308187 0.00087600114 0.00053034816
0001d0 db 13 f7 39 4d 50 3a 3a 6c 51 64 3a 78 30 77 3a
       0.00047126305 0.00071073027 0.00087096426 0.00094295247
0001e0 9c ef 20 3a 66 2d 46 3a ca f5 5e 3a 41 9e 75 3a
       0.000613922 0.00075598655 0.00085052534 0.000936959
0001f0 04 50 82 3a 53 2a a4 3a 5b 2a a5 3a 03 71 a6 3a
       0.0009942059 0.0012524821 0.0012601124 0.0012698475
000200 a3 1b 9c 3a bd e2 ac 3a 4e 7f 9a 3a 99 7a 93 3a
       0.0011910092 0.0013190132 0.0011787207 0.0011251747
000210 b5 7a 8c 3a 09 f6 9c 3a 13 ed b7 3a e9 60 92 3a
       0.0010717722 0.001197518 0.0014032446 0.0011167797
000220 98 54 8a 3a 89 95 8b 3a a2 1f a7 3a 42 ef ba 3a
       0.0010553775 0.0010649423 0.0012750516 0.0014261978
000230 8b 97 86 3a de 84 88 3a 36 28 93 3a f7 73 a8 3a
       0.0010268552 0.0010415574 0.0011227194 0.0012851943
000240 f3 d7 b2 3a ed bb 83 3a 64 30 8d 3a 43 a1 97 3a
       0.001364468 0.0010050513 0.0010771868 0.0011568445
000250 64 ec a5 3a 76 da a4 3a cc 33 07 3b 2a d9 cf 3a
       0.0012658951 0.0012577313 0.0020630239 0.0015857567
000260 15 81 d2 3a 59 0c f8 3a 2c ba 16 3b 7c 68 05 3b
       0.0016060198 0.0018924578 0.002299915 0.0020356467
000270 33 f4 dc 3a a5 b8 d8 3a 4a 51 f9 3a 56 9e 1f 3b
       0.0016857445 0.001653452 0.0019021418 0.002435585
000280 c1 60 ff 3a 9e 66 cc 3a 37 33 d3 3a 43 51 f5 3a
       0.0019483791 0.0015594547 0.0016113286 0.0018716234
000290 6f f4 1b 3b 1a e2 e4 3a 73 73 d5 3a 24 4e f2 3a
       0.0023796817 0.0017462403 0.0016285017 0.0018486422
0002a0 ec 78 01 3b 63 ea 1a 3b a5 b0 de 3a 78 bc f7 3a
       0.0019755913 0.002363824 0.00169899 0.0018900773
0002b0 96 9c 07 3b f4 d9 0b 3b 6f 72 21 3b 8d 7a df 3a
       0.0020692698 0.0021339627 0.0024634858 0.0017050073
0002c0 48 86 bd 3a 3e 98 99 3a fc 46 8a 3a 0a 50 7e 3a
       0.0014459575 0.0011718345 0.001054972 0.0009701258
0002d0 5f 17 d3 3a 38 b4 ad 3a 10 67 95 3a 09 73 88 3a
       0.0016104988 0.0013252562 0.0011398513 0.001041026
0002e0 44 2a 76 3a ec b4 d8 3a e3 52 b4 3a c1 9a 87 3a
       0.00093904533 0.0016533411 0.0013757612 0.0010345803
0002f0 ca 57 8e 3a 61 0d a5 3a 5a 30 e3 3a bf 6c ac 3a
       0.0010859903 0.0012592488 0.0017333135 0.0013154967
000300 60 29 71 3a a8 96 86 3a fb e7 ae 3a 05 b6 e0 3a
       0.0009199586 0.0010268288 0.0013344282 0.001714409
000310 10 0d 98 3a 76 9f 7e 3a 16 93 8e 3a 15 e4 a3 3a
       0.0011600573 0.00097130926 0.0010877575 0.0012503887
000320 db 10 5d 3a 8d f4 73 3a b8 2a 8a 3a 6b 59 6d 3a
       0.00084329926 0.0009306155 0.0010541296 0.0009054157
000330 44 28 45 3a 06 e7 48 3a ef 5a 7b 3a 65 6a 7f 3a
       0.00075209537 0.00076638197 0.00095884403 0.0009743332
000340 31 f1 40 3a 69 3c 38 3a 55 55 3f 3a 9b 84 6a 3a
       0.0007360159 0.0007028045 0.0007298787 0.00089461514
000350 ef 7f 41 3a 12 af 22 3a f9 88 28 3a c3 20 2a 3a
       0.00073814293 0.0006205897 0.0006429102 0.0006489867
000360 fe 3f 3d 3a 63 d0 0d 3a d3 8f 0f 3a 65 9c 38 3a
       0.00072193134 0.0005409775 0.00054764486 0.00070423476
000370 fd a1 19 3a c3 58 15 3a 6c 6a 26 3a a3 d3 45 3a
       0.0005860625 0.00056971255 0.00063482556 0.000754649
000380 9d 3a 55 3a d0 f9 c1 39 7e 88 bd 39 ec 51 b9 39
       0.0008134039 0.00036997953 0.00036150584 0.00035346986
000390 4b 58 df 39 95 5e 00 3a 5d b5 ba 39 e8 51 b8 39
       0.00042599658 0.00048969063 0.0003561181 0.0003515624
0003a0 6e dd ac 39 ed bf c5 39 99 a3 f4 39 1b be d9 39
       0.00032971374 0.00037717764 0.00046661196 0.00041531105
0003b0 19 85 d2 39 54 18 a6 39 82 59 c6 39 b5 11 f3 39
       0.00040153487 0.00031680113 0.0003783219 0.00046361765
0003c0 a8 8a e8 39 9d ba f0 39 62 52 eb 39 f2 cb fb 39
       0.00044353795 0.00045915405 0.00044884073 0.00048026402
0003d0 6f 07 05 3a 2e e4 05 3a c9 7d 0c 3a 86 0f 15 3a
       0.0005074655 0.0005107549 0.00053593196 0.0005686212
0003e0 5a 2e 18 3a 62 67 16 3a
       0.0005805247 0.0005737451

exp_avg f4 [10]
000000 fb ee 5c ba 1a 86 4c bb a1 41 dc 3b c1 84 89 bb
       -0.0008427945 -0.003120786 0.0067216908 -0.0041967337
000010 9e cc 29 bc 53 43 dc 3a 8c 0f d9 3b 14 3e 4c 3c
       -0.010363726 0.0016804732 0.006624168 0.012465972
000020 f4 4c de ba 38 d9 44 bc
       -0.001696019 -0.01201468

exp_avg_sq f4 [10]
000000 09 bf 96 3a 1f 58 a4 3a 27 d1 80 3b 25 7a 82 3a
       0.0011501025 0.0012538469 0.003931183 0.0009954615
000010 8d a7 7c 3a fb fb bf 3a 4f 18 4e 3b a6 4e 22 3b
       0.0009638004 0.001464724 0.0031447595 0.0024766116
000020 a6 b8 62 3a 74 89 00 3a
       0.00086487306 0.00049032946
