checkpoint/model_epoch6.pth (torch, 268573 bytes, 24 tensors)

conv1.weight f4 [10, 1, 5, 5]
00000000: 3ff9 c13c ab58 983e 9929 d93e 620d 443d
00000010: 9c06 9fbd 7310 c8bd a4c4 673d bc64 a43e
00000020: 0b14 8d3e 420d 03bd 56ce bebe ff60 c53d
00000030: dbc6 f43e b98d 263e 6c86 0fbe 2336 97be
00000040: d714 21bd f046 b43e 7129 5b3e 4f31 a13d
00000050: b8cf 84be d037 673c e793 843e 7348 833e
00000060: 27c6 2f3d f95c c73d 6522 883e 565a 3f3e
00000070: 756e 50bc 9a48 a8bb 2d99 d6bd 66eb a83e
00000080: 474f ba3d 2d30 81bd d793 51be 5a1f 533d
00000090: dc9d 953e 6848 383e 4a39 76bd c3b8 5dbe
000000a0: 3ad6 463e 41a9 4c3e 257b 1b3d 3f70 25be
000000b0: f3a8 34be 0933 203e 1417 863e e9bd 83bc
000000c0: 8fba 7cbe d8b9 4cbe d768 e83e ecd5 053f
000000d0: caa0 843e 1535 3a3e 138f 9ebe 4955 a2bd
000000e0: 4959 48be 1623 00bd 58d5 233e 4bd6 973d
000000f0: 58c6 73be e8af 06bf d061 b3bd 8035 1dbc
00000100: ff40 a13e 8df0 e8bc 9977 90be b6f0 c3bc
00000110: 18e5 423e da5a 00bd 672a ac3e 396a fc3e
00000120: ea9c b23d 9870 65be 8b36 843d 2f58 07be
00000130: 178c b1bd 48a4 f83d 4450 033e a23e 7cbd
00000140: 2996 acbe b756 25be 00d5 71be d736 b33d
00000150: f071 423e abd8 81bd ebbf 82be de01 7fbe
00000160: d23c 3a3e 3e9d 1f3e 5104 abbe 983f 1bbe
00000170: 3880 7e3d 87a1 bc3e ed12 6e3e 0f7d 0fbe
00000180: e622 813d 79d8 8c3e 8caa 963e 3afc a03e
00000190: e9d6 683d 2845 843d 91e3 643e 5639 0a3d
000001a0: 88d1 c93d 2b4c 5a3e e424 d13d fa49 1dbd
000001b0: a134 71bd 619c 00be 4729 fe3e 517e a63c
000001c0: 2833 86be 6f26 c1bd 10e6 203d 57b4 ad3e
000001d0: 22a6 cdbd b40d 61be af6d 29be 92d5 14be
000001e0: 9d7b 473e d032 24be 62de abbd 1db0 35bd
000001f0: 2c05 0abe bb96 03be fd76 863d 5b3d 253e
00000200: b29c aa3a dd25 87be 2268 1bbe e6c3 4f3e
00000210: ab9b e03d 3df3 3dbe 6469 24be a3bc 11bd
00000220: 5492 debb f4f3 1ebd d2f6 f7bc cd76 6bbe
00000230: a94f 80bc 517b 5bbd 25df c13b d1ad f1bc
00000240: a63a 59be 7e0b c83d e411 ebbd cfc7 e93d
00000250: 61bb 84be 50f5 a4bd 4d6b 473e ebc6 5f3e
00000260: 43a1 853e 67bc 933e 0edb 8a3e e214 b43e
00000270: ba9d 5b3e 784b a13e 58f3 fc3d 35f3 ac3e
00000280: 263a 413d 2683 3c3e 2a46 30bd 875e 1b3d
00000290: 4b68 b93d 54b7 8fbe 019f b1bd 1e4f 70be
000002a0: bdf1 9ebd 4e16 92bd 322e c9be 3993 00bf
000002b0: d483 bbbe adc9 cbbe a31f d6bd 73c5 ee3c
000002c0: beea a83e 5b61 353e 9616 d0bc 9e21 36be
000002d0: 21d0 183e c14d 0e3e 9a86 3e3e 15b0 4a3e
000002e0: e0a7 48bd 26d5 a7be 0f61 e4bd f3b6 283e
000002f0: 030d ce3e ee3f 633e cbe6 97bd 9096 04be
00000300: 8b93 77be 92d6 153d 8d0a 263e a120 b2be
00000310: c262 4abd c1da 77be e004 29be c683 6c3c
00000320: 9f2c e63c 5827 86bd b054 403e fbe1 113d
00000330: c650 e53d 0a2b 0cbe cbce df3d 318f 26bc
00000340: 0ddd 7fbe 8b32 73be 3d2d 0a3d 1aa2 913e
00000350: 30bb 1abe d35a cbbe 8449 afbe e9f5 25be
00000360: c77b f63e 1a07 ae3e 2c36 96be 5025 c4bc
00000370: 537f 13be d13d 593e bd53 023f 0f16 123e
00000380: a9db 453e f216 e4be 095a cb3d 4049 a93e
00000390: fabe a43e fcee f83d 3f3b e43d ef21 033f
000003a0: db3a e23e 3c01 2fbd 19cf 12bb b8d7 073e
000003b0: 192a 7f3e 44c0 27be 0d17 8dbe c413 8bbe
000003c0: 6d5a 6e3e 541b 023c 2c89 05be e964 1dbe
000003d0: 529d 93bc f86b fd3d 2984 eebd aa69 8a3d
000003e0: ab4d 99bd b9b2 383e
0.02367842 0.29755148 0.4241455 0.047864325 -0.077649325 -0.097687624 0.056584015 0.32108104
0.27554354 -0.031995066 -0.37266797 0.09637641 0.47807965 0.16265 -0.14016122 -0.2953349
-0.039326515 0.3521037 0.21402527 0.07870733 -0.25939727 0.014112428 0.2589409 0.25641212
0.042913582 0.0973453 0.2658874 0.18686804 -0.0127216475 -0.005135608 -0.10478435 0.32992095
0.09097152 -0.06308017 -0.20466553 0.05154357 0.29222 0.17996371 -0.06011323 -0.21652512
0.19417658 0.1998644 0.037959237 -0.161561 -0.17642574 0.15644468 0.26189482 -0.016081767
-0.24680541 -0.19992769 0.45392486 0.52279544 0.25903922 0.18184312 -0.30968532 -0.07926423
-0.1956531 -0.03128346 0.15999353 0.0741392 -0.23806131 -0.5261216 -0.08758891 -0.009595275
0.314949 -0.028435016 -0.28216246 -0.02391849 0.19032705 -0.031336643 0.336261 0.4929979
0.08721335 -0.22406232 0.06455716 -0.13217233 -0.08669298 0.12140709 0.12823588 -0.06158317
-0.33708313 -0.1614636 -0.2361641 0.08750694 0.18988776 -0.06340154 -0.25537047 -0.24903056
0.18187264 0.15587327 -0.3340173 -0.15160978 0.062133998 0.36841986 0.23249407 -0.1401255
0.063054845 0.27508906 0.29426992 0.31442434 0.05684558 0.06458503 0.22352435 0.033746086
0.09854418 0.21318118 0.102121145 -0.038400628 -0.05888808 -0.12559654 0.49640867 0.020323904
-0.26210904 -0.09431159 0.039281905 0.3392665 -0.10041453 -0.21977884 -0.16545747 -0.14534596
0.19480748 -0.16035008 -0.083920255 -0.044357408 -0.13478535 -0.12850468 0.06565664 0.16136687
0.001301667 -0.26396075 -0.15176442 0.20289573 0.10967191 -0.1854982 -0.16055828 -0.03558029
-0.006792346 -0.03880687 -0.03026906 -0.22994538 -0.015662985 -0.0535844 0.0059164935 -0.029501827
-0.21213779 0.09767817 -0.11478022 0.114150636 -0.2592421 -0.08054602 0.19474526 0.21853225
0.26099595 0.28854677 0.2712025 0.35172182 0.21446887 0.3150289 0.12351102 0.33779302
0.047174595 0.18409404 -0.043035664 0.037931945 0.090530954 -0.28069556 -0.08672906 -0.23467681
-0.07760952 -0.071331605 -0.39293057 -0.50224644 -0.36624014 -0.39802304 -0.10455253 0.029146885
0.32991594 0.1771292 -0.025401395 -0.17786261 0.14923145 0.13896848 0.18606034 0.19793732
-0.048988223 -0.32779807 -0.11151325 0.1647604 0.40244302 0.22192356 -0.07417067 -0.1294806
-0.24177377 0.036581583 0.16214962 -0.3479052 -0.04941059 -0.24204542 -0.16505766 0.014435714
0.028097449 -0.06550473 0.18782306 0.035615902 0.11197047 -0.13688293 0.109281145 -0.010165975
-0.24986668 -0.2374975 0.03373455 0.28443986 -0.15110469 -0.3971773 -0.34235775 -0.16207089
0.4814131 0.33989793 -0.29338205 -0.023943573 -0.14404039 0.21214987 0.50909024 0.14266227
0.19322075 -0.44548756 0.09929282 0.33063698 0.32176954 0.12154958 0.11144113 0.51223654
0.44185528 -0.042725787 -0.0022401272 0.13265884 0.24918403 -0.16381937 -0.2755665 -0.27163517
0.23276682 0.007941086 -0.13040608 -0.15370525 -0.018019352 0.12374109 -0.11646301 0.06758435
-0.07485517 0.18036927

conv1.bias f4 [10]
00000000: f646 50bd eaba 0abe ae03 2f3e 64fe a0bc
00000010: 53d5 8ebe c1ef e1be f1aa 4d3e a0c1 4f3e
00000020: 5ae1 0fbe 9bf7 f83d
-0.050848924 -0.13547865 0.17091247 -0.019652553 -0.27897128 -0.4412823 0.2008474 0.20288706
-0.14050809 0.12156602

conv2.weight f4 [20, 10, 5, 5]
00000000: 174d 00be 0262 123e cd28 a13d b4b5 6a3c
00000010: 179f ec3d 422f 00be 2ccb 383e a393 1b3e
00000020: e2f0 0f3d 66fe 213e 914d f0bd 7524 113c
00000030: 8a9c e73d 690e d9bd 064e dcbd ea03 04be
00000040: 4fbf 17bc 88a4 b63b 00f8 1fbe ae0c 32be
00000050: f51d 95bd 0ad3 a0bd 71e4 cebb f6ed b8bd
00000060: be59 5fbe 8c80 58bd 9394 533b 7f31 823d
00000070: 0d4e a63d ba8e 42bd e53c 56be a5d3 843d
00000080: b5bd cd3d 05e0 513d a63b af3c 6275 e2bd
00000090: 60f1 573d a09a 9d3d 89db 6e3d 5040 59bc
000000a0: 0779 993d c60c 063d 242c 133d 2cce 8cbd
000000b0: 1612 69bc 9480 e9bc 7b02 87bb 23c1 803d
000000c0: 06b3 883c ec18 173d 84fe 18be 4e0e 80bd
000000d0: 0970 bebc fce6 8fbd bc8b 09bd a8e3 a8bd
000000e0: 2053 8d3c 68ab 9e3d b2e1 4ebe 2253 843c
000000f0: 7412 023d 3307 aabd 5b55 b5be 68bd 63be
00000100: cb38 2bbe 1f17 ecbd 6e88 79be d80b 1bbe
00000110: 83e7 27be f551 06be db18 d5bd 5065 0cbe
00000120: 6dd7 17be 872e adbc b631 96bd a3c2 a63d
00000130: 1759 f63d 9e04 613d 3501 17be 9354 7bbe
00000140: 623f bc3d be2c e83d 9705 3e3d 8f28 3ebe
00000150: 783b 36be afd2 0b3e 7225 383e 49cd 043e
00000160: 6c6b d0bd b516 58bc 0c39 a63d 711e e83d
00000170: 1164 4abd 83ce 34be 9690 ecbd 5d28 1a3c
00000180: d76b 6f3d 0cdc 8b3d e3ac 333d 41f3 11be
00000190: 41e2 6bbc 9dca 0ebe 3a6c e13d 8f4d 8f3d
000001a0: 6c27 12bd 3b93 7cbe 03c2 4bbc d9fb 9c3d
000001b0: 670f 053e c0c6 8f3b e0ef 70be 57c9 9d3d
000001c0: d94c 133e cf70 f53d 891f a6bd 5d8e 9a3c
000001d0: 1a34 5c3d 15ee 00bd 1dad abbd ed5a 96bd
000001e0: da12 c73d 4cf4 38bd 063c 21be 2147 d1bc
000001f0: c7c9 63bc 6a2d 67bb 9950 603c 035b 87bb
00000200: 5170 ffbd 250e eabd c376 3abd 6f93 153e
00000210: 24ef 68bc 7026 273d ab56 a6bd e1fd a73c
00000220: 94f2 0a3d 401e 31ba 1390 23bd 72f8 8bbd
00000230: 1334 c73c c4a4 c63d 49ec a23d f3aa 85bd
00000240: 7e3f 11bd de99 30bc c2c3 3c3c 9989 473d
00000250: b815 5c3d 35f3 b33a 8607 12be 44e6 52bd
00000260: 6710 933c bd3e 963d 2eed f63d 89d3 203d
00000270: 40c5 31bd cf5d 36bd 76f6 fb3c f6b5 273d
00000280: 5815 113d bf91 10bd ef2e a63c 701b 03be
00000290: f041 d0bc 6810 50bd 21f1 5dbd 2937 d8bc
000002a0: c3d8 7fbd 8b08 04bd 1db3 c6bd c1ff 2abb
000002b0: 1119 49bd f1ff b9bd c950 c8bd ff5a 42be
000002c0: 83eb 46be 1452 b3bd c286 3cbd 924e af3c
000002d0: 9399 d6bc ed01 1abd cbe0 aa3c 90c6 fdbb
000002e0: 2dde 2f3d f527 0abe 2292 603d 8a68 383d
000002f0: 4027 83bd af04 a3bd c81a 12be 7d4c 0fbd
00000300: 5c48 963d a4f0 043d e0a1 0bbd dc27 7fbd
00000310: c7c3 62bd e249 ebbd a073 f6bc 4721 d3bd
00000320: 471c 8abe ae85 3cbe 4326 80bd 4c24 653d
00000330: ee1c c8bd 4adc f5be 0fa2 01bd 9180 3bbc
00000340: 0a21 133e 83df cabd 3567 9ebe b342 793d
00000350: 514b eb3c 19bc 3f3c ca8d 4dbd d15c 2bbd
00000360: b246 003d 9c33 fabc ad0d d3bd 6866 8abc
00000370: 6513 353d f68b f03c 78de 393c afc1 d5bc
00000380: 1ef2 b1bd 0675 c7bd 6772 b83d bf26 29bb
00000390: a422 99bc 540e 05bd 594d 57bd f154 f83d
000003a0: 91d0 123e 1b7a f43c 01db 58bc c365 dbbd
000003b0: f82c f93c 725f 953d b856 863d 6d13 debc
000003c0: 86e8 3dbd 0bb8 3b3d af01 2cbd eb20 d8bd
000003d0: d7e5 1dbe 62b2 edbb 2bb8 13be 449a cdbd
000003e0: fd66 d7bd 0087 26bd cf13 44bd 1ea7 6ebd
000003f0: a981 2fbe b9eb 243e fca4 fd3d 1fe5 5ebd
-0.12529407 0.142952 0.0786911 0.014325548 0.115537815 -0.12518027 0.18046254 0.15193038
0.035141833 0.15819702 -0.117335446 0.00885879 0.11309154 -0.10598452 -0.10757069 -0.12892118
-0.00926192 0.005573813 -0.15621948 -0.1738765 -0.072811045 -0.078527525 -0.0063138534 -0.090297624
-0.21811578 -0.052856967 0.0032284602 0.06357097 0.08120356 -0.047499396 -0.20921667 0.064856805
0.10045949 0.051239032 0.021390747 -0.11057545 0.052720428 0.07695508 0.058314834 -0.013259962
0.07493787 0.032727025 0.035930768 -0.06875262 -0.014225503 -0.028503694 -0.0041201687 0.06286838
0.016686928 0.036889 -0.1494084 -0.062527284 -0.023246782 -0.07026479 -0.033580527 -0.08246547
0.017251551 0.07747537 -0.20203283 0.016152922 0.03175588 -0.083021544 -0.35416684 -0.22240222
-0.16720884 -0.115278475 -0.2436845 -0.15141237 -0.16396908 -0.13117202 -0.104051314 -0.13710523
-0.14828272 -0.02114035 -0.073337 0.08142593 0.12028711 0.054936044 -0.14746554 -0.24543981
0.09191777 0.11336659 0.04639205 -0.1857016 -0.17796123 0.13654588 0.17983034 0.12968935
-0.10176739 -0.0131890075 0.081163496 0.11333931 -0.049411837 -0.17656903 -0.11551015 0.009409037
0.058452453 0.0682908 0.04386605 -0.1425295 -0.014397205 -0.13944478 0.11006971 0.06997215
-0.035682127 -0.24665539 -0.012436393 0.07665224 0.12994157 0.0043877065 -0.23529005 0.07704418
0.14384784 0.11984407 -0.081114836 0.018866712 0.053760625 -0.031477053 -0.08382628 -0.073415615
0.097203925 -0.045154855 -0.15745553 -0.025546612 -0.013903088 -0.0035274872 0.013691091 -0.0041307225
-0.124725945 -0.11428479 -0.045523416 0.14607023 -0.014217172 0.04080814 -0.08121999 0.020506801
0.033922747 -0.0006756522 -0.03993232 -0.068344966 0.024316823 0.09699395 0.07955224 -0.065267466
-0.03546094 -0.010778872 0.011521282 0.048715208 0.05373165 0.0013729098 -0.14260682 -0.05148913
0.017952157 0.07336185 0.12056957 0.039264236 -0.043401003 -0.044523057 0.03075717 0.040945016
0.035420746 -0.035295244 0.020286052 -0.12803435 -0.025422066 -0.050796896 -0.054185037 -0.02639349
-0.06246258 -0.03223471 -0.09702132 -0.0026092383 -0.04909617 -0.0908202 -0.097810335 -0.18980025
-0.19425778 -0.087558895 -0.046026953 0.02139977 -0.026196277 -0.037599493 0.020859143 -0.0077446178
0.042936493 -0.13491805 0.054826863 0.04502157 -0.06403971 -0.07959878 -0.14268029 -0.034985054
0.0733802 0.032456055 -0.034089923 -0.062293872 -0.05536249 -0.114887014 -0.030084431 -0.103090815
-0.269747 -0.1841037 -0.06257298 0.05594282 -0.09771143 -0.4801963 -0.03164869 -0.011444227
0.14368072 -0.09905913 -0.30938116 0.060854625 0.028722437 0.011702561 -0.05018405 -0.041836563
0.03131742 -0.030542187 -0.10305343 -0.016894534 0.04420795 0.029363614 0.011344545 -0.026093332
-0.08688758 -0.09739117 0.090061955 -0.0025810448 -0.018693276 -0.032484367 -0.052564 0.12125576
0.14337374 0.02984338 -0.013235808 -0.10712769 0.03041695 0.072935954 0.06559509 -0.027108872
-0.04636433 0.045829814 -0.041993793 -0.105531536 -0.15419708 -0.007253931 -0.14425723 -0.100391895
-0.1051769 -0.04065609 -0.047870453 -0.058264844 -0.17139305 0.16105546 0.12384984 -0.054417726

conv2.bias f4 [20]
00000000: 96a7 073b 95bc 68bc 55d1 103d e0d1 8cbd
00000010: 3d0c 8bbc b598 90bd 4722 92bd 546a 0fbd
00000020: 75b7 473d 208f d8bc 83c7 0f3c f1e9 c5bc
00000030: 55fc ecbd 5470 183d 262f 3c3d 0972 bebc
00000040: 4329 febc 9435 3ebd da67 d7bc 07c6 d3bb
0.0020699254 -0.014205118 0.035355885 -0.06875968 -0.01697361 -0.070603766 -0.07135444 -0.03501351
0.048758943 -0.026435435 0.008775595 -0.024159404 -0.11571566 0.0372165 0.0459434 -0.023247736
-0.031025534 -0.046437815 -0.026294637 -0.0064628157

fc1.weight f4 [50, 320]
00000000: 0691 f73d 541e ed3c dfff ad3c 2d5c d53d
00000010: 21a2 e3bd 7171 0e3b 1344 54bc c2d8 cc3d
00000020: 6758 d0bd c918 edbd 026d 803c 2814 003e
00000030: 6c36 813e 8df1 babc d12b e2bd c4ef 043c
00000040: 212d 1cbd 7d21 73bd 35f4 f03c 0c03 893b
00000050: 47ab 613d f810 323d d036 ae3d e237 88bd
00000060: 69da 9b3d d4d0 febd f59f bf3d 5195 f6bc
00000070: 2389 07be 1c1d 2bbd 6b00 56be 8032 a5bd
00000080: 9e0c a0bd 43fb adbd ee86 ca3b 7f64 07be
00000090: 768e 733d 4bc3 c03c 6c8b a73c 7e33 8fbe
000000a0: c347 873d fb60 453d 05a7 ba3d f750 7cbd
000000b0: 020e c03d b3ca fb3c b56e e4ba 2c68 623e
000000c0: b973 61be 2b18 04be 3a2a dbbd 265c 91bd
000000d0: 4f12 3b3e 028a 5b3d f88a adbd 07c6 53be
000000e0: b091 493e 3084 f03d 730a 1e3b f1fc 0b3d
000000f0: 2f3a 003c 2331 cf3c b57d e9bd 4ba4 e53d
00000100: 3414 c3bd 2795 7ebd f5c4 d0bd 1f63 7abd
00000110: 0f2f a93d ae10 d1bd f511 a73b 71da a0bc
00000120: ab70 f53d fcfa bd3c b71f 36bc 6072 143d
00000130: 202b 75bd 691e 003c d986 17be b5c3 03be
00000140: 3973 61bc 04fe 23bd 2d87 d3bd ccd2 83bc
00000150: cfba db3d 8784 893d 4033 88bd 84a2 5d3c
00000160: ea25 92bd 242b 503d dbb0 d33c e87e e83c
00000170: 586e c7bb d9fc 12be 3231 18bd 3174 92bd
00000180: a021 f6bc bbbc 43bc d26d bc3d d51d 793d
00000190: 15e9 52bd e37d 97bd 8912 843d 61ff 1e3e
000001a0: 4be6 d63d aca1 fdbc 66da babc 1722 303c
000001b0: 1c26 753d b37d a33d c7c5 05be bf38 79be
000001c0: f985 d73b 171d a23d 2d57 833d 12ba 043d
000001d0: e610 45bc 1807 023d 3db9 98bd df5f 1e3d
000001e0: 7b32 bb3c 296c debd 0ca7 883d ae24 43bd
000001f0: 105f 8cbe 8dee 07be bcd6 7e3c bc27 0fbd
00000200: 7286 ebbd e911 b1bd db20 94bc 7ba3 abbd
00000210: 0756 acbd 6818 803c 2f77 e3bd 6eb7 68be
00000220: c8ff c5ba 2594 0a3e bb58 1ebc 2931 ab3c
00000230: 19aa 10bc 555a 20bd 9c5f ed3d 1198 5f3e
00000240: 6d33 ffbc 9cb4 e93c 01d7 92bd 357d a13c
00000250: 77e4 a13e 1c3b a43d 2a7d d3bd 161d d4bd
00000260: c0f3 653d 4d32 b23d 120e 9a3d cc4b 893d
00000270: 1dc2 493e f63c bebc d464 1ebe c36b a1be
00000280: 3142 823d 068c 033e 79ae 9d3d 4fb2 0dbe
00000290: 1974 423c ab6f 323d ab3a 003e 0f6c 20be
000002a0: cc44 cabb 7c97 f2bc c56b 82bd 80fd 28be
000002b0: 2434 2f3d 6d5c e63b 463f 7dbd 6392 e13a
000002c0: 753c de3c 1237 d93d 75ae a63d 2075 ac3b
000002d0: 105b b5bc 8b8c 1abd 3731 5f3b 057c 0b3e
000002e0: bbde db3d 163b 03be 0397 593c c802 3f3d
000002f0: 93c5 e13c a725 04be 5d1d c1bd d269 05be
00000300: e03d c3bd 7dbb c43c d33a 9cbd 928d a13c
00000310: 46a1 a9bd 4af1 a0bd e9f4 cbbd bc7c e4ba
00000320: 6f70 d23d e0de 0ebd 6182 403e 7feb d7bc
00000330: 5e72 e8bd aaf1 1abe b872 81bb 5219 a03d
00000340: fd10 743e 4e16 973d 40a6 203e e36b 47bd
00000350: a0c8 03be 59bf c9bd a4ec ee3d 605c 003d
00000360: c5ba 21bd b047 403d 4436 c4bd f064 2cbd
00000370: a95f e13d f971 6f3d c9e4 833d 1ec1 adbd
00000380: d749 283e 5318 103d 5577 02be 0b3f 2fbd
00000390: 93a9 293e c2ab 753d cc76 c0bd 5dd5 983d
000003a0: 6b74 ea3c 8843 bc3a b488 1fbd aea9 96bd
000003b0: baab 57be d671 27be faf5 12be 1cf6 423c
000003c0: 471c 943c a191 cc3d 1351 89bc 9e6c b9be
000003d0: 2e5a 0e3d 179d 993d e53b 22be 1fac 18be
000003e0: 2b71 1cbc 22ed e8bc 0891 c73c a49e 753e
000003f0: e09e 7e3d 2037 cdbd a8e8 82bd 9fb1 193e
0.12088208 0.028945126 0.021240173 0.10417972 -0.11114908 0.0021735097 -0.012955683 0.10002281
-0.101731114 -0.11576993 0.015676979 0.12507689 0.25236833 -0.022820259 -0.110435136 0.008113805
-0.038128976 -0.05935811 0.029413322 0.0041812714 0.055094983 0.043473214 0.085065484 -0.06651284
0.07610018 -0.124421746 0.09356681 -0.030100496 -0.13235907 -0.041775808 -0.20898597 -0.08066273
-0.078149065 -0.0849519 0.0061806357 -0.1322193 0.059462033 0.023530623 0.020452224 -0.27968973
0.06605484 0.04818819 0.09113888 -0.06160065 0.09377672 0.030736303 -0.0017428013 0.22110051
-0.22016801 -0.12899844 -0.107014135 -0.07097654 0.18268703 0.05359841 -0.08473772 -0.2068101
0.19684482 0.11743963 0.0024115115 0.03417677 0.007826372 0.025291985 -0.1140093 0.11212977
-0.09525338 -0.06215396 -0.101938166 -0.061129685 0.08260929 -0.102082595 0.005098576 -0.019635411
0.1198438 0.023190968 -0.01111596 0.03624189 -0.05985558 0.00781975 -0.14797534 -0.12867625
-0.013760381 -0.04003717 -0.10328517 -0.016091727 0.1072899 0.06714731 -0.066504 0.013527516
-0.07136138 0.050822392 0.025841167 0.028380826 -0.006086152 -0.14354266 -0.03715629 -0.07151068
-0.03004533 -0.011946852 0.09200634 0.060819466 -0.051491816 -0.07397058 0.06448848 0.15527107
0.10493144 -0.03096088 -0.022809219 0.010750315 0.059850797 0.079829596 -0.13063727 -0.24338053
0.00657725 0.07915705 0.06413112 0.032404013 -0.012027955 0.031745046 -0.074572064 0.03866565
0.02285122 -0.10860474 0.06672487 -0.047642402 -0.27416277 -0.13274594 0.015554126 -0.034950003
-0.11500253 -0.08645994 -0.018082073 -0.08380791 -0.08414846 0.015636638 -0.11106717 -0.22726223
-0.0015106136 0.13533075 -0.00966471 0.020897465 -0.008829617 -0.039148647 0.11590502 0.21835352
-0.031152451 0.028528504 -0.07169915 0.019713024 0.31619617 0.08019087 -0.103266075 -0.1035711
0.05614066 0.08701 0.07522215 0.0670391 0.19702955 -0.023222428 -0.1546815 -0.31527528
0.06360281 0.12846383 0.07699294 -0.1383755 0.0118685 0.043563526 0.1252238 -0.15666221
-0.006172752 -0.029613249 -0.06368212 -0.16502953 0.042774335 0.007030061 -0.06182792 0.0017209764
0.027128438 0.10606207 0.08138744 0.005262986 -0.022138149 -0.03773169 0.0034056434 0.13621528
0.10735842 -0.12815508 0.013280633 0.04663351 0.027560031 -0.12904988 -0.09429429 -0.13028648
-0.09533286 0.024015183 -0.07628407 0.019720826 -0.082827136 -0.07858522 -0.09958822 -0.0017432193
0.10275351 -0.03488052 0.18799736 -0.02635741 -0.11349939 -0.1513125 -0.003950443 0.078173295
0.23834606 0.07377301 0.1568842 -0.048686873 -0.12869501 -0.0985095 0.11666229 0.031338096
-0.039484758 0.046943367 -0.09580663 -0.04208845 0.11004574 0.058458302 0.06440122 -0.084841
0.16434418 0.035179447 -0.12740834 -0.04278473 0.16568594 0.059978254 -0.09397659 0.07462571
0.028619966 0.0014363388 -0.03894873 -0.073565826 -0.21061602 -0.16352019 -0.14351645 0.011899497
0.01807989 0.09988714 -0.016762292 -0.3621568 0.03475397 0.07500666 -0.1584316 -0.14909409
-0.009548466 -0.028433386 0.024361148 0.23986298 0.062163234 -0.1002028 -0.06392032 0.15009163

fc1.bias f4 [50]
00000000: 1b62 163c cde5 9f3d bbc3 223e 4185 823e
00000010: ab9f 363e 63a2 593e 03cd 2c3e 6158 453e
00000020: 2c82 a63d 159a b93d 5dbf cdbd 628d 243d
00000030: 651d e13d be12 d13c 5398 c43d 601b 503e
00000040: 4a88 b33d ca75 c83c 4501 cebd efa6 9d3d
00000050: 646e 753e a481 663b b0d5 063e 914a fd3d
00000060: d905 bb3d 74d7 193e e007 353d 3899 393e
00000070: 4cc1 f63d 5f9f 103e e762 b63d f7fd e93d
00000080: ce17 263e fa50 5d3d 4aa6 ca3d 1c6c 333d
00000090: c6c3 5a3d 7680 8a3e 0371 053c 56ff 043d
000000a0: ec6e 3f3d 717b 463e 343c dc3d 1a15 74bc
000000b0: 68de 043e 8437 f93d 9d4b 013e dc59 1a3e
000000c0: 2ca9 543e 4b26 d73d
0.009178664 0.07807503 0.15894978 0.2549229 0.17834346 0.21253352 0.16875081 0.19271995
0.08130297 0.09062592 -0.10046265 0.040173896 0.10991935 0.025521632 0.09599366 0.20322943
0.087662295 0.024470229 -0.10058836 0.07697856 0.23967892 0.0035172487 0.13167453 0.12367738
0.09131975 0.15023595 0.044196963 0.18124855 0.12048587 0.14123295 0.08905583 0.11425393
0.16220018 0.054032303 0.09894998 0.043804273 0.05340936 0.27051133 0.00814462 0.03247007
0.046736643 0.19383027 0.1075367 -0.014897609 0.12975466 0.12168792 0.126265 0.15073341
0.20767659 0.10505351

fc2.weight f4 [10, 50]
00000000: 8ee7 1ebd 8a90 723d dd25 cfbe 4b0e 57be
00000010: 307e fcbd 9dee 1e3e 77f3 143e 546a 4cbe
00000020: 09e5 7fbe 63bd 25bd 814d aebc 05bc 0b3e
00000030: 4adf 0dbe 1814 8fbe 9337 32be e612 63be
00000040: 9e9c 08bd 4fce fa3d 72aa 35be a2bb d43d
00000050: a4ad 96bd b9fd 38be 0285 be3c 77b5 4d3d
00000060: a6ce e73d 6c1a 21be e141 08be c81d 083e
00000070: 233d bfbe e259 aebe 316c 433e 479f 3d3e
00000080: ba40 c7be dd0c 483e a9ef e23d 843d be3d
00000090: a007 38be 906e c63d 908b 7bbd 6092 e0bd
000000a0: 780d 3b3e ad8e a4be 1972 0e3e 7b52 be3d
000000b0: 9364 9cbe 28bb 17be 2c96 f5bd a5b4 9b3d
000000c0: 1259 c0bd 1547 36be 429b 923d 8579 153e
000000d0: a9e0 ed3d 2de5 f13d 13f7 013e 5aae f93d
000000e0: 1461 023e c5c0 9b3d a74b 8dbe 0555 053e
000000f0: f5fc b3be 55bd babe 34b0 6fbe 6bc1 17be
00000100: 082f 9b3d a2fc 113e 7002 dcbd 29a6 b8bd
00000110: fabe 9abe 846e 5bbe 2239 3a3e 4495 6cbe
00000120: e35a 61bd 3ca0 a8bd 2868 8fbe 7b0c f43d
00000130: 2e1f 1ebe b6c3 39be c809 d13d c65e 133e
00000140: cc64 9dbd ae4e 70bd ade3 a4be 4e56 2abe
00000150: 27a3 bf3d 3451 19be ad24 953d 337b 393e
00000160: ca34 c4be 87a4 90be 6612 96be 6344 843d
00000170: cbfa 8d3d 8b3e abbe 8ef2 153e 8e60 87bd
00000180: e7ef d03d f17f 6abe e57a 093e 78a4 acbd
00000190: f0b3 203e c7a3 9fbd 75cc f4bd 623c 233e
000001a0: fb33 a6bc 3df8 e73d 2c03 883d 3381 5dbd
000001b0: 81bd debd 735c 39bc 3d1e e6bd 694c 3fbe
000001c0: d745 45be 053f 8bbd 97e5 a53d d390 e8bd
000001d0: 59be 0d3e 97c8 073e 24ef 1cbd a48e b13d
000001e0: ff1a 353e f713 d23d c27f 06be c2a8 cb3d
000001f0: 5b9c 42be 2655 19be 4fed 0a3e f55c 94be
00000200: 4108 4dbe 7833 fb3d efc3 433e 7d47 043e
00000210: bf8b 453c 9f9d d7bd ce8a 063d 55b6 b03d
00000220: 8452 a6be 119e 44be 273e 84be fc0d d0bc
00000230: ab56 183b 87ba 51be 25d6 45bd 271c c43d
00000240: 1fd3 153e b20f e13d f821 333d e260 01be
00000250: a0ee 223e 42fa e03d 3708 b6bd 1d0c f2bd
00000260: d8a0 10be 3625 d33c 0550 5cbe ced1 88bd
00000270: 23c4 0c3e c67c a8be 8c7d 163e c799 85be
00000280: 3f50 1fbe 43a8 74be 70cc 493e 11c4 143e
00000290: 010a b03d ce38 273e 7351 a0bd 0c29 0f3e
000002a0: 18a2 34be b9a5 ca3d 3b20 1e3e 0d22 4dbd
000002b0: f9b3 94bc 7d17 d33d e548 b33d ff0f 383e
000002c0: de1a 7f3d 006b 59be 144c 00bd feb1 e53d
000002d0: 233e 9ebd a3db df3d b82c 623e 8d1d 54bd
000002e0: 07b9 7bbe 72b2 993d 6298 4bbb 0c86 d83d
000002f0: 5b39 9bbd 43c4 5cbe 1b8f 3ebe d489 0d3e
00000300: 3a57 b6be 7679 30be 050b b7bd 5017 ce3d
00000310: bca9 66be 9643 57be 5c0b 4ebe 6114 283e
00000320: f45f 413e 21e5 223e fc62 073e e7b5 a3bd
00000330: feaf f43d ef91 0ebe c7d0 95be acf8 933d
00000340: 3206 9abd 4aa1 083e 7190 153e d833 69bb
00000350: 2d12 1cbe 5895 103e 995f af3d 4f98 27be
00000360: 7516 aebd dcd4 d3be aecf 1f3e b46d f53d
00000370: 17d5 22be 7d2a bb3d 351c dc3d 6f10 86be
00000380: fcd9 fabd 2519 27be 8725 63be ee2e f73d
00000390: be01 a23d f9a0 e73d b057 1e3d 1106 62bc
000003a0: 8352 91bd e0a3 89be 846a 74bd d887 e93d
000003b0: d035 b03d 86bd 56be dbf1 b73d acfc a43d
000003c0: c305 f4bd f07b 013c 12b8 cb3d 58e5 2dbd
000003d0: 2b70 18bd 5d62 54be be4a a33d ff14 7ebe
000003e0: de0b 36bd 0330 92be f0cc 58be 440b 9d3c
000003f0: fdc1 52be 1fa9 f1bd c822 afbd 4490 023d
-0.038795047 0.059219874 -0.40458575 -0.21001546 -0.12328756 0.15520711 0.14546 -0.19962436
-0.24989714 -0.040463816 -0.021277191 0.13645943 -0.1385471 -0.27945018 -0.17404012 -0.22175178
-0.033352487 0.122463815 -0.17740801 0.103873506 -0.07357338 -0.18065538 0.023256782 0.050221886
0.11318712 -0.15732735 -0.13306381 0.1329261 -0.3735133 -0.3405295 0.1908424 0.1851779
-0.3891657 0.19536157 0.11080868 0.09289077 -0.17971659 0.09689057 -0.061412394 -0.10965419
0.18266857 -0.32140103 0.13910712 0.09293076 -0.30545482 -0.14817488 -0.11991534 0.076028146
-0.09391989 -0.17800553 0.07158519 0.14597137 0.11615116 0.1181129 0.12691908 0.12191458
0.12732345 0.07605127 -0.2759678 0.13020714 -0.35153928 -0.36472574 -0.2340706 -0.14819877
0.0757733 0.14256528 -0.107426524 -0.090160675 -0.3022383 -0.21428877 0.18185857 -0.23103815
-0.055018317 -0.08233687 -0.28009152 0.11916443 -0.15441582 -0.18141064 0.10206944 0.14391622
-0.07685241 -0.058668785 -0.32204953 -0.16634485 0.09357291 -0.14972383 0.07282386 0.18113403
-0.38321525 -0.28250524 -0.29310912 0.06458356 0.069326006 -0.33446154 0.14643309 -0.06610213
0.10202008 -0.22900368 0.13425787 -0.084298074 0.1569364 -0.0779491 -0.119530596 0.15941003
-0.020288458 0.113266446 0.0664123 -0.054078292 -0.10875989 -0.0113135455 -0.11236236 -0.18681492
-0.19264923 -0.067991294 0.081004314 -0.11355748 0.13842143 0.13260113 -0.038314 0.08669785
0.1768608 0.10257714 -0.13134673 0.099442974 -0.19004957 -0.14973888 0.13567089 -0.2897717
-0.2002268 0.12265676 0.19117711 0.12917896 0.012057244 -0.10528111 0.03284722 0.08628527
-0.3248483 -0.19200923 -0.25828668 -0.025397293 0.0023245018 -0.20481311 -0.048299927 0.09575682
0.14631318 0.10989322 0.043733567 -0.12634614 0.1591134 0.10985233 -0.088882856 -0.11818717
-0.14123857 0.02577458 -0.215149 -0.06680642 0.13746695 -0.32907695 0.1469633 -0.26093885
-0.15557955 -0.23892312 0.19706893 0.14527918 0.08595658 0.16330263 -0.07828035 0.13980502
-0.17639959 0.0989489 0.15441982 -0.0500813 -0.018152224 0.103072144 0.08754138 0.17974852
0.062281482 -0.21232224 -0.031322554 0.1121559 -0.077266954 0.10930564 0.22087371 -0.051785994
-0.24582301 0.07504739 -0.003106617 0.105724424 -0.07579299 -0.21559243 -0.18609278 0.13822109
-0.35613424 -0.17233834 -0.08937649 0.1006304 -0.22525686 -0.21021876 -0.20121521 0.16414024
0.1888426 0.15907718 0.13221353 -0.079936795 0.1194763 -0.13922857 -0.29260847 0.07225165
-0.07520713 0.13342777 0.14605881 -0.003558388 -0.15241309 0.1411947 0.08563156 -0.16366695
-0.08500377 -0.41373336 0.15606567 0.11983815 -0.159016 0.09138963 0.107475676 -0.26184413
-0.122486085 -0.16318186 -0.22182284 0.12069498 0.079104885 0.1131 0.038657844 -0.013795392
-0.07095816 -0.2688284 -0.059671894 0.11402863 0.08604014 -0.20970735 0.08981677 0.08056006
-0.119151615 0.007903084 0.09947218 -0.042455047 -0.037216347 -0.20740648 0.0797324 -0.24812697
-0.04444491 -0.28552255 -0.21171927 0.01917041 -0.20581813 -0.117998354 -0.08551556 0.031875864

fc2.bias f4 [10]
00000000: 22b8 4b3e f938 943e 838b 0fbe 0542 b83d
00000010: c891 b3be e75b 23be aae7 34be 34a5 96bd
00000020: c1f0 523e a684 c13d
0.1989446 0.28949717 -0.14018063 0.08996967 -0.3507216 -0.15953027 -0.17666498 -0.07355729
0.20599653 0.09449129

exp_avg f4 [10, 1, 5, 5]
00000000: d002 b83b 2952 e33b a01b c53b 6f68 7c3b
00000010: d275 af3a f25b 6a3b 9294 053c 63cd ec3b
00000020: ddac 0b3c 8a69 5a3b 3fd9 453b eb88 043c
00000030: 2361 363c 4a4f d43b 005b 2637 0628 cc3b
00000040: d2cf 2f3c 9945 fd3b 432b 673a 21a2 a7bb
00000050: 0483 1e3c 337d 263c fcad 2e3b 2eef a6ba
00000060: a31c b9bb c38e 423b ea3f 213b 7b76 6a3b
00000070: 5d1b 903b a4ca a73a f964 893b 7075 ab3b
00000080: ebde b53b 7bcc c2ba 29e9 eabb 4631 d73a
00000090: b72c 863b 10f7 893a 8c6c 6dbb 1844 f5bb
000000a0: 0e35 bbba a094 f8b8 cac8 31b9 01e5 adbb
000000b0: 17ea c2bb 3cc7 48bb 69c1 b339 a8fe 8239
000000c0: 1c69 bfbb 1af2 fabb 12f0 29bc bcb7 dfbb
000000d0: a8b1 51bb 3dbe bbba 8100 143b cf13 7bbb
000000e0: cf72 323b f842 fb3a fb13 cc3a 8427 a73b
000000f0: 23da f43b b90c f53b 43a3 a73b ae85 c33b
00000100: 1849 ef3b a2ee 923b 46e2 073c 61d9 e43b
00000110: 5719 193b 40a9 733b a20f b43b bc99 2e3c
00000120: 2335 463b f479 53bb 1f61 853b dd69 ed3a
00000130: faf9 973b fde4 883b be91 993b bc3c 84ba
00000140: e894 b53a 6e82 033a d215 2fba 762c 723b
00000150: a413 d63b 4a5d 283b 12f8 0c3a 3db2 80ba
00000160: 22c6 993b 8a59 bb3b da0e f53a 7a95 8e39
00000170: 6ea9 333a b0c1 c83b 9b0f 733b 646d 91ba
00000180: 1e9a 7abb 2cdb a739 91dd 6a3b c7b1 273b
00000190: a671 013b 9683 073b 95b3 913b 9623 3f3b
000001a0: 5d4f 24ba 155d 913b 4147 a43b c1a5 803b
000001b0: 3e2f c4ba 228c 63bb bd22 533b 497b 1d3b
000001c0: dc0b 94ba 7ed3 c1bb fc41 bbbb d20c 723a
000001d0: 063e 9fb9 068f 6ebb c29d dfbb e5ee c9bb
000001e0: e4c7 e7ba 502a 9abb cbc6 8abb e838 a5bb
000001f0: c24d dabb 70b8 33bc 567e cdbb 7cf2 98bb
00000200: 01f4 04bc 3ac6 18bc f83d 5dbc ab03 fbbb
00000210: e37d cabb c9ff 0bbc 18c5 1cbc 54df 01bc
00000220: 34b0 c4bb 40d3 13bc be64 0dbc d840 edbb
00000230: a28e b9bb 6866 e1bb 54e2 17bc ec81 00bc
00000240: a8dc c8bb 9e07 d1bb ec17 0dbc 2c51 febb
00000250: 5c91 a2bb 1d7d a2bb 2f90 85bc 0a04 74bc
00000260: da95 b9bb 65c9 aa3a 24b6 413c 4abd 81bc
00000270: 9b0e 51bc e227 b6bb d94b f3ba 97d0 e53b
00000280: d591 66bc 356e 03bc 3874 bbbb e670 fbba
00000290: 8656 0d3c 465a 42bc 3b6c 65bb 19e0 0abb
000002a0: e336 c63a 5e1a 3c3c 7953 f7bb d534 f4ba
000002b0: b0f8 03bb 77e1 313a d4b4 e73b 0f00 b0bc
000002c0: 56af d4bc 1ee5 cdbc f621 abbc 035d 2cbc
000002d0: 76b2 78bc a04f a4bc 8ccf bfbc 5d9b b4bc
000002e0: f027 46bc 08a4 11bc c038 4abc 6afa a7bc
000002f0: 58b7 8ebc baa5 f6bb 0109 21bc 8243 12bc
00000300: ccc0 4fbc cc29 27bc 4982 b0bb 9259 ecbb
00000310: 2e2e a1bb d990 c3bb 77eb b6bb ce34 f9ba
00000320: ae91 fa3b bace 6b3b 1a96 183b 6a05 833a
00000330: 16ae 69bb ffac cd3b 83bc 163b f8f4 e939
00000340: 70bb 51b9 6d04 14bb 8a35 b03b ba9c edba
00000350: dc05 5bba 206f df38 cfee 3bbb 08f8 ca3b
00000360: 7240 99ba 4bf7 37bb aac2 4d3a f083 4b3a
00000370: 245d c23b e4e5 f63a 5376 c8bb 29d0 56bb
00000380: 40b6 ba38 6619 703b 8cfb 423b 7496 3d3a
00000390: 0c5c 16bb 2778 9abb 2512 3d3b 7c1b 483a
000003a0: 32fe a8ba 3f63 c0bb a08a 0bbc 00d9 32bb
000003b0: fbf5 0bbb cce5 bfba 45bd 8abb b69b d5bb
000003c0: e02e eebb f4ce 50bb 4014 8f38 609e dd3a
000003d0: 9073 76ba 5372 b6bb 1414 3cba 89f9 ea3a
000003e0: 20e1 a939 cecc 1ebb
0.0056155697 0.0069372845 0.006015256 0.0038514396 0.0013386554 0.003576037 0.008153098 0.0072266324
0.008525101 0.0033327066 0.0030189303 0.008089284 0.011131558 0.0064791786 9.915559e-06 0.006230357
0.010730701 0.007729244 0.0008818397 -0.005115763 0.009674791 0.010161686 0.0026653996 -0.0012736076
-0.0056491657 0.0029687143 0.0024604746 0.0035776186 0.004397793 0.001280148 0.004192945 0.0052325055
0.0055502555 -0.0014861965 -0.007168908 0.0016417883 0.004094686 0.0010525901 -0.003622803 -0.007484924
-0.0014282779 -0.00011853245 -0.00016954835 -0.0053068404 -0.005948316 -0.003063633 0.00034285642 0.00024985266
-0.0058413874 -0.0076582553 -0.010372179 -0.0068273228 -0.003199676 -0.0014323663 0.0022583308 -0.0038311367
0.0027229076 0.0019169739 0.001556992 0.005101146 0.007472293 0.0074783233 0.005115898 0.0059668636
0.0073024146 0.0044840137 0.008293694 0.0069839214 0.002336105 0.0037179738 0.0054950276 0.01065677
0.0030244074 -0.0032268735 0.0040704156 0.0018113215 0.004637954 0.004177688 0.0046865633 -0.0010088901
0.0013853582 0.0005016689 -0.00066789717 0.003695277 0.006533103 0.002569037 0.00053775415 -0.0009818744
0.0046928087 0.005717461 0.0018696443 0.0002719572 0.0006853555 0.006126605 0.003708816 -0.0011095223
-0.0038238834 0.00032016018 0.003583763 0.0025588141 0.0019751578 0.0020677797 0.0044464567 0.0029165498
-0.00062679296 0.004436145 0.005013377 0.0039260094 -0.0014967693 -0.0034720977 0.003221675 0.0024029783
-0.0011295038 -0.0059151044 -0.005714653 0.0009233478 -0.00030373054 -0.0036401167 -0.006824226 -0.0061625117
-0.0017683473 -0.004704751 -0.0042351237 -0.005042184 -0.0066621015 -0.010969266 -0.006271164 -0.0046675783
-0.008114816 -0.009324605 -0.013503544 -0.0076603494 -0.0061795576 -0.008544871 -0.009568475 -0.007926781
-0.0060024504 -0.009022534 -0.008629976 -0.007240396 -0.005662755 -0.006878663 -0.009270269 -0.007843476
-0.00612982 -0.006379082 -0.00861166 -0.0077611413 -0.004961176 -0.0049587623 -0.016304104 -0.014893541
-0.0056636157 0.0013029991 0.011823211 -0.01583733 -0.01275983 -0.0055589536 -0.0018562033 0.0070133912
-0.014072855 -0.008021881 -0.0057206415 -0.0019183427 0.008626586 -0.011862343 -0.0035007137 -0.0021190702
0.0015122559 0.011480896 -0.0075477925 -0.0018631468 -0.0020137243 0.0006785611 0.007071117 -0.021484403
-0.025962513 -0.025133666 -0.020890217 -0.010520223 -0.015179267 -0.0200575 -0.023414396 -0.02204674
-0.012094483 -0.008889206 -0.012342632 -0.020505149 -0.01742141 -0.0075270804 -0.009828807 -0.008927228
-0.012680244 -0.010202836 -0.005386625 -0.007212826 -0.004918835 -0.005968195 -0.005582269 -0.0019012929
0.007646761 0.0035981373 0.0023282827 0.000999612 -0.0035656742 0.0062767263 0.0023000545 0.0004462374
-0.00020001619 -0.0022585646 0.005377476 -0.0018128373 -0.000835506 0.00010654167 -0.0028676277 0.0061941184
-0.001169218 -0.0028070982 0.00078491366 0.00077634957 0.0059315134 0.0018836823 -0.006117621 -0.0032777882
8.903118e-05 0.0036636232 0.0029751984 0.0007232197 -0.0022943048 -0.0047140303 0.0028849926 0.000763349
-0.0012893139 -0.005871206 -0.0085169375 -0.0027289987 -0.0021356333 -0.0014640628 -0.0042339885 -0.0065188063
-0.0072687715 -0.0031861635 6.822543e-05 0.0016908161 -0.00094013754 -0.0055678277 -0.0007174623 0.001792715
0.00032401923 -0.002423096

exp_avg_sq f4 [10, 1, 5, 5]
00000000: 0f0e 343a 3c85 0d3a 30b7 f139 742f fc39
00000010: e5c7 0c3a 385d 243a 54f3 f239 aa95 073a
00000020: 4e08 0b3a 3087 f039 a837 183a 57d2 ba39
00000030: aa08 193a b58c 083a eacf db39 bc4b 1c3a
00000040: 3313 d839 fd8b 1b3a 1817 013a 1bee f439
00000050: 6952 273a 4038 0e3a 952e 043a 8f76 fb39
00000060: c524 0f3a 3b9e 183a b839 143a 92c8 103a
00000070: 20d7 043a 378f 083a a8e7 e139 e34e 033a
00000080: 5267 003a 2a15 e239 96da 143a ba3b dc39
00000090: 34b8 053a cb39 c739 a9ec f239 e7e8 353a
000000a0: 4db3 fc39 211b e439 2ec3 cc39 df23 283a
000000b0: b240 523a d706 fc39 faa1 043a 7bd1 243a
000000c0: 9ea0 503a e6f1 643a e8d0 8e3a d4fb 943a
000000d0: c8ef 7e3a f23e 773a 1937 8e3a 1c71 7c3a
000000e0: 61f8 7b3a 03d3 8a3a 1464 843a af86 843a
000000f0: eb55 993a 390c b73a 8e08 8f3a adeb 873a
00000100: 4fea 8a3a 161d 983a 62fe 8b3a 79fd 9e3a
00000110: e004 933a 884b 9c3a ed22 8b3a c340 a73a
00000120: 216b aa3a c2d6 903a 09b0 b03a 9825 2d3a
00000130: 15e9 333a 2918 363a 12f6 293a bfba 0f3a
00000140: 8a9e 293a 6fcc 293a a060 253a be68 0f3a
00000150: 5d42 033a c1f6 2f3a 263a 2a3a fec1 0f3a
00000160: 79a1 053a e940 fa39 d8cf 333a 59fa 213a
00000170: 47ee 023a 55d4 0f3a cc7a e339 400a 223a
00000180: 6071 0d3a b877 0d3a ed23 083a 6cfa cf39
00000190: 9f9d 013a e488 093a 23af 0e3a 6d2c 083a
000001a0: 227b 143a 3278 ee39 7a2a 053a 4792 e039
000001b0: 4fc9 013a 8645 1f3a 5f1f f239 0191 b739
000001c0: 9b46 f639 93ed 223a c910 393a e349 f939
000001d0: 1716 e339 4992 253a 54cf 3b3a bb11 4d3a
000001e0: 8d02 153a b84a 323a b79b 453a 30d7 473a
000001f0: 46c9 5c3a 5531 563a ad2f 683a cc26 723a
00000200: f82c 5e3a d2f6 653a 131f 563a 32cf 5f3a
00000210: 8ade 4f3a 9767 523a f755 683a 153a 5c3a
00000220: ea3e 563a 49fb 433a ea60 543a d246 6a3a
00000230: 6f3d 493a a2ed 453a 4b78 473a 3f50 583a
00000240: acae 633a 3f5b 373a c5f9 413a be50 463a
00000250: ab61 553a cbaf 593a 35ba ee3a a352 c33a
00000260: 7677 c33a ca71 d63a 0fd8 f63a e62d ea3a
00000270: b570 d13a 7833 cf3a 8a5f df3a 41ad 033b
00000280: db27 e43a b31e c93a a753 d63a 8e67 e73a
00000290: ee3c 0a3b 002d db3a f196 d33a a792 f63a
000002a0: 7015 f93a b207 123b 7a40 e03a 9616 f73a
000002b0: 41cf 073b 3548 063b b684 163b ad16 ac3a
000002c0: ac53 973a 620d 813a 2121 583a 6cf9 543a
000002d0: 8dee a23a db33 8c3a e59d 723a 9754 5d3a
000002e0: 04b6 5a3a 69f6 993a 5e29 8c3a 4245 673a
000002f0: 429e 6c3a 4153 893a 105a a73a 4329 8e3a
00000300: 7a8f 5a3a 8b70 6a3a 426b 923a 4d35 aa3a
00000310: 3885 873a 9d0f 673a bfef 783a 88ac 8c3a
00000320: d40f 273a 898d 353a 1cd6 4c3a f4f5 3c3a
00000330: d25c 213a 20fb 1e3a b235 3a3a 3f18 3b3a
00000340: 09c7 093a c672 023a 5a76 193a 8a1c 293a
00000350: dcaf 033a 02a5 d439 c2ae f139 71c4 043a
00000360: 2000 093a 25a8 d139 a94c ec39 0982 1d3a
00000370: dbef e839 0e44 f039 50cc 103a e0ff 363a
00000380: 35a5 3a3a 1946 b139 3686 9439 beb9 8939
00000390: 7615 b439 3db2 d839 4ca8 a239 7a34 9739
000003a0: 2f95 8339 64b7 ac39 b748 d439 b7f2 b739
000003b0: 560b a339 f372 7f39 dddb a039 b988 c439
000003c0: c276 c639 5b73 c439 6094 aa39 6c1c b539
000003d0: 037e c439 cf14 e839 5756 ed39 a5d3 dd39
000003e0: 3a1e da39 80f2 dc39
0.000686855 0.00053985766 0.00046103587 0.0004810054 0.0005370363 0.0006269994 0.0004633913 0.0005172143
0.00053036667 0.0004587709 0.0005806633 0.000356334 0.0005837778 0.0005208955 0.00041925843 0.0005962213
0.00041213035 0.00059336406 0.0004924401 0.0004671671 0.00063828245 0.0005425252 0.00050423417 0.00047962784
0.0005460496 0.0005821918 0.0005654353 0.00055230514 0.00050674565 0.0005209329 0.00043087942 0.00050090085
0.00048982084 0.00043121848 0.0005678324 0.0004200617 0.0005100996 0.00037999297 0.00046334162 0.0006939307
0.00048198775 0.0004350776 0.00039055332 0.00064140366 0.00080205046 0.00048070282 0.0005059537 0.00062873185
0.0007958504 0.00087335554 0.0010895999 0.0011366555 0.0009725061 0.0009431682 0.0010850161 0.0009629892
0.00096119015 0.0010591451 0.0010100626 0.001011094 0.0011698579 0.0013965435 0.0010912584 0.001036992
0.0010598394 0.0011605348 0.001068067 0.0012129984 0.0011216663 0.0011924366 0.0010615267 0.0012760389
0.0013001898 0.0011050331 0.0013480197 0.0006605028 0.000686304 0.0006946349 0.0006483506 0.00054828444
0.00064704625 0.00064773014 0.0006308649 0.0005470625 0.00050071423 0.00067124894 0.000649365 0.0005483924
0.00050976087 0.00047732078 0.0006859279 0.00061789673 0.00049946125 0.0005486657 0.00043388305 0.0006181337
0.00053956173 0.00053965626 0.00051933416 0.00039668696 0.0004944447 0.00052465335 0.00054429675 0.0005194608
0.00056641 0.0004548445 0.0005079877 0.00042833594 0.0004950957 0.00060757285 0.0004618121 0.00035012516
0.00046973382 0.0006215211 0.0007059691 0.0004754803 0.00043313272 0.00063160487 0.0007164378 0.00078227714
0.0005684279 0.0006801295 0.0007538157 0.0007623313 0.0008422326 0.0008170803 0.0008857202 0.00092373486
0.0008475329 0.0008772436 0.00081680826 0.00085376494 0.0007929584 0.00080263003 0.00088629074 0.0008400989
0.0008172827 0.0007476104 0.00081015995 0.00089369447 0.0007676696 0.00075503637 0.00076091726 0.00082517037
0.0008685391 0.0006994493 0.0007399584 0.0007565132 0.0008139859 0.0008304088 0.0018213453 0.0014901947
0.0014912921 0.0016360816 0.0018832701 0.0017866462 0.0015979024 0.0015808186 0.0017042023 0.002009228
0.0017406897 0.0015344232 0.0016351835 0.0017654763 0.0021093446 0.0016721785 0.0016143007 0.0018812016
0.0019003581 0.0022282419 0.0017109059 0.0018851336 0.0020722898 0.0020489816 0.0022967285 0.0013129317
0.0011545322 0.0009845907 0.00082446827 0.0008124325 0.0012430713 0.0010696606 0.00092550955 0.0008443086
0.00083431625 0.001174641 0.0010693481 0.0008822271 0.0009026268 0.0010477082 0.001276793 0.0010846037
0.000833742 0.0008943162 0.0011170881 0.0012985856 0.0010339385 0.0008814277 0.0009496174 0.0010732571
0.0006372903 0.00069256924 0.0007813887 0.0007208281 0.0006155494 0.0006064642 0.0007103338 0.0007137097
0.0005255794 0.0004976209 0.00058541226 0.0006451091 0.00050234585 0.0004055873 0.00046097307 0.00050646724
0.0005226154 0.00039988864 0.00045070544 0.00060084515 0.00044429195 0.00045827072 0.0005523609 0.00069808774
0.00071199547 0.00033812298 0.00028328755 0.00026269065 0.00034348265 0.00041331528 0.0003102444 0.00028840062
0.00025097418 0.00032943033 0.00040489968 0.00035085317 0.0003109823 0.00024361517 0.0003068139 0.000374859
0.00037853984 0.0003746998 0.00032535475 0.00034544186 0.0003747792 0.00044265992 0.0004526849 0.00042310092
0.0004160272 0.00042142347

exp_avg f4 [10]
00000000: 3278 133b 11ae 433c b14e ebbb c686 933b
00000010: f0fa 163c d6de 123c 3070 67b8 c6b8 473b
00000020: 06cc c9bb 88e2 5a3a
0.0022502062 0.011943356 -0.0071810116 0.00450215 0.009215102 0.008964261 -5.5179175e-05 0.0030475124
-0.0061583547 0.0008349796

exp_avg_sq f4 [10]
00000000: f19f 883a a4e2 7a3a 5d33 513b a865 3c3a
00000010: bb98 603a 23ae 703a 9339 423b 34fe e93a
00000020: e178 143a bbc8 d539
0.0010423643 0.0009570515 0.0031921484 0.0007186779 0.00085676805 0.0009181222 0.0029636368 0.0017852248
0.00056637643 0.00040776082

exp_avg f4 [20, 10, 5, 5]
00000000: 944f ea3b 7fa7 313c 36bd 0a3c 3c7b b63b
00000010: 9e98 d5b9 2677 3e3b 5f1f 013c 5c25 033c
00000020: 9ab1 1e3b aff6 1139 00f7 1539 8c47 773b
00000030: 4f52 0a3c 93ad 2f39 1809 2a3a f663 58ba
00000040: 9158 2b3b 8674 033c eac1 4b3a 9293 ee38
00000050: d0df 23bb 88f4 9a3b ae92 e43b 4570 f03a
00000060: 9bf5 de3a 6099 09bb 1872 4e3b 7e74 7b3b
00000070: 4cb3 093c a8be 943b f21b 023a 3ce6 453b
00000080: 29fb 943b 73fa 0d3c bf54 4d3b ba26 7a3a
00000090: 1b64 243b 7461 913b 81f6 f83b c817 4a3a
000000a0: 08ab c8b9 3886 fe39 a654 7b3b 73cc c23b
000000b0: 1baa 2f38 6c0d 9aba 3cc5 b2ba 8bfc bb3b
000000c0: 87b3 a73b 8cc9 7738 449e a53b eeb7 733b
000000d0: 5706 563b 80b0 1eb7 01e4 003a 47dd 883a
000000e0: 486f d23a a42c 273b 07db 743b 1296 be3a
000000f0: 06c2 eb3a 7b8a 453b 40ac 743b a544 d33a
00000100: 2ea8 f43a cc2a 3039 3586 2e3b f1f9 5d3b
00000110: c47e 9f39 9f3d 9f3a 0604 693b 8482 353b
00000120: 998d b0ba cc8f ff39 fa87 bf39 8185 383c
00000130: 7ef1 0c3c 8bcb cb3b 1c95 573a 3f3e edba
00000140: 4b84 ea3b c754 ea3b b803 a13b 1777 143a
00000150: 1f37 14ba c815 773b eb41 c73b 4b85 873b
00000160: 5008 0cba 3a94 f6b9 24a7 1c3a 2d81 ec3b
00000170: dec9 463b 3931 92ba 6099 cf39 5f0f 863b
00000180: 2cee e13b 9892 123b 5067 15ba eadc 7ab9
00000190: 2b5a d9ba a0f2 f537 977c 223b 9393 7c3b
000001a0: d39d b23b b8b2 17b9 ad4f a839 84e2 7a3b
000001b0: 20a7 ac3b cc34 813b 5a8a c73a ca6d 4d3b
000001c0: 1b67 213b 5121 b43b e001 283b 69a8 2a3b
000001d0: 60e6 363b f405 6d3a e822 c03b 3cb3 8c3a
000001e0: 75a4 0d3b e2e1 903a 9a3f 2b3b 875d b03b
000001f0: edb0 8b39 ac4c 5539 1fec 303b 52a6 753a
00000200: aa0b 453b bccf 553b 25c5 cb39 9167 833a
00000210: 2e9f 7f3a e8eb 5f3b 986c 653b fe18 273a
00000220: 18b8 dd3a 062a 0f3b 4755 603b 6223 513b
00000230: 75b0 1e3b 7e0c c33a 0cad 633b b739 6a3b
00000240: 39a6 253b 94f5 4a3b 703e 0f3b 79fb 853b
00000250: 1cb9 253b ce91 1f3b f56a 053c 16e0 a13b
00000260: 2508 c53a 0c1c 053b fe2d 793b 39a5 373b
00000270: efba e43b 606e bc3b 7d98 b73b 5e45 8e3b
00000280: 4809 613b b012 013c bdec d73b 2464 b73b
00000290: f731 833b da2a 0c3c 197b 9f3b df9f 0e3b
000002a0: 59c3 433b d139 2e3b 6149 203c 535a ea3b
000002b0: 75ec 1e3b 0628 3139 1ec5 afba 1083 e73b
000002c0: 42e7 be3b 1a31 713b cf4b 8a3a 30ec deb8
000002d0: 8336 483b 56e4 af3b 6cae 5e3b c6ec 733b
000002e0: 9bf8 0a3b 387e 3a39 e284 cb3b 574b 993b
000002f0: 71f0 e33a 842d 053b fe79 1e3b ec66 8a3b
00000300: 70d8 313b 4230 713a bc4a e13a 2a3d d33b
00000310: ad5f a13b 8aa5 d03a 85c5 cbb9 9847 17b9
00000320: cd67 a6b9 7a20 313b f014 64b9 98eb a73b
00000330: 6e6e 293b c0aa acb9 fb4a 063b 421b 153b
00000340: c1c3 783b ade2 a43a efad 8d3a 20f6 18b9
00000350: e5bf 473b 3670 843b fcd3 1c38 f61a b8ba
00000360: 506f 8f39 1f88 8c3b dedc bb3a 648c d8b9
00000370: e36e 93bb 658a 57bb 2649 793b 8cfc 073b
00000380: a1c4 5e3a d22d 9eba fcd0 cd3a 6bb6 303b
00000390: 6a5a da3b 3613 a93b 1d32 e4ba 00a1 7c3b
000003a0: 17bc 963b be47 f13b fada 393b 7839 f73a
000003b0: 0435 943b 834c a83b 036a c13b ca71 cb3a
000003c0: 2ad0 8b3b 074d 963b 458e 923b 913d 753b
000003d0: 3a1b 48b9 c237 843b 208d 0239 7dbf 963b
000003e0: 67f2 e73a 989d 1cba 92ac 8739 4ed5 743a
000003f0: c82d 8d3a acd8 33ba 8c5c a2ba db30 b6ba
0.0071505997 0.010843157 0.008467963 0.00556889 -0.00040740235 0.0029062717 0.007881015 0.008004513
0.0024214745 0.00013920174 0.00014301762 0.0037731854 0.008442475 0.00016753962 0.00064863404 -0.00082546414
0.002614532 0.008023387 0.0007772731 0.000113762115 -0.0025005229 0.0047288574 0.0069754934 0.0018344006
0.0017010452 -0.002099596 0.003150111 0.0038368995 0.008404564 0.0045393296 0.00049632706 0.0030197045
0.004546542 0.008665669 0.003133103 0.0009542514 0.0025084082 0.004436666 0.007597745 0.0007709232
-0.000382744 0.00048546656 0.0038350015 0.0059447824 4.1881674e-05 -0.0011753268 -0.0013639103 0.0057368926
0.005117837 5.9077094e-05 0.005054267 0.0037188488 0.0032657587 -9.4586285e-06 0.0004916788 0.0010441922
0.0016054893 0.0025508786 0.0037361996 0.0014540574 0.0017986901 0.0030142355 0.0037334114 0.001611848
0.0018665844 0.00016800611 0.0026630287 0.00338709 0.0003042129 0.0012149102 0.0035555377 0.0027696202
-0.0013469934 0.00048744527 0.0003653167 0.011262299 0.008602498 0.0062193326 0.0008223818 -0.0018100216
0.007156884 0.0071512195 0.0049137734 0.0005663498 -0.00056539656 0.0037702192 0.006080856 0.004135763
-0.0005341815 -0.00047031214 0.00059758336 0.0072175474 0.0030332725 -0.0011153586 0.0003959639 0.004091188
0.0068948474 0.0022365209 -0.00056992937 -0.00023924155 -0.0016582658 2.9319257e-05 0.00247935 0.003854011
0.005450943 -0.0001446706 0.0003210282 0.0038281986 0.0052689463 0.0039430615 0.0015223727 0.0031345957
0.0024628106 0.0054971357 0.0025635883 0.0026040322 0.002790831 0.00090417196 0.005863536 0.0010734568
0.0021612917 0.0011053646 0.0026130439 0.005382243 0.00026643966 0.00020341825 0.0026996208 0.0009370792
0.0030066767 0.003262504 0.0003886606 0.0010025372 0.00097511976 0.003416771 0.0035007354 0.00063742686
0.0016915826 0.0021845116 0.0034230517 0.003191196 0.0024214063 0.0014881042 0.0034740595 0.0035739967
0.0025276078 0.003096913 0.0021857284 0.004088816 0.0025287336 0.002434838 0.008143176 0.004940043
0.0015032334 0.0020310907 0.0038021798 0.0028022064 0.006980292 0.0057504624 0.005602895 0.0043417653
0.0034337807 0.007877991 0.0065895007 0.0055966545 0.004003759 0.0085551385 0.0048669693 0.002176277
0.0029871075 0.0026584754 0.00978312 0.007151881 0.0024249826 0.00016894945 -0.0013410186 0.0070651844
0.005825908 0.0036802948 0.0010551157 -0.00010629778 0.003055007 0.005367796 0.0033978475 0.0037219985
0.002120531 0.00017785362 0.006210909 0.0046781707 0.0017390383 0.002032132 0.00241816 0.004223695
0.0027137063 0.00092006114 0.001718841 0.0064465003 0.0049247355 0.0015918475 -0.0003886634 -0.00014427153
-0.00031739325 0.0027027414 -0.00021751574 0.0051245205 0.0025853175 -0.00032933615 0.002049147 0.0022751843
0.0037958475 0.0012579762 0.0010809283 -0.00014587538 0.0030479368 0.004041697 3.7390724e-05 -0.0014046121
0.0002735802 0.004288688 0.0014332791 -0.0004130333 -0.0044993027 -0.0032888886 0.0038037985 0.0020749895
0.0008497928 -0.0012068099 0.0015702541 0.0026964198 0.00666361 0.005159761 -0.0017409954 0.0038548112
0.004600059 0.0073632887 0.002835928 0.0018861732 0.0045229215 0.005136074 0.00590253 0.0015521583
0.0042667584 0.004586819 0.0044725263 0.003742073 -0.00019083629 0.004034967 0.0001245034 0.004600464
0.0017696143 -0.0005974411 0.0002587778 0.0009339646 0.001077109 -0.0006860595 -0.00123872 -0.0013900058
