checkpoint/model_epoch5.pth (torch, 268573 bytes, 24 tensors)

conv1.weight f4 [10, 1, 5, 5]
000000 01 f2 88 bb a2 c2 9c 3e 60 5e e0 3e 0a a4 1d 3d
       -0.0041792397 0.30617243 0.43822002 0.038486518
000010 3a b8 af bd 79 3d e6 bd f4 1e a6 3d 01 54 a0 3e
       -0.0858006 -0.11242194 0.081113726 0.3131409
000020 79 6a 8a 3e 55 eb 2c bd b4 ac bd be db a7 11 3e
       0.27034357 -0.042216618 -0.37045825 0.14224188
000030 1a 14 fa 3e 57 1e 1f 3e c0 69 19 be a0 72 9a be
       0.4884346 0.15538917 -0.14981747 -0.30165577
000040 2e 19 a7 bb 02 21 ba 3e 55 51 62 3e 5c e4 53 3d
       -0.005099437 0.36353308 0.22101338 0.051731452
000050 ad 43 82 be 8e ee 88 3d 58 a7 96 3e 60 4c 7a 3e
       -0.25442258 0.06686126 0.29424548 0.24443197
000060 b4 15 8e 3c 6b 67 c3 3d 6f 2c 81 3e 02 69 42 3e
       0.017344333 0.0954121 0.25229213 0.1898537
000070 a9 c1 a2 bb b9 1a ac bc 43 ec c7 bd 87 0e ab 3e
       -0.0049669337 -0.021008836 -0.0976186 0.3340952
000080 f0 1f d9 3d 28 bc ab bd a7 ae 67 be 5b f6 7f 3d
       0.10601795 -0.08385497 -0.22625218 0.062490802
000090 46 e5 99 3e 6d d4 4e 3e 8d 7b 9c bd b7 b1 6a be
       0.30057734 0.20198222 -0.07640753 -0.22919355
0000a0 2e 48 50 3e 4d f7 55 3e 63 8e 1e 3d bc db 3b be
       0.20340034 0.20895119 0.03871001 -0.18345541
0000b0 94 01 45 be 2e b5 2e 3e 81 76 90 3e cf 9b 18 bc
       -0.19238883 0.17061302 0.2821541 -0.009314491
0000c0 db 43 83 be 22 b4 4b be 3b 8d e0 3e 18 69 08 3f
       -0.25637707 -0.19892934 0.4385775 0.5328536
0000d0 76 fb 86 3e 50 30 52 3e 82 6b 8c be 74 31 8f bd
       0.26363724 0.20526242 -0.27425772 -0.06991854
0000e0 36 5a 2e be 07 fb b0 bc 44 4f 31 3e a7 29 c3 3d
       -0.170266 -0.021604074 0.17315394 0.09529429
0000f0 f7 ee 59 be df 39 f8 be 1c 8c 81 bd bd cd 53 bb
       -0.21282564 -0.48481652 -0.06325552 -0.0032318674
000100 55 a8 a3 3e ea 54 93 bb d7 5b 84 be 67 15 b6 bc
       0.31964365 -0.0044962065 -0.25851318 -0.022227002
000110 61 16 42 3e e8 82 0d bd 7b 24 b1 3e 07 c9 fc 3e
       0.1895385 -0.03454867 0.34598145 0.49372122
000120 7d d7 c2 3d ac ce 54 be b3 43 92 3d f4 98 20 be
       0.095137574 -0.20781964 0.07141819 -0.15683347
000130 71 6b cd bd 25 86 e2 3d ba 77 e0 3d 9b ff b0 bd
       -0.100302584 0.11060742 0.10960336 -0.08642503
000140 11 83 b5 be 2c 8f 34 be 39 4b 7a be 38 d1 b1 3d
       -0.35451558 -0.1763274 -0.24442758 0.086824834
000150 75 ca 2d 3e 25 20 89 bd dc 81 88 be 7c 5e 81 be
       0.16971762 -0.06695584 -0.26661575 -0.25267398
000160 17 e2 41 3e 53 ad 12 3e a8 99 b0 be 55 f3 35 be
       0.18933903 0.1432393 -0.3449223 -0.17768605
000170 8c 58 44 3d dd 8f bc 3e 1e 54 72 3e 02 67 18 be
       0.047936007 0.3682851 0.236649 -0.14883044
000180 2c dc 50 3d 3f e5 92 3e a6 7f 9d 3e 48 c9 a6 3e
       0.050991222 0.28690526 0.3076145 0.3257544
000190 30 50 4b 3d d0 ba 8e 3d c8 c1 68 3e 86 44 e1 3c
       0.04963702 0.069692254 0.22730172 0.027498495
0001a0 38 ff a8 3d 5f 97 5c 3e 15 bf fa 3d 88 1e ff bc
       0.08251804 0.21542118 0.12243477 -0.031142488
0001b0 db e5 80 bd b1 9f 19 be aa e9 02 3f f4 1e 6e 3d
       -0.062938415 -0.15002324 0.51137793 0.058134988
0001c0 2b 0e 84 be 3e 96 cf bd 2a 9b 0b 3d e4 bd be 3e
       -0.2579206 -0.10136078 0.034083523 0.3725425
0001d0 f3 af 80 bd 5d 12 63 be f9 e4 2d be bb 8f 08 be
       -0.0628356 -0.22174974 -0.16981877 -0.13336079
0001e0 df e2 73 3e 6f 74 15 be 9e 21 bd bd d8 08 0c bd
       0.23817013 -0.14595197 -0.092349276 -0.03418812
0001f0 57 00 de bd d0 e1 fa bd 4c c6 8c 3d 2a bf 32 3e
       -0.108399086 -0.122501016 0.068737596 0.17455736
000200 0c d2 c2 3b a4 b8 80 be e6 41 1e be 95 b4 4f 3e
       0.0059454497 -0.2514087 -0.15454826 0.2028373
000210 2e 38 ff 3d c7 6b 31 be 88 c6 15 be a3 25 07 bd
       0.12461887 -0.1732627 -0.14626515 -0.032994878
000220 99 f6 ba 3b 2f bd 92 bc 7e 76 9b bc 2f e6 63 be
       0.0057056663 -0.017912475 -0.0189774 -0.22255777
000230 2a e0 ee ba 0e f4 0f bd 63 8f ba 3c 64 a1 f2 bc
       -0.0018224765 -0.035144858 0.02277345 -0.029617973
000240 8b 0a 57 be b8 e6 d3 3d a3 b1 cd bd d1 45 02 3e
       -0.21000116 0.103467405 -0.10043647 0.12721945
000250 61 b1 86 be 0a 80 a2 bd 22 d0 3f 3e 83 e0 54 3e
       -0.26307204 -0.07934578 0.1873174 0.2078877
000260 3c d5 80 3e 39 2c 94 3e 66 c1 85 3e 64 6f b3 3e
       0.25162685 0.2893999 0.26124114 0.35045922
000270 1d 3e 4e 3e 50 3e 9d 3e 42 23 fc 3d 81 4a b1 3e
       0.20140882 0.30711603 0.123114124 0.34627154
000280 a4 e7 0f 3d f6 69 2d 3e 87 47 86 bd 43 9e 06 3d
       0.03513302 0.16934952 -0.065566115 0.032865774
000290 1e b6 c7 3d 10 62 90 be 8d 6f 9f bd 65 d8 7a be
       0.09751533 -0.28199816 -0.077849485 -0.2449661
0002a0 ce 6d aa bd cb 20 7c bd fa 36 cd be 3d c4 fb be
       -0.08321725 -0.06155471 -0.40081006 -0.49173155
0002b0 07 9a c0 be d2 86 d2 be fb 82 d4 bd c5 87 32 3d
       -0.37617514 -0.41118485 -0.10376545 0.04358651
0002c0 ab 2b ac 3e 86 dd 42 3e 7c 21 98 3c 06 6c 1a be
       0.33627066 0.19029817 0.018570654 -0.1508027
0002d0 e1 d3 2a 3e f4 b4 15 3e 37 7a 3f 3e f4 7a 5a 3e
       0.16682388 0.1461981 0.18698965 0.21335965
0002e0 22 bd 09 bd 76 e3 a7 be 18 70 f2 bd e7 84 1d 3e
       -0.033627637 -0.32790726 -0.118377864 0.1538273
0002f0 69 96 d0 3e 39 20 5e 3e 20 a1 a5 bd 9e 5b f6 bd
       0.40739754 0.2169198 -0.08087373 -0.12029193
000300 6b 94 77 be c9 25 a7 3c f5 7a 14 3e 5c f3 b4 be
       -0.2417771 0.02040376 0.1450003 -0.35341918
000310 3d 8e e8 bc 2f 4e 74 be a3 81 2e be d5 d3 79 3c
       -0.028388137 -0.2385795 -0.1704164 0.015248259
000320 40 73 11 3c 2c dc 84 bd a8 2d 59 3e 4e 43 6d 3d
       0.008877575 -0.06487307 0.21208823 0.057925515
000330 92 f8 d5 3d a0 22 18 be 46 28 fa 3d ca c1 d2 3c
       0.10447802 -0.14856958 0.12214713 0.025727171
000340 45 95 57 be 3f 7e 6a be 73 cb 32 3d 03 91 92 3e
       -0.21053036 -0.22899722 0.043651056 0.2862626
000350 e7 73 d6 bd dc ad b5 be 21 e8 a1 be f6 3f 2c be
       -0.10471325 -0.35484207 -0.31622413 -0.16821274
000360 32 a2 f0 3e 9f 2c ae 3e e1 9b 81 be d4 72 c0 3b
       0.46998745 0.34018418 -0.2531424 0.0058730636
000370 d8 31 0b be 2c 9f 69 3e 47 14 01 3f 75 92 1a 3e
       -0.13593233 0.22814626 0.50421566 0.15094931
000380 5f b5 5e 3e f9 7c de be 72 00 ff 3d 87 62 ac 3e
       0.21748875 -0.43454722 0.12451257 0.3366892
000390 8b b8 a4 3e 7b e4 e0 3d c6 78 00 3e 40 84 01 3f
       0.32172045 0.10981079 0.12546071 0.5059242
0003a0 26 39 e5 3e e5 b4 3a bd 9c 9a dd bc 88 71 f3 3d
       0.44770163 -0.04558267 -0.027051263 0.11886889
0003b0 e5 74 5e 3e c3 35 29 be 4c 01 99 be b1 0c 9a be
       0.21724279 -0.16524415 -0.29883802 -0.30087808
0003c0 17 29 67 3e 0c c4 f2 b9 4a 00 02 be 78 9a 2d be
       0.22574268 -0.00046303903 -0.12695423 -0.16953456
0003d0 a4 dc d3 bc 6a 17 fa 3d 3f 58 0c be f6 b0 5e 3d
       -0.025862046 0.12211497 -0.13705538 0.05436798
0003e0 08 be b2 bd 9c b1 43 3e
       -0.08727652 0.19110721

conv1.bias f4 [10]
000000 31 83 40 bd e2 90 e7 bd 94 3d 40 3e c2 71 e5 bb
       -0.047000114 -0.11306931 0.1877349 -0.0070020864
000010 3b fc 89 be e8 9f d9 be ea 5f 64 3e 7b 4d 72 3e
       -0.2695025 -0.4250481 0.22302213 0.23662369
000020 9c 61 ce bd 0c 32 1d 3e
       -0.10077211 0.15351123

conv2.weight f4 [20, 10, 5, 5]
000000 b9 8f 07 be 60 72 12 3e 66 43 bf 3d 52 2c 0f 3d
       -0.1323842 0.14301443 0.09339027 0.034954377
000010 78 39 bd 3d 46 07 cf bd 22 9e 33 3e df 79 1d 3e
       0.09239477 -0.10108809 0.17540792 0.15378521
000020 9b f3 7f 3d f4 77 09 3e ef f6 d6 bd 49 80 e5 3b
       0.06248818 0.13424665 -0.104963176 0.007003818
000030 45 65 e5 3d 04 aa 0a be aa 6e a3 bd 0f f1 f1 bd
       0.11200956 -0.13541418 -0.07980092 -0.118135564
000040 51 85 c5 bb 86 28 7b 3c 89 7c 33 be 68 33 01 be
       -0.0060278554 0.015329486 -0.17527975 -0.12617266
000050 74 aa 83 bd 3a 0c 95 bd 10 59 cd 3c 9e 6e 97 bd
       -0.06428996 -0.07277723 0.025066882 -0.073941454
000060 b4 17 3b be 5e cc b5 bd 87 4e 91 3a c7 65 7a 3d
       -0.18270761 -0.088768706 0.0011086025 0.06113222
000070 77 9d c5 3d b3 49 d1 bb 9b a6 5b be 0a f6 a8 3d
       0.09649175 -0.0063869595 -0.21450274 0.08250053
000080 7a 09 bb 3d 87 34 5b 3d 41 ac 34 3d 52 3f c2 bd
       0.09132667 0.05351689 0.044109587 -0.09484734
000090 b5 e0 44 3d 24 3d af 3d c2 57 8b 3d e1 ce 22 3c
       0.04806586 0.085565835 0.06803848 0.009937019
0000a0 bd 1d 8d 3d 69 c7 55 3c 5e dc 36 3d 18 1a 81 bd
       0.06890438 0.013048031 0.044643752 -0.06303805
0000b0 af c7 96 3c b0 e1 22 bd 4a 56 45 bc 71 2e 92 3d
       0.018405763 -0.039766014 -0.012044499 0.07137764
0000c0 ba f9 87 3c 86 3a 3c 3d a1 8f 08 be 40 23 88 bd
       0.016598571 0.04595425 -0.1333604 -0.066473484
0000d0 55 f9 15 bd 28 49 92 bd 7b 21 0d bd 4f 79 7a bd
       -0.036614735 -0.0714286 -0.034455758 -0.061150845
0000e0 ec 7d 3b 3c 05 bd ba 3d fa 32 47 be 6c f8 89 bc
       0.011443596 0.09118084 -0.1945304 -0.01684209
0000f0 58 53 16 3d 71 3c a1 bd 88 69 9c be 24 e6 2b be
       0.036700577 -0.078728564 -0.30549264 -0.1678701
000100 09 95 13 be 27 bf c4 bd 3b b5 6c be de 9e 15 be
       -0.14412321 -0.09606772 -0.23116009 -0.14611384
000110 e6 60 1d be e8 83 cd bd ab e2 e3 bd e8 b3 0b be
       -0.15368995 -0.10034925 -0.11127218 -0.13642848
000120 47 b6 02 be 84 fc b2 bc cd b2 c5 bd 0b aa b0 3d
       -0.12764846 -0.021848924 -0.09653244 0.08626183
000130 37 02 05 3e 26 e6 8d 3d 7e 03 03 be 02 e8 60 be
       0.12989126 0.06928663 -0.12794301 -0.21963504
000140 57 7e af 3d 18 b3 df 3d f7 96 52 3d 55 20 2c be
       0.08569019 0.10922831 0.051413503 -0.16809209
000150 1f 45 48 be fc 50 f6 3d 53 5c 3a 3e 16 e8 f8 3d
       -0.19557618 0.12027165 0.18199281 0.12153642
000160 84 43 c8 bd 3d b3 15 bd ba 01 9b 3d f5 6c f2 3d
       -0.097785026 -0.036547888 0.07568689 0.11837188
000170 f2 8d 4b bd 03 0f 26 be f5 96 c7 bd 41 23 a8 3b
       -0.049695916 -0.16216664 -0.0974559 0.0051311557
000180 cd 9b 96 3d e3 9b 6f 3d 7f 17 f8 3c be 2e fb bd
       0.073539354 0.058498275 0.030284641 -0.12264775
000190 e3 df 0f bd 61 d9 35 be 8f d4 e7 3d b2 fd ad 3d
       -0.035125624 -0.17758705 0.11319839 0.08495654
0001a0 33 7d 26 bc df 41 8f be 82 ee 0a bc 68 eb ae 3d
       -0.010161686 -0.27979943 -0.008479716 0.08540994
0001b0 9c 64 0f 3e d9 9d b6 3c e5 3d 6d be 49 0d 9e 3d
       0.14003223 0.022292065 -0.23168142 0.07717378
0001c0 fa 4f 13 3e 71 9c 05 3e e6 23 ad bd 15 2a 53 3c
       0.14385977 0.13047959 -0.08454113 0.012888451
0001d0 f6 51 5e 3d 75 3d 21 bd 0a 7f 83 bd 7e 39 c2 bd
       0.054277383 -0.03936525 -0.06420715 -0.09483622
0001e0 47 fa a4 3d 1f 5a 52 bd 01 dd 16 be c5 13 0f bc
       0.08055549 -0.051355477 -0.14732744 -0.008732741
0001f0 40 f7 1f bd 5c 95 9f ba 35 44 7a 3c e7 c1 5d ba
       -0.039054155 -0.001217525 0.015275051 -0.00084593747
000200 b6 11 d0 bd 94 2c b7 bd c5 c9 4a bd 7d 5e 0b 3e
       -0.10159628 -0.089440495 -0.04950883 0.13610263
000210 63 5e aa bc 10 50 2a 3d e9 3d 7a bd 66 be 49 3c
       -0.02079696 0.04158026 -0.0610942 0.012313461
000220 8f 5f e0 3c f5 25 2b 3c c1 77 13 bd be 2a 3f bd
       0.027389316 0.010446061 -0.036002878 -0.04667162
000230 71 8e ef 3c 44 0f 96 3d 39 75 b8 3d 77 b8 8e bd
       0.029242726 0.073271304 0.090067334 -0.069687776
000240 14 88 e1 bc 85 13 8f bc 3d 13 af bc f6 30 44 3d
       -0.027530707 -0.017465362 -0.021371478 0.047898255
000250 fd 25 13 3d e4 8a fb bb c0 fd 22 be e9 56 d1 bd
       0.0359249 -0.007676469 -0.1591711 -0.10221655
000260 76 d9 8b bc 08 12 84 3d ab aa eb 3d 77 39 06 3d
       -0.017071467 0.06448752 0.11507162 0.032769646
000270 a7 c0 43 bd 2a bf 51 bd d9 e2 02 3d 90 af 1d 3d
       -0.04779115 -0.0512077 0.03195462 0.038497508
000280 96 12 39 3d ea 48 0d bd f1 84 d4 3c 97 f8 d7 bd
       0.04518374 -0.034493364 0.025942298 -0.105454616
000290 b0 eb 70 3b 62 eb 3c bd 89 9a 5d bd bc ea 3f bd
       0.0036761574 -0.046122916 -0.054102454 -0.04685472
0002a0 61 47 9b bd e7 56 89 bd 08 ad d5 bd 78 8a f1 bb
       -0.07581974 -0.067060284 -0.10433394 -0.007371243
0002b0 74 f5 65 bd 7e 88 b7 bd 3d ac e5 bd 5a f9 46 be
       -0.056142285 -0.08961581 -0.112144925 -0.19431058
0002c0 1b 07 4f be 88 c7 df bd 58 08 89 bd 0f b1 73 bc
       -0.20217554 -0.109267294 -0.066910446 -0.014873757
0002d0 b4 76 c3 bc 64 f4 19 bd 32 69 d0 3c 1c ca 89 bb
       -0.023860313 -0.037586585 0.025440786 -0.0042050015
0002e0 d5 6f cf 3c e6 80 0a be 9b 9d 4d 3d 37 5f cf 3c
       0.02532188 -0.13525733 0.050199132 0.025313957
0002f0 81 bb 4c bd 62 a7 22 bd 4a f1 1d be 65 96 cc bc
       -0.049983505 -0.03971041 -0.15424076 -0.024974057
000300 b6 5d 84 3d 7a 0d 84 3a 89 8b 79 bd 69 8b 63 bd
       0.064631864 0.0010074817 -0.060924087 -0.055552874
000310 e4 22 39 bd 79 b4 c5 bd e3 28 b7 bc b0 37 cb bd
       -0.04519929 -0.09653563 -0.022358363 -0.09922731
000320 be fb 76 be 83 5d 23 be 73 48 4c bd 07 2b b0 3d
       -0.2411947 -0.1595364 -0.04987378 0.08601957
000330 7f 49 9c bd 5c f6 e5 be 01 da c9 bc ce 33 b2 bc
       -0.07631206 -0.4491452 -0.024640085 -0.021753218
000340 43 bf fe 3d 73 13 64 bd 1d 36 96 be 2a 1d 1e 3d
       0.12438824 -0.05568261 -0.2933816 0.03860203
000350 c4 0c 39 3d 28 47 1e bb df 60 6e bd c1 2e 38 bd
       0.04517819 -0.00241513 -0.058197852 -0.044966463
000360 67 77 a8 3c 08 22 ea 3b 69 af b7 bd 5a f8 9b 3c
       0.020564748 0.00714517 -0.08969004 0.019039322
000370 b9 77 a5 3c f9 11 1e 3c e4 85 8d 3c 6f 15 d2 bc
       0.02019869 0.00964784 0.017275758 -0.025644986
000380 ed 75 90 bd ea 93 04 be 75 bc 79 3d 7f eb 11 3b
       -0.070537426 -0.1294705 0.060970742 0.002226561
000390 24 d9 49 ba 8f b6 b6 bb 82 84 92 bd 35 fa f2 3d
       -0.0007699898 -0.005575962 -0.0715418 0.118641295
0003a0 ce 45 19 3e b8 9b 41 3d 7f 7d 62 3c cd 3f ce bd
       0.14968035 0.047267646 0.013823866 -0.10070763
0003b0 9b d7 fd 3c 9c c7 c1 3d 80 1e c1 3d fe 3b 43 ba
       0.030986598 0.094619006 0.094296455 -0.0007447599
0003c0 59 dd 2a bd 6e 51 39 3d 69 83 99 bc b5 3f b4 bd
       -0.041715 0.045243673 -0.018739419 -0.08801214
0003d0 79 f2 16 be 15 a7 05 bc 84 02 11 be 6f 77 a4 bd
       -0.14740933 -0.008157511 -0.14161116 -0.08030593
0003e0 e1 a0 cb bd 99 70 59 bd 52 8b 4d bd dc 5a 04 bd
       -0.099427946 -0.053085897 -0.050181694 -0.032313213
0003f0 09 f8 24 be 80 d4 25 3e b9 ce a3 3d 9e 76 91 bd
       -0.16110243 0.16194344 0.079984136 -0.071027026

conv2.bias f4 [20]
000000 d6 80 e4 3a ef c2 bb bb 91 af 5b 3d 31 be 3a bd
       0.0017433416 -0.005730025 0.05363423 -0.045591537
000010 57 98 96 bc 26 18 62 bd 07 84 a2 bd 11 f3 12 bd
       -0.018383188 -0.05519881 -0.079353385 -0.035876337
000020 17 0a 63 3d 7f 95 07 bd 43 96 0c 3d fd b1 18 bd
       0.055429544 -0.033101555 0.03432299 -0.037279118
000030 b7 86 b6 bd d3 2b 66 3d 06 0c 2a 3d 71 e9 e0 bc
       -0.089124136 0.056194138 0.041515373 -0.027455064
000040 33 70 48 bd fb 9f 62 bd ff f0 bc bc 53 fb 96 3b
       -0.048935127 -0.05532835 -0.023064135 0.004607597

fc1.weight f4 [50, 320]
000000 f4 be c6 3d e3 98 8f 3c 88 e3 b8 3c 04 fa ce 3d
       0.0970439 0.017528957 0.022569433 0.101062804
000010 fa 79 07 be 47 b8 95 bc c2 00 9a bc f6 4d 87 3d
       -0.13230124 -0.018276347 -0.01879919 0.06606667
000020 a4 cc 06 be 02 e5 14 be d9 af 4f 3c b0 54 bd 3d
       -0.13164002 -0.14540485 0.012676203 0.092446685
000030 c3 32 92 3e e7 43 17 bd 1b bc e4 bd 70 36 c6 bc
       0.28554353 -0.03692999 -0.11168691 -0.02419588
000040 29 a3 47 bd ab e7 16 bd 25 e0 05 3d 5d 01 cc bb
       -0.048739586 -0.03684203 0.032684464 -0.0062257485
000050 1b c6 16 3d 99 60 c7 3c a5 5f c2 3d 5f 5f 51 bd
       0.03681002 0.024338054 0.09490899 -0.051116344
000060 1b cf 9d 3d 57 bd c5 bd fa a0 d8 3d 59 ba a5 bc
       0.07705518 -0.09655254 0.10577579 -0.020230459
000070 27 20 f4 bd 4d ef e9 3b 24 e3 3d be 33 ef b1 bd
       -0.11920195 0.0071391226 -0.18543679 -0.08688202
000080 98 5f a2 bd 13 51 a9 bd 67 29 92 3c 09 f7 08 be
       -0.07928389 -0.08267417 0.017842008 -0.13375486
000090 12 22 30 3d 04 37 13 bc 79 50 44 3c 56 e2 5a be
       0.043001242 -0.008985285 0.011982077 -0.21375403
0000a0 3b 9a 91 3d 6a 3e 02 3d 18 08 b4 3d 75 26 40 bd
       0.07109495 0.031797804 0.08790606 -0.046911675
0000b0 f5 eb a1 3d a4 c4 29 3d 15 20 f8 3c d8 91 60 3e
       0.07906333 0.041447297 0.030288735 0.21930635
0000c0 38 f0 52 be 07 5a 17 be 93 57 da bd 12 fd d0 bd
       -0.20599449 -0.14780436 -0.10661235 -0.10204519
0000d0 c9 ee 0b 3e 54 7f 00 3d 87 c9 82 bd d9 32 52 be
       0.13665308 0.03137143 -0.063860945 -0.2052721
0000e0 3f 38 47 3e 70 39 dc 3d 09 2a 04 3c 1c 3a 3f 3d
       0.1945505 0.10753143 0.008066663 0.046686277
0000f0 2e eb a6 3a f0 df 60 3b ef 18 ee bd b0 fa ea 3d
       0.0012734884 0.0034313165 -0.116258495 0.11473596
000100 c0 19 e3 bd b1 02 63 bd 65 f6 96 bd b6 ea a6 bd
       -0.11088896 -0.05542249 -0.07371215 -0.08150236
000110 79 16 cf 3d 2e ca 77 bd 09 6e 85 3c 68 fe 9e bd
       0.10111708 -0.060495548 0.01628782 -0.07763368
000120 a2 81 25 3e 5d 73 e5 3c 15 0c e1 3b 2f e4 6a bc
       0.16162732 0.028009111 0.0068678954 -0.01433663
000130 fb ba 3d bd 0c 2d 4c 3c cd 6e ce bd 5b cd de bd
       -0.046320897 0.012461912 -0.10079727 -0.10879012
000140 be 16 6f 3a af 1d 65 bd ed 02 b4 bd cd d9 2e bc
       0.00091205153 -0.05593651 -0.087896205 -0.010672045
000150 33 54 0f 3e f1 19 c9 3d b0 56 61 bc 98 48 fd 3c
       0.13996963 0.09819401 -0.013753578 0.030918404
000160 55 d0 33 bd 90 95 40 3d 7a d8 98 3d 10 1a a8 3d
       -0.043899853 0.047017634 0.07463165 0.08208096
000170 1c d2 eb 3b 0d a3 29 be 2f 1d da bc 72 79 8b bd
       0.007196678 -0.16566105 -0.026625244 -0.06810273
000180 7c 57 8a bd 72 55 6c bc bf f6 83 3d cd 53 1e 3d
       -0.067549676 -0.014424669 0.064435475 0.038654137
000190 dc 0b 7a bd c5 04 39 bd 08 af 72 3c c9 4b fb 3d
       -0.061046466 -0.045170564 0.0148122385 0.12270314
0001a0 1f b5 bf 3d 0e 4b 32 bd e7 cc 16 bd 3a 65 77 bd
       0.09360718 -0.04352861 -0.036816504 -0.06039927
0001b0 9f 73 18 bc a2 32 44 3d 1e 56 08 be 62 eb 79 be
       -0.00930491 0.04789985 -0.13314101 -0.24406198
0001c0 a5 06 88 3b ed 02 92 3d 82 32 76 3d 39 14 9e 3c
       0.0041511827 0.07129464 0.06010676 0.019296752
0001d0 e8 7d f7 bc ea 2e 53 3c 3b 65 a9 bd 9f d3 3b 3d
       -0.030211404 0.012889603 -0.08271261 0.045856114
0001e0 09 31 44 3c dd 07 fc bd be 92 55 3d 80 a1 18 bd
       0.0119745815 -0.12306187 0.052141897 -0.037263393
0001f0 90 14 5a be 8b 7c ee bd 70 16 f4 3c 67 b0 29 bd
       -0.21296906 -0.116448484 0.029795855 -0.041427996
000200 26 d3 c4 bd 53 31 b2 bd ba 50 f7 bc 96 94 e1 bd
       -0.09610586 -0.08700814 -0.03018986 -0.11014669
000210 03 c2 92 bd 4d 49 e8 3b 79 73 d2 bd 65 34 37 be
       -0.07165911 0.0070888163 -0.10275931 -0.1789108
000220 fb 28 8e bc 2f a3 d9 3d c4 75 e1 3c fb fc 6b 3d
       -0.017353525 0.10626828 0.027521975 0.057614308
000230 3e ff 5c bc ae a9 9b bd 6e 3e e1 3d d3 9d 4e 3e
       -0.013488589 -0.07600723 0.10998236 0.20177393
000240 a1 1a bb bd 5d 48 2e bc 73 fc aa bd 2a 7e 9b bc
       -0.091359384 -0.01063737 -0.08348932 -0.018981058
000250 e5 65 9d 3e 27 13 23 3d 8f 4a e2 bd 87 a9 22 be
       0.30741802 0.039813187 -0.11049377 -0.15884982
000260 4c 39 72 3d cf 06 c0 3d ed 0b 8d 3d 3e 0b 77 3d
       0.059136674 0.09376299 0.0688704 0.060313456
000270 27 ad fc 3d 5b c2 8e bd 24 bc 0b be 6f 96 8b be
       0.12337714 -0.06970664 -0.13645989 -0.2726321
000280 5f 14 0a 3d 5d e0 c2 3d 36 ff 9c 3d 39 ee f2 bd
       0.033710834 0.0951545 0.07665865 -0.118618436
000290 fa 64 08 3d e1 5a a7 3c 3b 53 98 3d 2b 68 da bd
       0.033299424 0.020429077 0.0743775 -0.106644
0002a0 47 6f 5b bd 83 43 5b bd 86 1d aa bd 7c 4a 26 be
       -0.05357292 -0.05353118 -0.083064124 -0.16239351
0002b0 38 e6 8c 3c ca d2 ea 3b 3c 83 c4 bc 01 dd 8c 3c
       0.01719962 0.0071662413 -0.023988359 0.017195227
0002c0 84 80 68 3b c1 24 a9 3d 71 c1 64 3d df 7b 8d bc
       0.0035476992 0.082589634 0.055848543 -0.01727098
0002d0 56 73 54 bc 8b e3 38 bd 1a 55 bf 3a 9d 22 b2 3d
       -0.012966951 -0.045138877 0.0014597506 0.08698008
0002e0 7c a9 bc 3d 77 59 fa bd a0 87 95 bc 92 8a 96 3b
       0.09212014 -0.12224095 -0.018253148 0.0045941556
0002f0 25 7d db bb a9 f6 11 be f3 27 1e be fc fd 35 be
       -0.006698268 -0.1425425 -0.15444927 -0.17772669
000300 c9 36 b7 bd 9a 69 71 3d 5f cc 26 bd cc 3c 05 3c
       -0.08945996 0.0589386 -0.040722247 0.008132171
000310 16 68 a8 bd b9 35 84 bd 06 b4 c6 bd ec 04 13 3d
       -0.08222978 -0.06455559 -0.097023055 0.035893366
000320 c6 ad d6 3d 77 2c a2 bc b6 3a 3f 3e e1 79 33 3c
       0.104823634 -0.019796593 0.1867474 0.010954351
000330 ee 21 07 be f2 b5 1d be d8 f4 3d bb ba 8a a9 3d
       -0.13196537 -0.15401438 -0.002898505 0.08278413
000340 f6 30 5e 3e 3f 29 80 3d 39 c0 24 3e 2a 49 aa bd
       0.21698365 0.06257867 0.16088952 -0.08314736
000350 6a 8f fe bd 15 46 f5 bd 99 18 c7 3d 5b fe dd bc
       -0.12429698 -0.11976258 0.097214885 -0.027098825
000360 75 d7 e9 bc 10 d5 af 3c 68 b0 cc bd 39 d8 1e bd
       -0.02854512 0.0214639 -0.09994584 -0.038780425
000370 db f7 ac 3d 53 02 91 3d 65 ba 75 3d ad b0 a5 bd
       0.08445712 0.070805214 0.059992213 -0.08090339
000380 92 32 16 3e cf 0e 36 3d 57 b5 db bd cd cd 2e bd
       0.14667729 0.044447716 -0.10727947 -0.042676736
000390 a4 cb 29 3e 35 9d 42 3d 0c c0 a9 bc 29 42 8e 3d
       0.16581589 0.047513206 -0.020721458 0.06946213
0003a0 e8 65 2c 3b 8f 1c 83 bd 90 a6 b5 bc 79 7b 8f bd
       0.0026305858 -0.064019315 -0.02217415 -0.070059724
0003b0 3d c0 3f be 9a 7a 32 be 0f ae 26 be b3 3a cd 3c
       -0.18725677 -0.17429581 -0.16277336 0.025052404
0003c0 04 82 42 bb cc c8 57 3d 4e 79 e7 bb 55 14 a6 be
       -0.0029679546 0.05268173 -0.007064021 -0.32437387
0003d0 84 cc 1f 3d 86 e3 86 3d 5c 47 0b be 0f 4f 23 be
       0.0390134 0.065863654 -0.1360144 -0.15948127
0003e0 63 94 8a 3b b2 8a 64 bd b0 d8 0b 3d a4 4b 8c 3e
       0.004229115 -0.055796333 0.034142196 0.2740146
0003f0 b8 90 96 3d 09 e1 9f bd 72 a0 97 bd b7 b5 19 3e
       0.07351822 -0.07806594 -0.074036494 0.15010725

fc1.bias f4 [50]
000000 99 2f b8 bc 6a de 67 3d 01 b5 19 3e 8b 74 66 3e
       -0.022483634 0.056608595 0.15010454 0.22505395
000010 ea 93 15 3e 7e 80 4a 3e bd 54 01 3e 65 34 2a 3e
       0.14607206 0.19775578 0.12629981 0.1662155
000020 82 5c d6 3d 6f 6b 66 3d b8 1f bf bd 39 fa 25 3d
       0.10466863 0.0562548 -0.09332222 0.040521834
000030 8c 33 d9 3d 5f 9e f9 3c 6b 4b b9 3d 57 c1 2c 3e
       0.10605535 0.030471025 0.09047588 0.16870628
000040 b9 1d 99 3d 11 ec e8 3c c0 b2 c5 bd 9c 3a 91 3d
       0.07476372 0.028432878 -0.096532345 0.07091257
000050 42 7a 5b 3e b7 bf fd bb 1e a4 05 3e 8f 60 e7 3d
       0.21433356 -0.0077438015 0.13050887 0.11297714
000060 2e 3c bf 3d a8 05 11 3e 17 75 6b 3d 17 1a 34 3e
       0.0933765 0.14162314 0.057484712 0.17588077
000070 86 85 c4 3d 37 97 d5 3d 3f 0c 9b 3d 91 85 b5 3d
       0.0959578 0.104292326 0.07570695 0.088633664
000080 0e 2c 1e 3e 91 6a 04 3d b1 49 8d 3d 94 d8 12 3d
       0.15446493 0.032328192 0.06898821 0.035851076
000090 76 d9 54 3d 0e e2 6e 3e e9 b3 ac 3b 0a 5a d6 3c
       0.0519652 0.2332842 0.0052704704 0.02616598
0000a0 57 65 4d 3d ba bf 39 3e e4 af bf 3d cb 71 81 bc
       0.050145473 0.18139544 0.0935972 -0.015801331
0000b0 dc f1 d7 3d a3 1a 0c 3e e4 da eb 3d 82 eb 15 3e
       0.10544178 0.13682036 0.115163594 0.1464062
0000c0 b0 26 4c 3e d5 06 d4 3d
       0.19936633 0.103528656

fc2.weight f4 [10, 50]
000000 99 11 a9 bd 45 21 8e 3d e4 95 bd be 1e 2a 4f be
       -0.082553096 0.069399394 -0.3702842 -0.2023091
000010 a4 fc 05 be 66 29 16 3e 6e 54 00 3e 1f 0b 45 be
       -0.13084656 0.1466423 0.12532207 -0.19242524
000020 f1 c2 5e be be a3 86 3b 06 5d 3f bc c1 31 ee 3d
       -0.21754052 0.004108875 -0.011679893 0.116305836
000030 7a 4e e4 bd a5 a4 8c be 2a 3f 3c be 57 3f 55 be
       -0.11147781 -0.27469364 -0.1838347 -0.20824943
000040 7d d2 6e bb af ea 0b 3e 8c b5 1a be ed 1b ec 3d
       -0.0036441379 0.13663743 -0.15108317 0.11528764
000050 e4 c7 6c bd 92 e1 30 be 16 09 ba 3c 10 9f 81 3d
       -0.057807818 -0.17273548 0.02270941 0.06329167
000060 13 2a de 3d 72 5a f9 bd d4 f3 fc bd 81 4b 16 3e
       0.10847869 -0.12175454 -0.12351194 0.1467724
000070 d1 3f ac be 8d 0e a5 be df 06 3f 3e 99 c2 3c 3e
       -0.33642438 -0.32237664 0.18654965 0.18433608
000080 5d d4 c6 be 38 80 30 3e 5d e9 00 3e 80 76 e2 3d
       -0.38833895 0.17236412 0.12589021 0.11057758
000090 c8 6c 30 be be ba 00 3e 11 9f ba bd 8d b9 09 be
       -0.17228997 0.12571236 -0.09112371 -0.13449688
0000a0 57 99 2f 3e ee fe 96 be 3e 6e fd 3d 95 3e 96 3d
       0.17148338 -0.2949137 0.12374543 0.07336155
0000b0 87 97 a1 be 5a 0c 36 be 92 2a d9 bd 83 44 bc 3d
       -0.3156092 -0.17778149 -0.10603823 0.09192755
0000c0 10 1b ee bd ee 3b 21 be 95 15 34 3d 49 33 f3 3d
       -0.116262555 -0.15745518 0.043965895 0.11875016
0000d0 3c 54 c1 3d 8d e2 f1 3d 6e f2 e7 3d 23 44 d7 3d
       0.094398946 0.11810789 0.11325537 0.10511043
0000e0 b0 01 b3 3d a9 38 b7 3d e9 3e 80 be 7b 84 0a 3e
       0.08740556 0.08946354 -0.25047997 0.135271
0000f0 ef af a9 be 41 5f ab be 58 2f 6d be 01 21 1a be
       -0.3314204 -0.3347111 -0.23162591 -0.15051652
000100 61 91 bc 3d e3 c1 17 3e d9 84 9a bd 7a 0b e8 bd
       0.09207416 0.14820056 -0.0754487 -0.11330314
000110 af 1a 97 be 34 00 4b be 5c fb 1f 3e f2 88 7b be
       -0.29512545 -0.19824296 0.1562323 -0.24563959
000120 0c 27 6e bd fa 07 cd bd 2d 83 99 be ce 36 e1 3d
       -0.058142707 -0.10011287 -0.29982892 0.10996781
000130 10 32 1f be 01 0c 42 be 41 7e d7 3d 15 de 0a 3e
       -0.15546441 -0.18949892 0.10522128 0.1356128
000140 8b 5a 5f bd 6f 9e b5 bc 33 83 9b be f8 09 3a be
       -0.054529708 -0.022170274 -0.30373535 -0.18167865
000150 5a 46 89 3d f4 21 2f be d1 4e b9 3d cc fb 17 3e
       0.067028716 -0.17102796 0.09048236 0.14842147
000160 0f 91 a9 be 4c 89 84 be 40 c0 91 be a4 bb 87 3d
       -0.33118483 -0.25886 -0.28466988 0.066275865
000170 c0 11 b5 3d aa 9f b6 be a3 39 0d 3e 03 d5 ef bc
       0.08841276 -0.3566869 0.13791518 -0.029276377
000180 41 a5 d7 3d 3a 5f 81 be 32 4e 0d 3e cb b9 ad bd
       0.105295666 -0.25267965 0.1379936 -0.08482703
000190 14 85 42 3e 9e e6 87 bd d1 15 bb bd 25 e4 23 3e
       0.18996078 -0.066357836 -0.091350205 0.16004999
0001a0 08 23 23 bd 3a f2 dc 3d 4c ff b7 3d bc 26 2b bd
       -0.03982833 0.107883886 0.08984241 -0.041784987
0001b0 d6 59 fe bd ce 38 b1 bc d6 3e d9 bd 4c 10 3c be
       -0.124194786 -0.021633532 -0.10607688 -0.18365592
0001c0 38 10 22 be 13 7b 30 bd a2 ba c9 3d 72 3c c8 bd
       -0.158265 -0.043086123 0.098500505 -0.09777154
0001d0 03 81 0a 3e 4c c9 0f 3e 32 1b 51 bd 1b d7 bc 3d
       0.13525777 0.14041632 -0.051051326 0.092207156
0001e0 c3 1f 38 3e 20 94 c1 3d b9 1d 0c be 8c 28 b6 3d
       0.17980866 0.09452081 -0.13683213 0.088944525
0001f0 55 ad 41 be ae 2e 28 be a9 59 f8 3d 45 0a 9b be
       -0.18913777 -0.16424057 0.12126476 -0.30281273
000200 6e 82 3f be d9 71 04 3e 93 79 40 3e 69 a0 f0 3d
       -0.18702099 0.12934054 0.18796377 0.11749346
000210 3e 8a 0e 3d b3 f9 c0 bd 48 79 91 3c 9c 18 b9 3d
       0.034799807 -0.09422626 0.017758027 0.09037897
000220 2d 1c ab be 90 71 2d be 3a 71 62 be c8 d0 bb bc
       -0.33419934 -0.16937852 -0.22113505 -0.022926703
000230 42 4a 8b 3c c1 c6 28 be f8 7a 32 bd c2 3f 9a 3d
       0.017003182 -0.16482069 -0.043574303 0.07531692
000240 ec b9 14 3e c7 dd 03 3e 27 30 70 3d 90 d4 ec bd
       0.14524049 0.1287757 0.05863967 -0.115639806
000250 29 2e 20 3e 05 52 00 3e 87 10 bd bd f9 17 01 be
       0.15642609 0.12531288 -0.09231668 -0.12606801
000260 97 55 18 be 24 42 7c b8 64 61 61 be d7 8f ad bd
       -0.148764 -6.014308e-05 -0.22009808 -0.08474701
000270 73 0b f2 3d 1a 94 ad be 07 3e 1f 3e 4b a5 82 be
       0.1181859 -0.33902055 0.15551005 -0.25516734
000280 32 63 1f be 21 04 68 be 7f bc 37 3e 5f f8 0b 3e
       -0.15565184 -0.22657825 0.17943 0.13668965
000290 fa 8b a6 3d c0 18 37 3e a2 a3 b9 bd 4f 8a 16 3e
       0.08132167 0.17880535 -0.090644136 0.14701198
0002a0 64 0b 13 be 4a 04 d3 3d 4b 51 18 3e f6 6d 70 bd
       -0.14359814 0.103035524 0.14874761 -0.058698617
0002b0 bb bd 03 bc b8 31 d0 3d 7a 84 d8 3d 2a d5 2c 3e
       -0.008040841 0.10165733 0.10572143 0.1687819
0002c0 9a ab 90 3d b8 47 46 be 8b 68 51 bd 9d 3d fb 3d
       0.070639804 -0.19363296 -0.05112509 0.12267611
0002d0 0f e7 8a bd 06 d7 d3 3d bc b9 4d 3e d2 65 a2 bd
       -0.06782352 0.10343747 0.20090383 -0.07929577
0002e0 5e b1 5b be 8d c3 a1 3d c2 37 80 ba c4 16 e2 3d
       -0.21454379 0.078986265 -0.0009782242 0.110394984
0002f0 7f cc d5 bd 8f eb 4e be ea 0b 33 be 92 43 02 3e
       -0.10439395 -0.20207046 -0.17485014 0.12721089
000300 67 14 ae be b9 81 42 be b1 bb bb bd 60 45 d8 3d
       -0.3399994 -0.18994798 -0.09166659 0.10560107
000310 47 96 61 be c0 4b 4f be 5e 20 48 be 03 68 24 3e
       -0.22029983 -0.2024374 -0.19543597 0.16055302
000320 0b 88 3c 3e ea d4 18 3e 83 fb fd 3d de f3 fb bd
       0.18411271 0.1492497 0.12401488 -0.12302373
000330 7c b1 12 3e 53 41 00 be 14 f7 89 be 23 d5 47 3d
       0.14325517 -0.12524919 -0.26946318 0.048787247
000340 1d 2c 4f bd b3 a7 11 3e 8d 63 21 3e 4d b5 6e 3c
       -0.05057918 0.14224128 0.15760632 0.014569593
000350 92 b7 0e be aa 9c 11 3e 5f 88 99 3d 78 b6 02 be
       -0.13937214 0.14219919 0.07496714 -0.12764919
000360 10 e6 de bd e5 84 cd be 8b 7e 23 3e a5 0b e6 3d
       -0.10883725 -0.40140453 0.15966241 0.1123269
000370 56 c6 01 be 4e 41 c6 3d 3a 99 f2 3d f8 15 8b be
       -0.12673315 0.09680425 0.11845632 -0.27165198
000380 70 f9 ce bd 36 a6 1a be 23 e7 63 be 3b 78 fb 3d
       -0.1010617 -0.15102467 -0.2225614 0.122787915
000390 48 7c c8 3d 47 98 ca 3d b9 9e 0d 3d 91 dd 04 bd
       0.0978933 0.09892326 0.034575198 -0.032437865
0003a0 35 fe 75 bd c9 c0 87 be 55 de a2 bd 67 cf cd 3d
       -0.060056884 -0.2651427 -0.07952563 0.100493245
0003b0 3e 68 ae 3d 93 1f 3a be 08 85 f5 3d 41 83 b9 3d
       0.08515976 -0.18176107 0.11988264 0.09058238
0003c0 7a 45 02 be d6 e9 cb 3c cf 83 c4 3d fa 0c a7 3b
       -0.12721816 0.024891775 0.09595453 0.0050979825
0003d0 e5 06 5f bd da bb 6a be 8d 6b e2 3d 03 52 72 be
       -0.054449935 -0.22923222 0.1105567 -0.23664097
0003e0 83 8f 13 bd 76 30 83 be b8 69 44 be ee 08 5f 3d
       -0.036025535 -0.2562291 -0.19180954 0.054451875
0003f0 e0 4c 3c be 87 fb c2 bd 48 a4 b3 bd a1 f5 48 3d
       -0.183887 -0.09520631 -0.087715685 0.049062375

fc2.bias f4 [10]
000000 b6 ce 1f 3e 2b fb 75 3e d1 e3 09 be 30 b8 a7 3d
       0.15606198 0.24021594 -0.13465811 0.08189428
000010 8f 32 a4 be ef 78 14 be 9a 47 19 be ea fa a9 bd
       -0.32069823 -0.14499258 -0.1496872 -0.08299811
000020 39 34 51 3e d7 a2 e8 3d
       0.20430078 0.11359184

exp_avg f4 [10, 1, 5, 5]
000000 6e a8 82 3b 60 52 82 3b f5 0d 7f 3b 2f b0 01 3b
       0.0039873635 0.003977105 0.003891823 0.0019788851
000010 9f 21 f4 3a 93 3b 47 3b f4 2d 9c 3b bc fb a9 3b
       0.0018625743 0.00304005 0.00476622 0.00518748
000020 fb 97 fd 3a c2 1a 24 3b 89 74 d8 3a 40 7d 31 3b
       0.0019347662 0.0025040363 0.0016514222 0.0027082711
000030 28 2c dc 39 00 65 ef ba 52 95 49 3a 56 01 33 3a
       0.0004199457 -0.0018264353 0.0007689792 0.0006828507
000040 c0 9d b0 39 f8 8b a6 ba b0 f2 a5 ba 99 30 d6 3a
       0.0003368687 -0.0012706509 -0.0012660827 0.0016341388
000050 62 3c 32 3b 00 7d 7f 38 08 64 20 3a 80 ec b6 39
       0.0027196635 6.0913153e-05 0.00061184214 0.0003488995
000060 ef 71 00 3b 12 9d 0e 3c 4d f9 2c 3c aa 19 0f 3c
       0.001959916 0.008704441 0.010557485 0.008734146
000070 94 10 ad 3b 50 73 30 3b e3 ee d7 3b 68 6b 06 3c
       0.0052815173 0.00269242 0.006589757 0.008204319
000080 c5 0f dc 3b 0f ba 8b 3b d8 87 d9 39 7c 2c 70 3b
       0.006715747 0.0042641233 0.00041490677 0.0036647609
000090 ab 98 73 3b e7 ae 52 3b a8 25 c1 3a 94 25 76 bb
       0.0037169855 0.0032147707 0.0014735954 -0.003755902
0000a0 f5 ef 23 3b a0 52 83 3a 03 56 f4 3a ec 57 0b 3a
       0.0025014852 0.0010019131 0.0018641356 0.00053155306
0000b0 d0 ac 8f bb e6 49 0a 3b 00 ef 25 3a 40 59 e2 b9
       -0.0043846145 0.0021101176 0.0006329864 -0.00043172576
0000c0 9a 34 1b bb b5 9a 91 bb f7 8e e0 bb 11 ee 6e bb
       -0.0023682476 -0.0044434913 -0.0068529802 -0.0036457817
0000d0 04 c2 2e ba 54 37 25 3b c2 c0 11 3b ee 2b 8f ba
       -0.0006666484 0.002520998 0.0022240137 -0.0010923126
0000e0 dc 88 13 3b 72 e3 42 3b ed 60 51 3b c8 99 19 3a
       0.0022511994 0.0029737619 0.0031948641 0.0005859402
0000f0 b7 4b 15 bb 79 9e 67 3b a4 c9 d5 3b 0e ab 43 3b
       -0.0022780725 0.003534226 0.0065242816 0.0029856595
000100 1b 24 2a ba e7 db 13 3b 35 33 8f 3b 13 42 e2 3b
       -0.00064903655 0.0022561492 0.004370118 0.0069048493
000110 c3 c2 e2 3b 91 5f 89 3b 21 90 d2 3b fc 4b 10 3c
       0.00692019 0.0041923006 0.006425873 0.008807179
000120 3b 5a 3c 3c 2f cf 2b 3c 5d a6 36 3c 3e 4e 19 3c
       0.011496122 0.010486408 0.011148063 0.009357033
000130 b3 07 05 3c 4d c5 a5 3b 20 36 14 ba e2 a7 76 bb
       0.008119511 0.0050589205 -0.0005653817 -0.0037636687
000140 24 68 b9 3b bb 3b e8 3b 12 c1 76 3b 20 52 aa ba
       0.0056581665 0.0070871986 0.00376517 -0.0012994446
000150 d8 9c 81 bb 9e 4c b5 3b 05 54 f4 3b 15 c4 c0 3b
       -0.003955465 0.005532815 0.007456305 0.00588275
000160 85 71 08 bb 1e ea b0 bb a2 cd 8b 3b da 6c cf 3b
       -0.0020819616 -0.0053990027 0.0042664567 0.006330115
000170 ee 43 96 3b ba 00 c3 ba a4 36 81 bb b1 dd b2 3b
       0.0045857346 -0.0014877536 -0.0039432812 0.0054585566
000180 72 fe c6 3b 28 61 aa 3b e2 f0 47 3b 20 7d 7b 39
       0.0060728127 0.00519957 0.0030508568 0.00023983838
000190 c8 b9 0f 3c b4 af b1 3b b6 b7 51 3a 7c 5d 15 ba
       0.008772321 0.005422557 0.00080000923 -0.0005697829
0001a0 45 9a 84 bb 2c 27 32 3b 16 ea 75 3a 14 fe 2b bb
       -0.0040467107 0.0027183993 0.000938089 -0.0026243972
0001b0 ee 47 5f bb 68 05 5e bb b0 a5 2f ba e7 67 dc ba
       -0.0034069973 -0.0033877734 -0.00067004096 -0.0016815633
0001c0 0c fd 4d bb 18 8e 60 bb 18 eb 25 bb 44 26 31 3a
       -0.0031431345 -0.0034264382 -0.0025317129 0.0006757716
0001d0 f3 4c 9c 3a 4b 6c 21 bb 31 48 82 bb d0 61 aa ba
       0.0011924788 -0.0024631198 -0.003975891 -0.0012999121
0001e0 a7 8c 07 3b 92 29 67 bb e2 ed 09 bc 42 f4 d6 bb
       0.00206832 -0.003527258 -0.008418532 -0.0065598795
0001f0 79 99 3f bb ab 68 81 3b b4 25 99 3b a9 8e a1 3b
       -0.0029235764 0.003949245 0.004673684 0.0049303365
000200 16 8c 15 3b bc a5 76 3a bb 32 96 3b 45 20 c6 3b
       0.0022819093 0.00094088516 0.0045836843 0.0060463273
000210 b3 b6 e8 3b e6 10 87 3b 28 7c 91 3a 68 ee b4 3b
       0.0071018576 0.0041218875 0.0011099624 0.0055215843
000220 47 f5 aa 3b 61 d6 90 3b 37 e0 f8 3a 68 dc 9a b9
       0.0052172276 0.004420087 0.001898772 -0.00029537384
000230 ae 7f 6b 3b 0a b8 38 3b 17 39 49 3b c0 a7 09 3b
       0.0035934257 0.0028185868 0.0030704194 0.0021004528
000240 00 33 7d 38 1e 0d 94 39 d8 19 7b 39 1c f9 31 3a
       6.0367398e-05 0.00028238533 0.00023946853 0.00067891343
000250 a9 19 7f 3a 82 7f 25 39 d1 a7 84 bb 40 f6 89 39
       0.00097313017 0.00015783127 -0.0040483256 0.00026314147
000260 aa 56 cb 3a 53 16 8f 3b cb b3 56 3b 4b 11 53 3b
       0.0015513499 0.004366675 0.0032760974 0.0032206352
000270 d6 ef a5 3b 04 16 c5 3b 10 52 c1 3b 24 a0 2a 3b
       0.005063991 0.0060145874 0.005899675 0.0026035393
000280 7e a8 dc 3b 63 06 06 3c e1 13 16 3c 3b a3 db 3b
       0.006733953 0.008180234 0.009160013 0.006702808
000290 4b 81 ab 3b 5d e0 d3 3b 2e 73 b4 3b 96 2c 0d 3c
       0.005233919 0.006465955 0.0055068946 0.008616587
0002a0 1e 0d f9 3b 65 10 0c 3c b8 cb 84 39 19 28 69 3b
       0.0076004406 0.008548831 0.00025328784 0.0035576879
0002b0 84 b0 12 3c 36 a2 fb 3b b4 b7 28 3c 68 8a 27 bb
       0.008953217 0.007679249 0.0102977045 -0.0025564674
0002c0 aa d0 a2 bb 47 db 8c bb d4 b5 22 ba 81 99 02 bb
       -0.0049687224 -0.004298601 -0.0006206904 -0.0019927921
0002d0 80 18 9e 37 d2 6b f2 ba 08 89 ae bb 26 ed 36 bb
       1.8846476e-05 -0.0018495268 -0.005326394 -0.0027912348
0002e0 d3 66 99 bb f4 66 0a 3b 30 9d a7 b9 60 98 14 b9
       -0.004681447 0.0021118494 -0.00031969836 -0.00014171144
0002f0 30 6a c1 3a c2 be b0 b9 6c c0 0b 3b cf 0f e5 3a
       0.0014756378 -0.00033711462 0.002132441 0.0017476025
000300 20 da 37 3b 4e e3 7e 3b bf b1 27 3a 04 23 23 3b
       0.0028053597 0.0038892808 0.00063970307 0.0024892697
000310 fa 14 b7 3b c0 7a 75 3b 64 b5 ac 3b 5c 46 81 3b
       0.0055872174 0.0037457198 0.005270647 0.003945155
000320 fa 34 f9 bb 22 4e 8f bb f4 dc fb bb 30 e4 2e bc
       -0.0076051923 -0.004373328 -0.007686252 -0.010674521
000330 b4 e7 fd bb e4 76 e2 bb fa 04 5c bb f8 80 c9 bb
       -0.0077485684 -0.0069111455 -0.0033572302 -0.0061494075
000340 9f 8c 7a bb fc 12 3f bb 94 45 6e bb ee 1f ac bb
       -0.003823079 -0.0029155603 -0.003635739 -0.0052528298
000350 c4 cc 8f bb 8d db 88 ba b7 fb 58 3b 31 07 b9 bb
       -0.0043884236 -0.0010441408 0.0033109018 -0.0056466092
000360 15 b5 f2 bb a1 87 8d bb d0 e2 4d b9 33 37 eb 3a
       -0.0074068406 -0.0043191467 -0.00019634818 0.0017945528
000370 8e 5c af bb 5a 2f 02 bb 98 41 59 b9 80 fc ec b7
       -0.0053516096 -0.001986465 -0.00020719168 -2.8250972e-05
000380 7f 3d de 39 70 8d fb 3b 65 c9 44 3b 3b b4 42 bb
       0.00042388958 0.007676773 0.0030027267 -0.0029709477
000390 1e bb 36 bb 08 0a bf b9 5a a6 38 3b 8a 68 12 bb
       -0.0027882527 -0.00036437833 0.0028175325 -0.0022340142
0003a0 ed ed b8 bb 47 59 89 bb 30 9e 2a ba f7 ab 0e bb
       -0.0056435973 -0.004191551 -0.0006508557 -0.002176998
0003b0 b9 90 ac bb 7a fb d3 bb 16 71 15 bb 1a ea 14 3b
       -0.0052662757 -0.0064691873 -0.0022803 0.0022722543
0003c0 29 50 d2 b9 51 f3 18 bb c5 12 5b bb e4 07 c9 ba
       -0.00040114045 -0.0023338387 -0.0033427936 -0.0015337435
0003d0 06 a8 4e 3b 9b bc 4a 3b 89 b1 4a ba f6 2d a1 bb
       0.0031533255 0.0030935172 -0.0007732143 -0.004918809
0003e0 73 cf 72 bb 58 47 54 39
       -0.003704992 0.00020244473

exp_avg_sq f4 [10, 1, 5, 5]
000000 72 42 28 3a a0 f1 07 3a f4 cb ed 39 31 73 f5 39
       0.00064185925 0.0005185846 0.0004535612 0.00046815866
000010 3a 76 08 3a 4e 7c 16 3a a0 a7 e8 39 19 e0 fc 39
       0.00052056054 0.0005740569 0.0004437538 0.0004823215
000020 2c b6 f7 39 1c d9 e4 39 8c f5 0e 3a ec 37 b2 39
       0.0004724724 0.00043649308 0.00054534595 0.0003399247
000030 3e 56 0c 3a f5 44 fc 39 11 48 cc 39 d5 90 0a 3a
       0.0005353427 0.00048116563 0.00038963606 0.0005285864
000040 39 ac b9 39 c0 57 12 3a 52 f7 f8 39 35 8f e4 39
       0.00035414266 0.0005582534 0.00047486514 0.00043594246
000050 d0 67 13 3a 30 3a 01 3a 31 83 03 3a cd f9 f1 39
       0.0005623074 0.000492963 0.00050168025 0.00046153218
000060 d1 63 05 3a e6 0e 11 3a f9 57 0f 3a d4 6b 0d 3a
       0.0005088421 0.0005533531 0.0005468126 0.0005394791
000070 ab d6 08 3a 08 77 0f 3a 1d fe d3 39 30 0d fb 39
       0.00052199763 0.0005472754 0.00040434385 0.00047884276
000080 76 22 f3 39 d8 0b e3 39 8c b7 1b 3a 99 e8 ce 39
       0.00046374247 0.00043305638 0.00059401314 0.0003946468
000090 2a da ef 39 c5 a1 b2 39 aa 38 f2 39 c4 38 35 3a
       0.00045748177 0.00034071333 0.00046200055 0.0006913061
0000a0 90 d9 e9 39 fe 40 cd 39 51 fd c7 39 75 ef 24 3a
       0.0004460332 0.0003914907 0.00038144973 0.00062917854
0000b0 8b 9b 4a 3a ff 52 f3 39 dc 2b fc 39 d6 1f 26 3a
       0.0007728866 0.0004641041 0.00048097863 0.00063371414
0000c0 c5 c2 4b 3a 4e 5f 61 3a 6f b0 86 3a 79 8e 84 3a
       0.00077728584 0.00085972704 0.001027597 0.0010113261
0000d0 a1 74 69 3a 15 3a 6e 3a 63 b4 7d 3a f8 68 6c 3a
       0.00089056237 0.00090876344 0.0009678064 0.0009018327
0000e0 65 88 6d 3a 84 7b 85 3a c9 83 73 3a 76 59 58 3a
       0.0009061157 0.0010183905 0.0009289352 0.0008253077
0000f0 32 42 93 3a 9f 97 b1 3a 99 7f 84 3a 9f dc 66 3a
       0.0011234938 0.0013549215 0.0010108828 0.0008806679
000100 43 be 5f 3a be 76 93 3a 39 67 86 3a f5 dc 95 3a
       0.0008535126 0.0011250598 0.0010254151 0.0011433648
000110 86 d5 7f 3a 14 d8 84 3a 5d ba 89 3a 30 31 a0 3a
       0.00097592955 0.0010135197 0.0010507811 0.001222169
000120 33 46 a0 3a 2c 17 89 3a 93 75 a2 3a 14 8c 1c 3a
       0.0012227952 0.0010459176 0.0012394659 0.0005971801
000130 4f aa 1e 3a ea 01 20 3a 71 d9 19 3a 1e 8c 09 3a
       0.00060525996 0.0006103801 0.0005868888 0.00052470143
000140 07 c9 1f 3a 8f 1b 1f 3a d0 36 16 3a 0e 7a 04 3a
       0.0006095324 0.0006069475 0.00057302136 0.0005053588
000150 ce 08 ff 39 a8 db 27 3a 52 84 27 3a 2e ac 09 3a
       0.0004864395 0.0006403276 0.00063902617 0.0005251792
000160 c7 62 02 3a 7b 7e ef 39 cc 95 25 3a 47 00 1a 3a
       0.00049738254 0.00045679868 0.0006316572 0.0005874675
000170 f8 00 fd 39 ef cd 06 3a b7 e9 dc 39 ef 0a 15 3a
       0.00048256642 0.0005142381 0.000421358 0.0005685528
000180 e7 c3 05 3a ff b0 01 3a db 72 03 3a 63 5a d4 39
       0.0005102739 0.0004947334 0.0005014368 0.00040503134
000190 e3 3f ed 39 8f c0 04 3a 59 0d 0a 3a 5d 50 06 3a
       0.00045251762 0.0005064094 0.0005266271 0.00051236694
0001a0 7e a6 19 3a fe f5 df 39 0b 28 02 3a 8e 6e d1 39
       0.0005861296 0.00042717153 0.00049650733 0.00039945956
0001b0 7c be 02 3a f6 bf 2a 3a 07 21 ee 39 21 d6 ad 39
       0.0004987491 0.000651359 0.00045419505 0.0003315667
0001c0 ae 59 e8 39 bb a4 27 3a b9 7a 42 3a 6e 35 f1 39
       0.00044317305 0.0006395091 0.00074188 0.0004600691
0001d0 8c 67 da 39 dd d0 23 3a fa 0a 41 3a 9f 8a 52 3a
       0.0004165735 0.00062490796 0.00073640014 0.00080315204
0001e0 4f 3b 13 3a d8 38 33 3a 56 a0 46 3a fa db 4f 3a
       0.00056164426 0.00068367785 0.00075769925 0.00079292024
0001f0 c2 ee 63 3a b4 61 29 3a d2 66 3a 3a 01 ac 43 3a
       0.00086949405 0.0006461397 0.00071106583 0.000746429
000200 37 82 38 3a 0f 27 3e 3a 7e d4 27 3a ea 28 33 3a
       0.00070384465 0.0007253745 0.0006402208 0.0006834405
000210 3f 57 24 3a 26 f6 29 3a ef 0b 3c 3a 7b 62 2c 3a
       0.0006269104 0.00064835174 0.0007173409 0.0006575954
000220 4d dd 24 3a 11 f0 17 3a e7 81 28 3a 80 9c 39 3a
       0.000628908 0.00057959656 0.00064280484 0.000708051
000230 7a 49 23 3a 61 06 1b 3a 89 ce 1c 3a 6c 18 2d 3a
       0.00062289054 0.00059137313 0.0005981704 0.00066030654
000240 7e 31 32 3a 40 35 21 3a f8 c1 1d 3a 4b c4 1c 3a
       0.0006797536 0.00061495975 0.00060179783 0.00059801777
000250 dd c8 2a 3a 1b 33 2b 3a f3 ec dd 3a d6 96 bf 3a
       0.00065149163 0.00065307476 0.0016931578 0.0014617096
000260 1c 9f be 3a 91 cb d6 3a 81 7c 00 3b f4 fb e3 3a
       0.0014543268 0.0016387572 0.001960546 0.0017393813
000270 ce 27 ce 3a a3 d7 cb 3a 6b 14 e0 3a 35 a3 08 3b
       0.0015728415 0.0015551936 0.0017095929 0.0020849232
000280 2f 5c e4 3a 95 cb c5 3a e7 80 cd 3a c7 5c e7 3a
       0.0017422492 0.0015090579 0.0015678675 0.0017651551
000290 7c cc 0a 3b e3 a4 db 3a 63 b2 d3 3a 04 b5 f1 3a
       0.002117901 0.0016757514 0.0016151186 0.0018440788
0002a0 8d af f8 3a bb c3 0f 3b da 89 e4 3a fa 5a fa 3a
       0.0018973217 0.0021936733 0.0017436102 0.00191006
0002b0 ec ce 06 3b 82 bc 08 3b 2c 9a 18 3b 0b 50 a3 3a
       0.0020570112 0.0020864313 0.0023285253 0.0012459768
0002c0 c2 93 8a 3a 9f 22 6e 3a d8 5f 5a 3a ca 84 5e 3a
       0.00105726 0.00090841384 0.0008330322 0.0008488415
0002d0 98 0c 9d 3a 8c 91 86 3a 26 54 76 3a 2d a6 69 3a
       0.0011981903 0.0010266765 0.00093966944 0.0008913007
0002e0 2d 4f 62 3a b7 34 9b 3a ff 84 91 3a bf b3 7d 3a
       0.0008633014 0.0011841272 0.0011102258 0.00096779683
0002f0 9a 95 6f 3a 84 c8 85 3a 66 ef a5 3a 7d 66 95 3a
       0.0009139419 0.0010206853 0.0012659847 0.0011398342
000300 8d 59 73 3a b4 27 67 3a 6c e7 8e 3a 47 7a ae 3a
       0.00092830585 0.0008817867 0.0010902709 0.0013311588
000310 fc 89 90 3a 6a 30 71 3a 43 13 7c 3a 1a 66 94 3a
       0.0011027451 0.00092006347 0.00096159073 0.0011321933
000320 16 a6 07 3a 66 b7 1c 3a a4 b4 32 3a cf a5 21 3a
       0.000517459 0.0005978256 0.00068170787 0.000616637
000330 bc 94 0c 3a 3f 4b 04 3a 67 8f 20 3a 6b f8 23 3a
       0.00053627393 0.0005046613 0.0006124884 0.00062549737
000340 51 40 f4 39 5b 58 f1 39 9c d1 01 3a e8 9b 0f 3a
       0.00046587226 0.00046032932 0.00049521937 0.0005478249
000350 fd 11 f5 39 57 ea cc 39 02 d5 e8 39 fb 9d dd 39
       0.00046743444 0.0003908451 0.00044409191 0.0004227011
000360 c4 34 e2 39 07 08 be 39 18 23 e5 39 15 7f 1b 3a
       0.00043145393 0.00036245605 0.0004370443 0.00059317175
000370 12 c4 c9 39 b6 c2 c1 39 f1 de fa 39 ae b7 25 3a
       0.0003848379 0.000369569 0.0004784982 0.0006321621
000380 2e 6c 31 3a 44 6b 9a 39 7e 98 8c 39 55 13 7d 39
       0.0006768134 0.00029453088 0.00026816496 0.00024135162
000390 9a 67 a5 39 7b 3d c4 39 fb 0f 96 39 9b 5b 85 39
       0.00031548442 0.0003742984 0.00028622136 0.00025435988
0003a0 8e 84 59 39 b5 59 9c 39 b0 e1 c2 39 d6 db a2 39
       0.00020744113 0.00029821476 0.00037170714 0.00031062838
0003b0 61 59 88 39 2e 46 64 39 4d 3e a3 39 28 41 c7 39
       0.00026006534 0.00021769918 0.000311362 0.00038004783
0003c0 e7 4e ae 39 ef 26 ad 39 b5 3e a1 39 2d 18 ba 39
       0.00033246653 0.0003302614 0.00030755033 0.00035494697
0003d0 e9 be d1 39 bc 95 d0 39 6e 11 cb 39 9c 09 cd 39
       0.00040005826 0.00039784412 0.00038732163 0.00039107807
0003e0 06 bc e1 39 e9 c9 ed 39
       0.00043055433 0.00045354597

exp_avg f4 [10]
000000 d2 ac a7 3a 0f 20 a8 3b b0 ca 3e 3a 45 51 44 bb
       0.0012792593 0.005130775 0.00072781276 -0.0029955667
000010 14 dd cb 3a 22 85 1f 3a 20 75 89 bb 95 54 b5 3b
       0.0015553557 0.0006085207 -0.0041948706 0.0055337646
000020 a9 34 48 bb af 83 82 ba
       -0.0030548966 -0.0009957458

exp_avg_sq f4 [10]
000000 36 47 80 3a 44 c6 6f 3a ff c6 47 3b 01 23 34 3a
       0.0009786848 0.00091466703 0.00304836 0.0006871671
000010 9f f2 60 3a f0 37 41 3a 8d 7f 41 3b 9f d0 ef 3a
       0.0008581075 0.0007370701 0.002952549 0.0018296427
000020 00 b8 f1 39 e6 83 c8 39
       0.00046104193 0.00038245245
