checkpoint/model_epoch7.pth (torch, 268573 bytes, 24 tensors)

conv1.weight f4 [10, 1, 5, 5]
000000 6b c6 4f 3c a2 1b 8f 3e 18 af d2 3e e6 82 46 3d
       0.012681584 0.2795077 0.4114921 0.04846468
000010 e7 91 7a bd b2 1f e0 bd 1e 74 4a 3d 43 d1 a5 3e
       -0.0611743 -0.109435454 0.049427144 0.32386217
000020 11 9c 8e 3e ef 0b 02 bd 55 24 c2 be ef 1a cf 3d
       0.27853444 -0.031749662 -0.37918344 0.10112559
000030 89 80 fa 3e 07 d2 2a 3e c1 78 14 be 1a 12 8e be
       0.4892619 0.16681682 -0.14499189 -0.27748185
000040 11 24 01 bd 3e a9 bf 3e 70 f6 5e 3e 0b 91 cd 3d
       -0.031528536 0.3743381 0.21773696 0.100374304
000050 d2 d5 5d be 8b b9 11 3d 9d 70 91 3e 2a 6e 8a 3e
       -0.21663597 0.03557734 0.2840623 0.27037174
000060 d6 5f 21 3d 0f 35 9e 3d 43 c3 80 3e dc e1 3d 3e
       0.039398037 0.07724964 0.25148973 0.1854319
000070 52 9f 8d bc 44 b3 d5 bc 65 bb 0a be f6 3d a2 3e
       -0.017287884 -0.026086457 -0.13548048 0.31687897
000080 cf 64 a3 3d 68 2a 82 bd ac 90 64 be 64 99 94 3c
       0.07978212 -0.063557446 -0.22320813 0.018139549
000090 40 24 9d 3e 1f 77 2c 3e 1b 01 93 bd ae 5b 68 be
       0.3069172 0.16842316 -0.07177945 -0.22691223
0000a0 dd ee 2c 3e 1a 30 5f 3e 8c ff 0d 3d c1 9f 22 be
       0.16887994 0.21795693 0.034667537 -0.15881254
0000b0 98 eb 2c be 6e 99 06 3e 33 96 7e 3e 45 3c 10 bc
       -0.16886747 0.13144466 0.24861984 -0.008803432
0000c0 bd 19 66 be 12 2d 47 be 51 fb ed 3e 6f 01 0a 3f
       -0.22470756 -0.19450787 0.46480802 0.5390844
0000d0 3c 83 94 3e 14 2b 43 3e a1 80 95 be 27 5a a0 bd
       0.29006374 0.19059402 -0.291997 -0.07829695
0000e0 1b b9 4e be 1c 72 00 bc 7c a0 34 3e ed f4 a3 3d
       -0.201878 -0.007839706 0.17639345 0.080057
0000f0 c3 ce 80 be cc a4 0c bf 92 23 c6 bd 82 45 ce 3a
       -0.25157747 -0.5493896 -0.09674753 0.0015737268
000100 fb 3d a4 3e 1c 96 0e bd b8 75 8f be f5 32 a6 bb
       0.32078537 -0.034811124 -0.280195 -0.0050719925
000110 61 22 4c 3e cd 22 ac bc eb fe b0 3e f6 ed fc 3e
       0.1993499 -0.021012688 0.34569487 0.494003
000120 e7 e5 a7 3d 9f bd 7c be 2a 1f 70 3d b3 09 04 be
       0.08198147 -0.2468171 0.05862347 -0.12894325
000130 e4 0a b2 bd 78 ed f4 3d 4e bf 08 3e 4d 60 7c bd
       -0.086934835 0.11959356 0.13354227 -0.061615277
000140 fe 61 a9 be fd 01 23 be 09 24 70 be 8f e1 93 3d
       -0.33082575 -0.15918727 -0.23451246 0.07220756
000150 be 73 31 3e c1 19 94 bd 82 06 81 be ac ac 84 be
       0.17329308 -0.07231475 -0.25200278 -0.25912988
000160 87 db 21 3e a3 79 07 3e 2f 40 b3 be 73 b9 26 be
       0.158064 0.13229994 -0.35009906 -0.16281681
000170 ed 35 14 3d a1 df b4 3e 5d f8 48 3e 2e 68 2b be
       0.03618424 0.35326865 0.19625993 -0.1673896
000180 dd ee 1c 3d f8 c1 80 3e e0 2e 94 3e 93 8e 9d 3e
       0.038313735 0.25147986 0.28942013 0.30772838
000190 ae f1 6f 3d a8 12 3a 3d 18 2e 3f 3e 5b a5 e1 3b
       0.058580093 0.04542795 0.18669927 0.006886167
0001a0 86 76 ab 3d 3d d7 5c 3e f6 69 ad 3d a8 1d 65 bd
       0.08372216 0.21566482 0.08467476 -0.055936486
0001b0 82 84 63 bd e9 48 cd bd 0e 1d 01 3f 7a 1b f4 3b
       -0.05554629 -0.10023672 0.5043496 0.0074495645
0001c0 eb 5f 8a be a3 38 9c bd 28 e2 82 3d bb 44 b4 3e
       -0.27026305 -0.0762799 0.06390792 0.35208687
0001d0 d5 ff d1 bd 89 bc 56 be 23 1a 19 be 12 f5 14 be
       -0.10253874 -0.20970358 -0.14951377 -0.14546612
0001e0 95 1d 47 3e 2f fb 0e be 74 da 65 bd 70 8a bd bc
       0.19444878 -0.13963006 -0.056116536 -0.023137301
0001f0 7c 13 14 be 81 51 fb bd 90 86 8f 3d ab 8b 32 3e
       -0.14460558 -0.12271405 0.07008088 0.17436092
000200 a2 6a 47 3c c8 7c 83 be f4 69 10 be 72 40 59 3e
       0.012171419 -0.25681138 -0.14102918 0.2121599
000210 e1 82 f8 3d d6 22 34 be 54 ee 15 be 39 11 ee bc
       0.12134338 -0.17591414 -0.14641696 -0.029060947
000220 f9 94 20 bb 2d af 21 bd 3e 95 89 bc ef d1 4f be
       -0.0024502857 -0.0394737 -0.016794797 -0.20294927
000230 24 22 ed bb 2a fa 7b bd 59 31 76 3a 80 54 8e bc
       -0.007236736 -0.061517872 0.00093915086 -0.017374277
000240 a7 c1 3b be 6e cc cd 3d a3 03 f7 bd 4c c8 ed 3d
       -0.18335591 0.100487575 -0.120612405 0.11610469
000250 ce c7 7b be fc 2a 78 bd ee cc 4e 3e 42 e2 53 3e
       -0.24587938 -0.060587868 0.20195362 0.2069178
000260 8a c0 7f 3e c5 b7 92 3e 2f b2 93 3e 6a a5 b0 3e
       0.24975792 0.2865583 0.2884688 0.345012
000270 4d 83 47 3e 01 34 95 3e 93 48 f9 3d 6e 02 a9 3e
       0.19483681 0.29141238 0.121720456 0.33009666
000280 43 bd 0e 3d d4 aa 31 3e 2b 37 f9 bc ec 51 31 3d
       0.034848463 0.17350322 -0.030421814 0.043291017
000290 ec d8 ad 3d b6 84 90 be 31 65 bb bd 42 24 67 be
       0.0848864 -0.2822625 -0.0915016 -0.22572425
0002a0 88 be a3 bd 80 14 95 bd de 64 bf be 6f a9 00 bf
       -0.07995325 -0.07279301 -0.37381643 -0.50258535
0002b0 90 f5 bc be 8d d1 ca be 15 5f db bd 15 fd 4a 3b
       -0.369061 -0.39613 -0.10711495 0.0030973603
0002c0 0f de 9f 3e 5c 92 36 3e da d4 03 bd 5c 74 3e be
       0.31224105 0.17829269 -0.032185413 -0.18599075
0002d0 3a fe f0 3d 14 a4 03 3e f8 cc 4b 3e 87 bd 47 3e
       0.1176724 0.1285556 0.19902408 0.19505893
0002e0 ac 91 4d bd c8 50 b2 be a2 b9 00 be d8 71 2e 3e
       -0.05018775 -0.34827256 -0.12570813 0.17035615
0002f0 17 c5 c9 3e e3 1e 61 3e 4c e5 8f bd 13 e6 0a be
       0.3940818 0.21984439 -0.07026157 -0.13564329
000300 2a 87 69 be 53 2e 5b 3d ec bf 3c 3e 7d 12 ab be
       -0.22805467 0.053510975 0.18432587 -0.33412543
000310 42 81 3f bd 21 ca 6a be 87 d9 2d be 30 aa 6c 3c
       -0.04675413 -0.22928669 -0.16977511 0.014444873
000320 39 8f a2 3c 7b d0 95 bd 58 0c 2e 3e 47 d0 ff 3c
       0.019843685 -0.07315155 0.16996896 0.031227244
000330 23 1d 0f 3e 87 50 19 be f8 86 c1 3d 06 87 d2 bc
       0.13975959 -0.14972125 0.09449571 -0.02569915
000340 0f 7c 84 be fd ac 60 be 5c 24 c4 39 30 de 8b 3e
       -0.258759 -0.2194099 0.00037411123 0.27317953
000350 e3 b6 26 be 22 68 dc be bd 00 bc be bf 00 3e be
       -0.16280703 -0.43048197 -0.36719313 -0.18554972
000360 6d 8c f6 3e 3e bf aa 3e 2a 4c af be 49 a7 54 bd
       0.4815401 0.3334903 -0.34237796 -0.051917348
000370 bf 8a 16 be dc bf 52 3e 1d 12 04 3f 42 61 0e 3e
       -0.14701365 0.20581001 0.5159014 0.13904288
000380 e6 53 40 3e 65 aa ef be ac 1c 68 3d 0f 3e af 3e
       0.18782005 -0.46809688 0.05666797 0.34227034
000390 40 b8 ab 3e 9e 50 f9 3d 9c 5f 90 3d 58 da 03 3f
       0.3353901 0.1217358 0.07049486 0.5150504
0003a0 b7 c9 ec 3e 90 3a 3d bd 9b 7e 36 bc 6a 38 fd 3d
       0.46247646 -0.046198428 -0.0111385835 0.12364276
0003b0 fb 73 84 3e 16 28 3a be 26 27 95 be 2c 88 89 be
       0.25869736 -0.18179354 -0.2913143 -0.26861703
0003c0 da 57 60 3e 41 45 93 bc d7 87 1a be bb 1f 19 be
       0.21908513 -0.017977359 -0.15090881 -0.1495351
0003d0 bf f1 43 bc 48 e8 d4 3d da 52 09 be 06 ed b1 3d
       -0.011959492 0.10395867 -0.13410512 0.08687787
0003e0 4a 2e e5 bc f4 3c 4d 3e
       -0.027976174 0.20042783

conv1.bias f4 [10]
000000 90 2a 31 bd 6b b4 1c be 9c 46 15 3e 77 12 dd bc
       -0.04325348 -0.15303199 0.14577717 -0.026986344
000010 9a f1 96 be 9a 92 f3 be da 79 2e 3e f6 47 27 3e
       -0.29481202 -0.47572786 0.1703867 0.16336045
000020 5f ae 3b be c4 ce f1 3d
       -0.18328236 0.118070155

conv2.weight f4 [20, 10, 5, 5]
000000 6c 76 00 be 77 57 01 3e c1 6b 45 3d 8f 51 94 bc
       -0.12545174 0.12631021 0.048198465 -0.018105296
000010 28 b7 09 3e 07 12 f9 bd 52 f8 3e 3e dd f4 1a 3e
       0.13448775 -0.121616416 0.18649414 0.1513247
000020 21 4d bd 3c 2b 1f 55 3e ec 10 02 be 5d 9d 3c 3c
       0.023108067 0.20812671 -0.12701768 0.011512128
000030 f3 60 ca 3d d9 0d f7 bd 91 1b ae bd 0d fe 02 be
       0.09881773 -0.12063188 -0.085013516 -0.12792225
000040 4b c5 59 bc 4c 8e 4e 3c a9 a2 1d be 1c 13 4a be
       -0.013291667 0.012607168 -0.15394081 -0.19733852
000050 e5 3c 89 bd c0 ec a0 bd fa fc 85 3c 46 2e c2 bd
       -0.06701068 -0.078576565 0.01635598 -0.09481482
000060 5d b5 75 be e7 2f cf bc b3 06 94 3c 5a 51 69 3d
       -0.23994966 -0.025291396 0.0180696 0.05696235
000070 c3 12 90 3d ef 3b a3 bd 1c 8c 7b be 84 96 36 3d
       0.070348285 -0.07970416 -0.24565166 0.044577137
000080 6d 33 c6 3d 4f c6 7a 3d d5 a6 f1 3b 02 84 06 be
       0.096777774 0.061224278 0.0073746243 -0.13136294
000090 48 58 54 3d 47 e0 9b 3d 98 2b 93 3d 53 d4 8b bc
       0.051842004 0.07611137 0.07186049 -0.017069018
0000a0 63 e9 93 3d 38 8d f1 3c 78 c7 bf 3c a3 0f 4f bd
       0.07222249 0.029486284 0.023410544 -0.05055202
0000b0 16 6f 2f bd 62 f7 04 bd 9a f9 41 bc f1 13 8f 3d
       -0.04283055 -0.032462485 -0.011839295 0.069862254
0000c0 5d 0f 5d 3d 14 6a ea 3c fc 4a 45 be 25 0c e2 bd
       0.05396973 0.028615035 -0.19266886 -0.11037473
0000d0 81 a3 8c bd 62 fa d9 bd 0c 38 02 bd b5 f6 86 bd
       -0.068671234 -0.1064346 -0.03179173 -0.065900244
0000e0 84 54 a0 3c a0 03 9a 3d 5b 46 61 be ea 6f 8a bc
       0.01957155 0.07520223 -0.21999495 -0.016899068
0000f0 10 7a 1d 3c 45 93 d0 bd 94 ac c1 be 21 1f 50 be
       0.0096116215 -0.101843394 -0.3782698 -0.20324375
000100 e2 f4 2a be d0 85 dc bd 2c e8 7a be c5 cc ea bd
       -0.16694978 -0.1076771 -0.24502629 -0.11464838
000110 be 49 42 be 09 66 17 be bd b5 e3 bd ba 84 0b be
       -0.18973443 -0.14785017 -0.11118648 -0.1362485
000120 4a 37 08 be f0 77 c8 bc 94 77 b2 bd 70 40 9a 3d
       -0.13302341 -0.024471253 -0.08714214 0.07531822
000130 4c de e6 3d c2 72 6a 3d 4e 9a 32 be e3 3e 87 be
       0.112728685 0.057238348 -0.17441675 -0.26415166
000140 ff de d6 3d 54 b5 ea 3d 7c 18 07 3d c8 5f 3a be
       0.10491752 0.11460367 0.032982334 -0.182006
000150 f5 a6 42 be 12 60 12 3e 4b 1b 3a 3e de 78 01 3e
       -0.19009002 0.1429446 0.18174474 0.12643763
000160 5f 37 b8 bd 09 12 82 bc 16 37 b5 3d 3c 59 f4 3d
       -0.08994936 -0.01587774 0.088483974 0.119310826
000170 0d 48 f5 bc 06 24 33 be 4e 71 f5 bd bd 55 80 3c
       -0.029941583 -0.1749421 -0.11984502 0.015665883
000180 ff 76 ba 3d de 7c f1 3d 2d 82 49 3d eb 82 1e be
       0.09104728 0.11791395 0.04919641 -0.15479629
000190 41 74 f3 bc 95 f8 27 be 4f 4c ab 3d 64 a1 48 3d
       -0.02971852 -0.1640342 0.08364164 0.04898204
0001a0 b8 58 7f bd 8c 86 8c be 62 4c 46 bd a7 2e 8e 3d
       -0.06234047 -0.274464 -0.048412688 0.06942492
0001b0 fd 69 02 3e 24 cf 35 3c f8 40 86 be 97 11 7c 3d
       0.12735744 0.011096749 -0.26221442 0.061540212
0001c0 d7 af 10 3e 89 b1 00 3e 8d b7 9f bd d5 b8 b7 bb
       0.14129578 0.12567724 -0.077986814 -0.0056067505
0001d0 1a c3 31 3d 0d c4 11 bd 5f fe a5 bd 84 cb 8f bd
       0.043398954 -0.03558736 -0.08105158 -0.070212394
0001e0 99 30 a4 3d 88 18 5d bd c4 c3 33 be a2 89 4f 3a
       0.08017082 -0.053978473 -0.17555147 0.0007916932
0001f0 d4 93 39 3b 9e 19 80 3c 1a a5 89 3c 1c e5 6f bc
       0.0028316872 0.015637215 0.01680236 -0.014642026
000200 09 d3 13 be 27 b5 01 be 88 7b 43 bd 8c 04 fe 3d
       -0.14435972 -0.1266676 -0.04772523 0.12403211
000210 00 2b e6 bc 1d b7 0f 3d a4 d5 a0 bd 2e b6 b0 3c
       -0.028096676 0.03508674 -0.07853249 0.021571245
000220 1e a2 e5 3c e0 ea 11 3b 73 56 fe bc 56 4d 79 bd
       0.028031405 0.002226524 -0.031047082 -0.06086477
000230 74 10 ec 3b 5b 62 ad 3d d6 38 9e 3d 97 b3 77 bd
       0.00720411 0.084660254 0.07725684 -0.060474005
000240 5e 26 1f bd 08 4c c9 bc f4 f3 32 3a 00 8a 28 3d
       -0.03885495 -0.024572387 0.0006826513 0.041147232
000250 3c fe 70 3d 56 5e 56 3b 0f fc 28 be ca cb 52 bd
       0.058836207 0.0032710037 -0.16502403 -0.05146388
000260 08 e3 de 3b 4e 7d 36 3d 40 58 d6 3d 83 40 31 3d
       0.0068019666 0.044553094 0.10466051 0.043274414
000270 b6 01 11 bd ba 49 1f bd 75 fc d7 3c c8 a4 da 3c
       -0.035402022 -0.03888867 0.026365498 0.026689902
000280 9f b4 30 3d 85 18 94 bc 8b 5d 08 3d c0 9a fc bd
       0.043141004 -0.018078098 0.033292335 -0.12334204
000290 51 ac e0 bc 59 9b 41 bd f0 50 48 bd 42 04 9a bc
       -0.027425917 -0.04726729 -0.048905313 -0.018800858
0002a0 02 17 86 bd b1 2e 3d bd fd af ec bd e9 b2 1f bb
       -0.06547357 -0.046187107 -0.115570046 -0.0024368113
0002b0 4e 9d 4b bd 7f 92 9b bd 03 37 a8 bd d0 b6 52 be
       -0.049710564 -0.07596301 -0.08213618 -0.2057755
0002c0 b7 37 60 be 51 10 00 be 87 b6 9e bd d0 d5 f6 3b
       -0.21896254 -0.12506224 -0.07749658 0.0075328127
0002d0 f0 f4 68 bc c5 89 14 bd 9b 9b df 3c b4 6b 2b bc
       -0.014218554 -0.0362642 0.027295878 -0.01046269
0002e0 a0 a8 c3 3c 89 18 dd bd 33 6d 87 3d 26 e2 54 3d
       0.023884118 -0.10795695 0.06612625 0.051973484
0002f0 a0 91 52 bd 44 e0 9f bd c3 68 ec bd c2 55 48 bc
       -0.05140841 -0.07806447 -0.11543419 -0.0122274775
000300 3a 5f a8 3d 14 e1 15 3d 31 b8 23 bd a3 73 9d bd
       0.08221288 0.036591604 -0.03997058 -0.076880716
000310 39 92 78 bd f6 cc df bd d3 74 76 bc 75 b6 b2 bd
       -0.060686324 -0.10927765 -0.0150425015 -0.08726207
000320 4e b6 a6 be 83 72 5d be a5 ab 7c bd 2d d6 66 3d
       -0.32560962 -0.21625714 -0.06168713 0.056356598
000330 2a 1b 11 be 0d 4f ee be 14 ab 5b bc a0 e4 4a bc
       -0.14170519 -0.46544686 -0.013407487 -0.01238361
000340 ba fe 13 3e d4 3e 02 be f1 17 9b be dd b0 a9 3d
       0.14452639 -0.1271928 -0.30291703 0.08285687
000350 27 bc ef 3c 3f 55 f0 3c ac 5f 83 bd 0c 3a 12 bd
       0.029264523 0.029337524 -0.06414732 -0.03569989
000360 ef 4a 8a 3d 16 16 d5 bc 42 1f 89 bd 3a 54 4b bc
       0.06752574 -0.026011508 -0.06695415 -0.012410218
000370 9a 22 a7 3d 43 a2 1a 3d d5 a2 e5 3c 37 f4 e3 3b
       0.081608966 0.0377524 0.028031746 0.006956603
000380 47 10 bc bd d4 18 9d bd c7 64 0b 3e 15 71 a5 bc
       -0.09182792 -0.07670751 0.13612662 -0.020195523
000390 1f 83 1f bd aa b7 5b bd 9f 6d 51 bd 9b 10 d6 3d
       -0.038943406 -0.053641953 -0.051129933 0.10452386
0003a0 45 40 09 3e da b3 a6 3c 3c ed e1 bc 99 7b ef bd
       0.13403423 0.020349432 -0.027578942 -0.11693496
0003b0 e9 c7 ef 3c cd f8 8d 3d b7 6d 75 3d ae f1 05 bd
       0.02927013 0.069322206 0.059919085 -0.032701187
0003c0 8d 6c 6d bd f0 8c 2d 3d ca ac 8b bd 74 7a d9 bd
       -0.05796485 0.042370737 -0.06820066 -0.10619059
0003d0 b8 0f 34 be 53 de bc bc 43 57 1e be bd ac f4 bd
       -0.17584121 -0.023055231 -0.15462975 -0.1194701
0003e0 8b 9d b7 bd 6d 36 56 bd da 4d 93 bd 65 57 a1 bd
       -0.08965596 -0.052298 -0.071925834 -0.07877997
0003f0 6b dd 60 be 0a 8a f7 3d f5 2c 03 3e d3 a2 83 bd
       -0.21959464 0.12086876 0.12810118 -0.06427541

conv2.bias f4 [20]
000000 7e 40 22 3b fb 75 0d 3b e7 13 2f 3d 2e 8a aa bd
       0.0024757679 0.0021585214 0.04274359 -0.08327137
000010 50 44 fa bb cc 10 a0 bd 55 37 8f bd 12 f7 04 bd
       -0.007637538 -0.07815704 -0.069929756 -0.032462187
000020 82 27 41 3d 7e 77 40 bc 60 59 f2 3b 01 31 b4 bc
       0.04715682 -0.011747239 0.0073959082 -0.021996023
000030 c9 7f e5 bd 98 96 42 3d 85 15 6a 3d 16 3c 13 bd
       -0.11206014 0.0475069 0.05714943 -0.035945974
000040 0d c4 ab bc c4 ae 4b bd 0e 66 f1 bc 86 0e 5a bc
       -0.020967508 -0.049727216 -0.029467609 -0.013309127

fc1.weight f4 [50, 320]
000000 3c 91 24 3e 08 f3 64 3d 2b 19 c7 3c fe 74 d2 3d
       0.16071028 0.055895835 0.024303993 0.10276221
000010 d3 7a f2 bd f2 76 1e bd a0 e1 15 bd a9 de a2 3d
       -0.11839833 -0.038687654 -0.036592126 0.07952625
000020 bc 28 ea bd 9d d7 04 be e2 8f ca 3b c8 56 bc 3d
       -0.11433551 -0.12972875 0.006181703 0.0919624
000030 b2 cf 72 3e 61 85 36 bd 22 e4 bd bd 70 39 1d 38
       0.23712042 -0.044560794 -0.092720285 3.748521e-05
000040 c2 59 e1 bc ef ee bd bc 10 f0 4c 3d 80 b9 2a 3d
       -0.02750862 -0.023185221 0.05003363 0.041680813
000050 4e 48 42 3d 55 14 8c 3d 70 d5 f0 3d 41 eb 78 bc
       0.047432236 0.068398155 0.1175946 -0.015192808
000060 4e 41 90 3d ed 4b d3 bd cb 23 01 3e 50 31 a0 bc
       0.07043706 -0.10317216 0.1261131 -0.019554764
000070 54 de ff bd 1e 9b 64 bd 77 94 55 be 60 d1 db bd
       -0.124935776 -0.055811994 -0.20857416 -0.107332945
000080 2c 01 06 be 7b eb 0c be a2 9e c1 bc cf 6e c8 bd
       -0.13086385 -0.13761704 -0.023635212 -0.0978676
000090 05 46 3c 3d ed 43 9c 3c 57 58 c9 3c d8 aa 8a be
       0.045965213 0.019075358 0.024578257 -0.27083468
0000a0 ae 17 a2 3d 3c 00 74 3d 0b 47 dc 3d 83 96 72 bd
       0.07914673 0.059570536 0.10755738 -0.05922557
0000b0 72 f2 b8 3d 8b f6 0a 3d ed 0b cc 3a c3 b1 49 3e
       0.09030618 0.033926528 0.0015567519 0.19696717
0000c0 a6 17 6f be a0 fe 22 be 51 ea c9 bd 24 62 ae bd
       -0.23348865 -0.15917444 -0.098591454 -0.085148126
0000d0 35 0a 43 3e 9a 64 c5 3c 4b 86 9d bd fb 2b 75 be
       0.19046862 0.024095822 -0.0769163 -0.23942558
0000e0 e6 5b 5f 3e 0a 93 f1 3d 80 fe 9a 3b 70 87 09 3d
       0.218124 0.117956236 0.004730046 0.03357643
0000f0 2d 6f bb 3c 8d 94 48 3d d0 c5 ec bd a7 2e dd 3d
       0.022880161 0.048969794 -0.11561167 0.10799914
000100 58 b4 b1 bd 41 2e f6 bc e8 85 ee bd 7b 40 5c bd
       -0.08676976 -0.030051352 -0.11646634 -0.05377243
000110 12 f9 fc 3d e8 28 98 bd 9c df ad bc 71 0c da bc
       0.12352194 -0.07429677 -0.02122479 -0.02661726
000120 c8 21 16 3e 41 a0 48 3d ea 4e 9a bb 61 e6 d5 3d
       0.14661324 0.048980955 -0.0047091143 0.10444332
000130 8b 4c 59 bd 3a 76 88 3d ec 06 f6 bd 5a 63 bf bd
       -0.053051513 0.06663175 -0.12013039 -0.09345122
000140 a0 c0 6a bc 95 bd 2b bd 03 e1 b7 bd bf 2e a7 bc
       -0.014328152 -0.041928846 -0.089784645 -0.020408032
000150 82 9e a9 3d 45 c1 34 3d 56 00 91 bd 07 ad 66 3c
       0.08282186 0.04412963 -0.07080142 0.014079339
000160 b1 dd 83 bd b6 1f 6f 3d 0a 20 6c 3d 7e 66 26 3d
       -0.06438769 0.05837985 0.057647742 0.040625088
000170 50 80 c9 38 84 dc e9 bd e3 ab 45 bc 42 6c a6 bd
       9.608327e-05 -0.11419013 -0.012064907 -0.08126117
000180 49 30 77 bd c1 69 90 bd e4 3c d0 3d e4 b4 80 3d
       -0.060348783 -0.07051421 0.10167864 0.06284502
000190 94 67 c2 bd 13 6b ef bd 75 88 44 3d 43 83 0a 3e
       -0.09492412 -0.11690345 0.047981698 0.13526635
0001a0 18 4d 9b 3d 0f 1a 4c bd b7 2d a3 bd d4 a1 bf bc
       0.07583064 -0.04982954 -0.07967704 -0.023392595
0001b0 e0 8e 40 3d cf 8f d1 3d e5 19 16 be ad 0f 94 be
       0.047011256 0.102325074 -0.14658315 -0.2891821
0001c0 45 78 03 3c 1a f8 d3 3d 61 d4 a5 3d b8 41 97 3c
       0.00802428 0.10350056 0.08097149 0.018463954
0001d0 0a e6 e9 bc ca 48 31 3d 5b 9f 83 bd 85 66 9d 3c
       -0.028552074 0.043282308 -0.06426879 0.019213924
0001e0 3f 59 9f 3c 5c 4e ba bd e8 8e c0 3d f6 a2 41 bd
       0.019451736 -0.09096977 0.09402257 -0.047274552
0001f0 41 c0 8a be b0 21 c1 bd f1 6d 05 3d 2e 39 5a bd
       -0.27099803 -0.094302535 0.03257555 -0.053277187
000200 ce 65 f0 bd 1f 62 c5 bd 18 8e 5a bd 9c 1c f1 bd
       -0.11738168 -0.09637856 -0.053358167 -0.11773035
000210 10 18 77 bd 10 be 5c 3d 12 2b 13 be cd 13 7d be
       -0.060325682 0.053892195 -0.14371899 -0.24714585
000220 52 ae 54 bc 42 57 12 3e 4d 88 98 3c 6b 69 83 3d
       -0.012981014 0.14291099 0.01861968 0.06416591
000230 53 f0 35 bd 8b 38 66 bd be 9a f5 3d fa 22 78 3e
       -0.044418644 -0.056206267 0.11992405 0.24232092
000240 59 a8 1d bd d0 f6 00 3d 2a a8 22 bd 32 71 a2 3c
       -0.038490627 0.03148538 -0.039711155 0.019829366
000250 47 be 99 3e d4 84 7e 3d 67 59 b6 bd 06 57 1e bd
       0.30027983 0.062138394 -0.08903771 -0.03865721
000260 ae 24 49 3d 25 6d 9a 3d f0 99 c1 3d d4 e2 a3 3d
       0.049107246 0.07540349 0.094531894 0.080022484
000270 87 6b 5f 3e bc d6 28 3c c5 5c 0e be 16 0d a1 be
       0.21818362 0.010305103 -0.13902576 -0.31455296
000280 95 23 05 3d 4a c1 da 3d e2 ad bb 3d b3 0a 08 be
       0.032504637 0.10681398 0.09164025 -0.13285331
000290 af 10 3b bc e5 a7 1f 3d c5 fd 04 3e 9e 34 3f be
       -0.011417552 0.038978476 0.1298743 -0.18672416
0002a0 8e f0 0a 3b 29 e6 8f bc a3 8a 23 bd b9 72 5f be
       0.002120051 -0.017565804 -0.039927136 -0.21821107
0002b0 03 3e 03 3d 5e 4a b6 b9 74 f6 e4 bd 3f 3b 5a bd
       0.03204156 -0.00034769153 -0.1117982 -0.053279158
0002c0 f9 f0 0e 3c ef 18 d0 3d 52 c5 d5 3d 51 7e 0f 3c
       0.008724445 0.10161006 0.104380265 0.0087581435
0002d0 fe 5b 29 bd a3 36 85 bd af a4 6d 3c f2 36 0c 3e
       -0.041347496 -0.06504562 0.014504596 0.13692835
0002e0 d8 c2 d4 3d 77 fd 12 be ef 71 0d 3d ff 14 50 3d
       0.10388726 -0.14354502 0.034532484 0.050801273
0002f0 19 12 b0 3d c6 11 11 be 03 4c 6f bd 5a 02 11 be
       0.08597202 -0.14166936 -0.0584221 -0.14161053
000300 16 ac f9 bd 34 59 11 3d a8 a3 9e bd 4e 47 66 3c
       -0.12191026 0.03548546 -0.07746059 0.014055086
000310 a9 c1 c2 bd 4b a8 59 bd e7 74 c7 bd cf fc 88 bc
       -0.09509594 -0.053139012 -0.09739094 -0.016722111
000320 36 75 ec 3d cc 94 25 bd 2a 2d 4f 3e 58 bc e8 bc
       0.11545794 -0.040425107 0.20232072 -0.028410122
000330 78 5a ce bd c6 04 19 be d0 3f 6d bc ab 0c 35 3d
       -0.10075849 -0.14943227 -0.014480546 0.044201534
000340 0f 59 8f 3e 8d d5 b6 3d 86 a6 27 3e 02 62 85 bd
       0.27997634 0.0892745 0.16372117 -0.06512834
000350 44 42 ff bd f0 5b 00 be 5e 82 df 3d e6 8f 25 3d
       -0.12463811 -0.12535071 0.109135374 0.040420435
000360 fc 4f 80 bd 05 d0 71 3d b2 24 12 be 9b e7 b1 bd
       -0.06265256 0.059036274 -0.1427181 -0.08686753
000370 77 c2 c0 3d 19 1f 6b 3d a1 52 94 3d 28 56 cc bd
       0.09412091 0.057402704 0.07242323 -0.099773705
000380 71 c0 21 3e 09 84 b6 3d de c6 ae bd cf c9 ea bc
       0.15796067 0.089119025 -0.08534025 -0.028660683
000390 e3 6a 2c 3e 38 e6 a9 3d 90 4e 2a bd 1d aa c5 3d
       0.16837649 0.08295864 -0.04157883 0.09651587
0003a0 0b 66 68 3d be f6 ac 3c 78 01 a6 3b bd 1c 6e bd
       0.05673794 0.02111375 0.005066093 -0.058132876
0003b0 17 29 42 be 81 18 29 be a2 f4 bc bd 4c 22 1a 3c
       -0.18960987 -0.16513254 -0.092263475 0.009407591
0003c0 b6 34 7d 3b cc d2 6c 3d 61 bc 11 bd 43 5f b9 be
       0.0038636154 0.05781822 -0.035580043 -0.3620549
0003d0 c3 36 50 3d 45 94 64 3d 49 ec 3b be 10 ac 41 be
       0.050833475 0.055805463 -0.18351854 -0.18913293
0003e0 26 59 ef 3b a3 21 77 bd 92 33 40 3c 17 12 66 3e
       0.0073043285 -0.060334813 0.011731045 0.22467838
0003f0 0a c2 47 3d 39 1c d8 bd 09 02 67 bd bb 73 1a 3e
       0.048769034 -0.10552258 -0.056398425 0.1508321

fc1.bias f4 [50]
000000 bd 43 56 3c 1f 17 a4 3d 52 93 39 3e d0 3a 8d 3e
       0.0130776735 0.080122225 0.18122604 0.27583933
000010 40 d2 4d 3e dd 53 6a 3e 5c 66 50 3e 4b a8 59 3e
       0.20099735 0.22883554 0.20351547 0.21255605
000020 d3 cb ac 3d 01 c1 e9 3d 14 79 bc bd ca 82 0f 3d
       0.08437314 0.11413766 -0.09202781 0.03503684
000030 d2 5a b9 3d 51 76 34 3d 34 d7 e2 3d 39 89 53 3e
       0.09050526 0.044058148 0.11076203 0.20657815
000040 93 2b d7 3d 35 6c f4 3c e1 d3 ce bd 91 2f b1 3d
       0.10506358 0.029836753 -0.100990064 0.08651651
000050 f1 0e 8a 3e e4 53 8f ba 63 28 13 3e b3 c1 12 3e
       0.26964524 -0.0010935036 0.14370875 0.14331703
000060 cb 4b cd 3d 7f fa 25 3e 92 2f 52 3d db c1 3a 3e
       0.10024222 0.16208838 0.051314898 0.18238012
000070 8d 89 09 3e 8e 9d 3c 3e d8 ce ca 3d 1b 66 fc 3d
       0.13431378 0.18419477 0.099027336 0.123241626
000080 b2 a1 3c 3e 56 b2 8f 3d 56 c1 fe 3d b9 50 8c 3d
       0.18421057 0.07016437 0.1243922 0.06851334
000090 25 83 a6 3d e8 da 94 3e 6a 00 e8 3c f1 33 8b 3d
       0.081304826 0.29073262 0.02832051 0.067970164
0000a0 ab 3c 62 3d dd e3 40 3e e1 b4 16 3e 51 a6 6f bc
       0.05523364 0.18836923 0.14717437 -0.014627055
0000b0 88 38 21 3e e6 b6 fa 3d a5 80 17 3e 74 8d 0d 3e
       0.15744221 0.12241916 0.14795168 0.13823491
0000c0 aa 32 82 3e 50 be eb 3d
       0.2542928 0.115109086

fc2.weight f4 [10, 50]
000000 63 d8 76 bd 8b 71 ab 3d e8 6f e2 be 65 6e 42 be
       -0.060264956 0.08371266 -0.44226003 -0.18987425
000010 2d f5 15 be 7c 26 21 3e 3c 99 05 3e 0a 50 64 be
       -0.14644308 0.15737337 0.13046736 -0.22296157
000020 ad 23 87 be c3 cd 65 bd d7 71 9a bc 75 36 0e 3e
       -0.26394406 -0.056104433 -0.018853111 0.13887961
000030 53 c5 1d be c0 50 89 be 34 42 3f be ce 5e 67 be
       -0.15407304 -0.2681942 -0.18677598 -0.22594759
000040 9e 63 38 bd 9a 3f ce 3d d4 e5 3b be 82 75 f4 3d
       -0.045016877 0.10070725 -0.18349391 0.11936475
000050 ce bc e0 bd 4e 52 30 be d3 b8 1b bb 8f 23 1d 3d
       -0.10973512 -0.17218897 -0.0023761287 0.03836399
000060 ee 7b e4 3d 06 d7 16 be 97 90 e3 bd f4 6d 14 3e
       0.1115645 -0.14730462 -0.11111563 0.14495069
000070 12 65 b8 be 96 7b c3 be 8d ff 3c 3e 3d 66 42 3e
       -0.3601461 -0.38180226 0.1845686 0.18984313
000080 fd 48 c9 be 9d 14 36 3e d2 77 f6 3d af 0d c1 3d
       -0.39313498 0.17781301 0.12034573 0.09426438
000090 26 5a 2a be 23 26 02 3e 45 3b 1f bd 8f c1 eb bd
       -0.16635951 0.1270986 -0.038874883 -0.11511528
0000a0 0b cf 26 3e a2 c9 a7 be e9 2e 0d 3e f5 d6 af 3d
       0.16289918 -0.3277102 0.13787426 0.08585922
0000b0 4e 58 94 be 98 a7 28 be 33 fb 16 be d8 ef 96 3d
       -0.2897362 -0.16470182 -0.14744262 0.07369965
0000c0 c7 05 e2 bd 9f 04 43 be b6 05 a7 3d 69 88 1b 3e
       -0.11036258 -0.19044732 0.08155386 0.15188755
0000d0 88 f7 0a 3e 66 22 07 3e a8 a9 ff 3d db a9 e6 3d
       0.13570988 0.13196716 0.12483531 0.11262866
0000e0 24 a9 16 3e 7d 57 a9 3d 0f 6c 9e be 7b 6c 12 3e
       0.1471296 0.0826864 -0.30941817 0.14299195
0000f0 22 18 cd be 18 3a c8 be f7 74 65 be f0 20 33 be
       -0.40057474 -0.39106822 -0.224079 -0.17493033
000100 28 8b ab 3d e1 88 15 3e 78 0f d5 bd b4 9a 10 be
       0.08376151 0.14602996 -0.10403341 -0.14121515
000110 ee 10 a1 be 5d 23 41 be 95 5b 3d 3e 84 a2 57 be
       -0.3145823 -0.18861146 0.18491967 -0.21058089
000120 24 93 96 bd 3f 9f d2 bd 26 bd aa be dd 8f 0a 3e
       -0.073522836 -0.1028428 -0.33347434 0.13531442
000130 62 63 23 be 0c 1f 76 be c0 0e bb 3d 10 2d 0e 3e
       -0.1595588 -0.24035281 0.09133673 0.13884377
000140 94 15 9f bd 73 17 8a bd b7 20 a6 be c4 48 4d be
       -0.077677876 -0.06742754 -0.32446834 -0.20047289
000150 31 3e ba 3d f0 f0 3a be c0 fb d2 3d 27 3c 11 3e
       0.09093893 -0.18255973 0.10301924 0.14183103
000160 e0 42 dc be 52 09 a0 be 38 0d 91 be 9c 8f 4e 3d
       -0.43019772 -0.3125711 -0.28330398 0.050429925
000170 fd ce ca 3d 5a b3 a6 be dd d8 08 3e 42 ef 3a bd
       0.09902761 -0.3255871 0.13363977 -0.04563833
000180 eb 41 f8 3d d9 eb 82 be bd 66 10 3e af 2f a1 bd
       0.12121948 -0.25570562 0.14101692 -0.07870423
000190 41 45 1c 3e 31 81 89 bd c5 30 db bd 5e 76 1f 3e
       0.15260793 -0.067140944 -0.107026614 0.15572497
0001a0 a9 0b 4a bc 87 6f ee 3d c1 3d 97 3d d4 f1 63 bd
       -0.012331882 0.11642366 0.073848255 -0.055650547
0001b0 8c f0 e4 bd 72 c5 aa bc bc c7 e8 bd 2b d6 49 be
       -0.11178693 -0.020846102 -0.11366221 -0.19710605
0001c0 40 c8 10 be 7b 45 87 bd 5e d5 a6 3d 3f cd f4 bd
       -0.1413889 -0.06605049 0.08146165 -0.1195321
0001d0 c8 80 26 3e 13 56 18 3e 86 80 f1 bc 7a 89 9d 3d
       0.16260064 0.14876585 -0.02948023 0.07692237
0001e0 c7 80 2f 3e 94 1a c5 3d 0e 42 09 be 23 18 f3 3d
       0.17138968 0.0962421 -0.13404104 0.11869838
0001f0 e2 01 48 be 14 86 34 be f4 df 0c 3e b9 e3 97 be
       -0.19531968 -0.17629272 0.13757306 -0.29665926
000200 a9 86 31 be 69 ac 0c 3e ae 33 48 3e 34 5a 19 3e
       -0.17336525 0.13737644 0.19550964 0.14975816
000210 08 5b 6e ba 8b 04 09 be be 27 eb 3c ea 4e ce 3d
       -0.0009092544 -0.1338064 0.028705474 0.100736454
000220 fd 49 c3 be 74 b3 49 be 0b e3 89 be 02 4d 99 bd
       -0.38142386 -0.19697362 -0.26931033 -0.07485391
000230 37 ce 21 3b 48 d6 31 be dc 24 a8 bd 0e 31 8e 3d
       0.0024689564 -0.17366898 -0.08210155 0.0694295
000240 39 94 1a 3e 4b 53 e6 3d 80 f2 85 3d 7d 90 05 be
       0.15095605 0.112463556 0.06540394 -0.13043399
000250 f2 e1 1c 3e 5c 6c 06 3e 94 0d da bd dd 31 f2 bd
       0.15320566 0.13127273 -0.10647121 -0.11825917
000260 4f 1b 13 be 86 e8 cf 3b 35 5c 63 be 65 5b 6f bd
       -0.14365886 0.0063448576 -0.22203143 -0.05843677
000270 e8 20 0b 3e bd 75 a0 be c1 af 1a 3e 04 76 94 be
       0.13586771 -0.31339827 0.15106107 -0.2899629
000280 5c e6 38 be 83 64 73 be 04 9a 4c 3e fb e5 09 3e
       -0.18056625 -0.23768811 0.19980627 0.13466637
000290 53 c1 a6 3d 6c 89 31 3e 47 b2 d1 bd 4f 02 08 3e
       0.081423424 0.17337579 -0.10239082 0.1328213
0002a0 c9 8f 36 be 49 d4 df 3d 7a 61 1e 3e 42 a8 8a bd
       -0.17828287 0.10929162 0.15466872 -0.06770374
0002b0 27 26 94 bc 8a 37 c0 3d b2 95 e6 3d 00 fc 3f 3e
       -0.018084599 0.09385593 0.11259021 0.18748474
0002c0 e5 cc 83 3d 98 f4 59 be 5c 4b 59 bd 3d 58 0c 3e
       0.06435565 -0.21284711 -0.053050384 0.13705535
0002d0 14 25 c0 bd 8b 9d e6 3d d6 bd 5f 3e f3 70 84 bd
       -0.09382072 0.11260518 0.2184976 -0.06466856
0002e0 f3 3c 81 be 23 f2 74 3d 55 03 07 bd 98 30 e5 3d
       -0.25241813 0.059801232 -0.032962162 0.11190909
0002f0 77 72 a0 bd 6d a9 7f be cf f8 37 be 9e b8 10 3e
       -0.078343324 -0.24966975 -0.17966007 0.14132926
000300 b8 09 a9 be 1e 3a 5b be bb 2a 99 bd 2a e6 01 3e
       -0.33015227 -0.21408889 -0.07478853 0.12685457
000310 49 d2 75 be c5 1d 48 be 52 8e 71 be be 8b 2f 3e
       -0.24005999 -0.19542606 -0.23589447 0.17143151
000320 e8 55 50 3e 15 c5 1a 3e e2 f9 03 3e 18 bb 41 bd
       0.2034527 0.15114243 0.12888291 -0.047297567
000330 c3 67 08 3e 9a 63 e2 bd 90 78 b0 be 4e 32 8c 3d
       0.13320832 -0.11054154 -0.34466982 0.06845532
000340 21 d6 81 bd c8 36 1c 3e 7b d0 1f 3e f2 36 c3 bc
       -0.0633967 0.15255272 0.15606873 -0.02382991
000350 7c 67 1d be 1a ac 04 3e 28 88 a8 3d d3 5a 2d be
       -0.15371507 0.12956277 0.08229095 -0.16929178
000360 20 f1 9f bd e5 bc b7 be c6 47 21 3e de 31 d7 3d
       -0.07809663 -0.35886303 0.15750036 0.10507558
000370 27 94 3b be 45 2b be 3d 6e d3 d4 3d 8f e9 74 be
       -0.18318234 0.09285597 0.103918895 -0.2391722
000380 3d 74 dc bd fe d6 3b be 4c 6a 66 be e9 2b e7 3d
       -0.10764358 -0.18343732 -0.22501487 0.11287672
000390 d9 5c a6 3d 4f 0a e7 3d af 5c 4d 3d d8 17 c9 3b
       0.08123178 0.11281263 0.050137218 0.0061368756
0003a0 e0 70 2a bd 85 75 5b be f9 3e 7d bd 6a 69 df 3d
       -0.041611552 -0.21431549 -0.061827634 0.10908778
0003b0 52 5d d3 3d c1 cc 79 be 2f e0 cd 3d 95 3d c8 3d
       0.10320534 -0.24394514 0.10052525 0.09777371
0003c0 2c 95 03 be 54 48 47 bb 41 de bd 3d cd 1e cf bc
       -0.12849873 -0.00304081 0.09270907 -0.025283242
0003d0 a7 e2 d4 bc 40 f0 56 be 7b dd a4 3d 01 82 7a be
       -0.025986983 -0.20990086 0.080500565 -0.24463655
0003e0 1b ee bd bc 51 e1 9b be 89 23 52 be 54 34 1a 3d
       -0.023184827 -0.3044534 -0.20521368 0.03764756
0003f0 36 c5 63 be 83 fa 8a bd 30 b3 bd bd 7f b0 1d 3d
       -0.22243199 -0.067860626 -0.09262693 0.038498398

fc2.bias f4 [10]
000000 45 6b 85 3e 32 8c b0 3e 79 a9 0b be 41 b2 ac 3d
       0.26058403 0.3448196 -0.13638867 0.08432437
000010 1c a1 c3 be 1a d9 1d be df 77 55 be cd 86 a1 bd
       -0.38208854 -0.15414849 -0.20846508 -0.07887039
000020 5c 3c 47 3e c8 c2 9c 3d
       0.19456619 0.07654339

exp_avg f4 [10, 1, 5, 5]
000000 4b 24 8f bb 88 b6 25 bb 52 97 9a 3a 2a 0a c2 3b
       -0.00436834 -0.00252858 0.0011794365 0.005921622
000010 f4 56 08 3c f1 08 0b bb e0 24 f1 b9 ba 13 87 3b
       0.0083215125 -0.0021215046 -0.00045994576 0.0041222246
000020 9a 48 2c 3c 86 9e 62 3c 22 58 e0 bb a6 79 79 3b
       0.010515356 0.01383174 -0.0068464437 0.0038066893
000030 5d 3e 1a 3c 8a 3d cc 3b b2 4a ef 3b 60 a8 c5 ba
       0.009414283 0.006232922 0.0073026055 -0.0015080087
000040 3a e5 2b 3b f2 11 c1 3b c8 74 1b 3b 22 b2 ce 3b
       0.002622916 0.005892032 0.002372073 0.006307856
000050 2f e6 a1 3a 19 53 81 3b 42 4a 7a 3b 7c c9 06 bb
       0.0012351925 0.0039466736 0.0038191234 -0.0020566871
000060 6f d9 13 3b 1e 40 31 bb 76 b0 6f bb 1a 7a 12 bb
       0.002256002 -0.0027046273 -0.0036573685 -0.002235061
000070 43 9f 69 3b 48 0d 23 3c 8b a1 34 bb fc 64 05 bb
       0.0035647906 0.009951897 -0.0027562107 -0.002035438
000080 a1 d2 eb 3a 7c fb 58 3b 74 13 00 3c f4 56 7d bb
       0.001799185 0.003310888 0.007817138 -0.0038656564
000090 26 a7 96 ba 48 f7 d5 3b 73 e7 f6 3b 16 a3 fd 3b
       -0.0011493906 0.0065297224 0.007534915 0.0077403886
0000a0 0b 11 9a bb 56 52 55 bb 9c d2 ed 3a 24 e0 87 3b
       -0.0047017387 -0.0032550297 0.0018144432 0.0041465927
0000b0 04 fc 42 3b 57 41 b3 bb 52 93 87 bb 4c b1 df bb
       0.0029752264 -0.0054704356 -0.004137435 -0.0068265554
0000c0 30 27 d0 bb 76 1c bb ba e4 c6 8a b9 48 0e 0a 3b
       -0.0063523278 -0.001427545 -0.00026469596 0.0021065641
0000d0 ea c7 11 3c aa 32 85 3c a8 13 fe 3b bc fe 9f 3b
       0.008897761 0.01625951 0.007753808 0.0048826616
0000e0 97 0a 59 3c 42 56 83 3c fb 45 25 3c 9c 5e e6 3a
       0.013247154 0.016032342 0.010087485 0.0017575803
0000f0 3d 17 8e 3c ad 8a 98 3c e7 a1 84 3c 8d 19 a2 3b
       0.017345065 0.018620813 0.016190482 0.0049468935
000100 9a 4a 72 bb 54 75 93 3c 95 ad 5c 3c ac c5 31 3c
       -0.0036970736 0.018000282 0.01346912 0.010850351
000110 cc 35 94 3b e1 de 35 bb bc 41 51 3c 34 d6 cc 3b
       0.0045230146 -0.0027751254 0.01277202 0.006251121
000120 09 d6 b4 3b 6c a1 9a 39 2c f3 21 bc 81 95 1e bc
       0.005518679 0.00029493438 -0.009884637 -0.009679199
000130 88 7e de bb bc 6a 9a bb ca bb 14 bc 2b cc e2 bb
       -0.006789986 -0.0047124308 -0.0090779755 -0.0069213114
000140 10 e1 d3 39 28 7c 50 bb 5b b1 5f bb b0 86 9f bb
       0.0004041274 -0.0031812284 -0.0034132812 -0.004868351
000150 94 4e 2d bb d2 eb a7 ba fa 8b 7b bb 23 f6 2a ba
       -0.0026444541 -0.0012811369 -0.0038382993 -0.00065216626
000160 5a 63 87 3b 2e e7 08 3b 70 48 8f bb 33 b9 1e bb
       0.0041317167 0.0020889747 -0.004372649 -0.0024219274
000170 7b 8a 24 3b 79 63 b2 3b 10 76 5d 3b 4e 24 07 bc
       0.0025106955 0.005443987 0.0033792295 -0.008248402
000180 5a 69 80 bb 60 6b 1f bb 5b e0 ac ba 83 98 a0 bb
       -0.003918809 -0.0024325475 -0.0013189422 -0.0049009933
000190 1b 00 f7 bb c2 0f 97 ba 33 e1 c8 3b 45 23 ae 3b
       -0.0075378544 -0.0011525082 0.0061303615 0.005314263
0001a0 30 1a c1 3a f4 73 42 3b 08 79 71 b9 76 1f 97 3b
       0.0014732536 0.0029671164 -0.00023028639 0.0046119047
0001b0 b6 df 67 3b dc 98 eb 39 74 2d 96 3b 80 ea e1 3a
       0.0035381145 0.00044936582 0.004583055 0.0017236024
0001c0 73 50 59 3b ae 31 89 3b 61 4b 80 3b 0d 2e cc b9
       0.0033159524 0.0041868305 0.003915236 -0.00038944223
0001d0 30 46 d4 3a d0 fc 0f ba 35 45 0a 3b 10 30 09 3b
       0.0016195234 -0.0005492689 0.002109838 0.0020933188
0001e0 f4 b6 8e ba 64 7b bd bb 21 4f a2 bb 90 a7 95 ba
       -0.0010888265 -0.0057825316 -0.0049532806 -0.0011417735
0001f0 92 76 2f bb 21 c5 51 bc b8 b1 b5 ba 50 27 39 3b
       -0.0026773554 -0.012803347 -0.0013862168 0.0028252192
000200 f0 f6 32 3b bb 93 bc 3b a5 cf 7c bc b8 ab 24 bb
       0.002730783 0.0057549155 -0.015430366 -0.0025126766
000210 08 6a b4 3b 5c f7 3b 3b 4c dd 68 3a 5e cb 4a bc
       0.005505804 0.0028681373 0.00088830735 -0.012377588
000220 b4 37 af bb 79 39 40 3b fe 27 80 ba a2 47 e8 ba
       -0.0053472165 0.0029331131 -0.0009777544 -0.0017721544
000230 73 52 57 bc 3a de 1e bc 15 65 8c bb e4 5d 96 ba
       -0.013142216 -0.009696538 -0.004284511 -0.0011472073
000240 ca 65 04 3b 7f ec 8b bc ea 30 77 bc 96 a1 32 bc
       0.0020202273 -0.017080544 -0.015087346 -0.010902783
000250 a5 a9 92 bb ee ad b3 3a 70 ca d8 3b 1f d5 8b bb
       -0.0044757896 0.0013708451 0.0066159293 -0.0042673494
000260 4a 9e 0e bc 63 72 19 bc 2e 4f 0b bc e6 bc de 3a
       -0.008704731 -0.009365651 -0.008502765 0.0016993552
000270 6b 55 de bb 2e c4 3f bc 28 ef 45 bc c8 0f ed bb
       -0.006785085 -0.011704488 -0.012080945 -0.0072345473
000280 22 e9 e1 3b 77 66 12 bc 1a 2b 14 bc 24 48 c9 bb
       0.0068942467 -0.008935562 -0.009043479 -0.006142633
000290 2c 04 a9 ba fd 9b aa 3a f1 7e 0a bc 3e 21 11 bc
       -0.001289492 0.0013016459 -0.008453117 -0.008858023
0002a0 c3 78 2b bb 38 9e 1e 3a 87 e8 37 bc 4f b5 2a bc
       -0.002616451 0.0006050798 -0.011224872 -0.010419204
0002b0 ec 64 25 bc 09 31 2a bb 7e 2a 45 3b b8 56 63 3c
       -0.010094862 -0.0025969169 0.0030085142 0.013875656
0002c0 6e 0a 4f 3c c5 22 2b 3c 22 b0 3c 3c 68 37 7d 3b
       0.012636764 0.010445301 0.011516603 0.003863776
0002d0 34 57 2b 3c 4e d7 57 3c c1 46 24 3c 38 91 89 3b
       0.010457803 0.013173891 0.010026635 0.0041982196
0002e0 ef 24 95 bb c0 7f 6b 3c 0e 62 73 3c 13 2b 6e 3c
       -0.004551522 0.01437372 0.014854921 0.014536637
0002f0 8c 1e e0 3a 93 7b e4 bb a8 33 5c 3c 50 da 81 3c
       0.0017098947 -0.006972739 0.01344005 0.01585117
000300 db 9b 17 3c c4 fc ba b9 2b 90 ad bb 20 87 30 3c
       0.009253467 -0.0003566501 -0.005296727 0.010774404
000310 74 e8 04 3c bf d9 03 3b 60 28 c0 bb 0c 8e 04 bc
       0.008112062 0.00201188 -0.005864188 -0.008090507
000320 67 37 03 3c 2d f7 20 3c a4 94 2f 3c 4a 2a 29 3c
       0.008008814 0.009824556 0.010716591 0.010325024
000330 d2 27 c4 3b e6 aa 65 3b 46 76 98 3b 2e a4 e4 3b
       0.0059861923 0.003504449 0.004652771 0.0069775796
000340 68 44 f7 3b 00 b2 e7 3b 8d 1a 2a 3c 0e f5 e9 3b
       0.0075459965 0.00707078 0.010382307 0.0071398085
000350 d4 08 24 3c 70 d2 1f 3c 1e 74 b8 3b 38 f9 51 3c
       0.01001187 0.009754762 0.0056290766 0.012815766
000360 de 71 5c 3c 26 b8 09 3c 83 ff b9 3b a5 4f e0 b9
       0.013454882 0.008405721 0.0056762113 -0.0004278395
000370 64 5c 6a 3c ad d6 59 3c f0 1a 2d 3c 49 1a 16 3b
       0.014304254 0.013295812 0.010565504 0.002290385
000380 02 3d db 3a 42 dc 77 ba f8 ff 1d 38 28 16 a9 bb
       0.0016726556 -0.0009455123 3.7670106e-05 -0.005160112
000390 4b 01 07 bc 82 07 1d bc 08 ec 38 3b be 76 bd 3a
       -0.008240054 -0.0095843095 0.0028216857 0.0014454944
0003a0 06 49 cc bb 83 e1 1e bc 0d b9 32 bc 44 7e fc 3b
       -0.006234291 -0.009697321 -0.010908377 0.0077054817
0003b0 44 d8 a7 3b 18 3e f7 ba 46 94 af bb c2 7e af bb
       0.0051222164 -0.001886311 -0.0053582517 -0.005355687
0003c0 ea a7 21 3c 84 30 bf 3b 0e aa 52 bb 4e 26 9d bb
       0.009866694 0.005834641 -0.0032144818 -0.004795826
0003d0 a3 0f 2c bb ad 62 84 3c f6 f8 bf 3b bb cb 9f bb
       -0.0026254437 0.016160334 0.005858536 -0.0048765815
0003e0 f8 a0 9b bb a8 5f 5a 39
       -0.0047494136 0.00020825735

exp_avg_sq f4 [10, 1, 5, 5]
000000 32 73 3f 3a dd f2 27 3a 1d 54 0f 3a 67 87 09 3a
       0.0007303237 0.0006406734 0.0005467551 0.0005246312
000010 0e 93 0e 3a a8 1d 2d 3a 6b 2e 0a 3a 91 af 0e 3a
       0.0005438783 0.00066038454 0.0005271199 0.00054430316
000020 5b 3d 0b 3a 3e 67 00 3a bd be 27 3a 2e 46 cc 39
       0.0005311572 0.0004898197 0.00063989667 0.000389622
000030 50 1f 18 3a 00 af 0e 3a fc a9 00 3a 2d c7 28 3a
       0.0005803006 0.0005442947 0.0004908142 0.0006438371
000040 63 27 da 39 91 32 1b 3a 60 e3 0c 3a 3d fa 11 3a
       0.00041609546 0.0005920316 0.00053744577 0.00055685994
000050 e1 98 32 3a 87 a4 13 3a ba 2c 09 3a c4 df 07 3a
       0.0006812942 0.00056321215 0.00052328 0.0005183185
000060 27 94 24 3a d5 c7 1d 3a a4 0b 18 3a 5f 6e 13 3a
       0.000627818 0.0006018852 0.00058000744 0.00056240516
000070 b9 9c 10 3a 8c 44 1e 3a c9 1f ee 39 9c 29 07 3a
       0.00055165176 0.0006037436 0.0004541858 0.00051560416
000080 c3 2a f6 39 bc 18 f4 39 a1 3f 21 3a 1e 97 ef 39
       0.00046952636 0.00046557735 0.0006151144 0.00045698223
000090 16 e9 03 3a bc c0 c6 39 96 3d 01 3a bc b0 3e 3a
       0.0005031986 0.000379091 0.00049301365 0.000727426
0000a0 f9 7f 04 3a c7 24 ee 39 39 b7 e4 39 e2 00 2f 3a
       0.000505447 0.000454223 0.0004362406 0.0006675852
0000b0 59 67 5e 3a 95 70 07 3a 10 e5 0e 3a 9c dd 30 3a
       0.0008484028 0.00051666173 0.0005451003 0.00067468896
0000c0 a8 50 5a 3a 41 72 70 3a 84 c3 97 3a 85 bd 98 3a
       0.0008328059 0.00091722986 0.0011578654 0.0011653161
0000d0 67 0e 85 3a da 5f 82 3a d5 fd 96 3a 12 5e 8b 3a
       0.0010151387 0.0009946779 0.001151974 0.0010632894
0000e0 a9 10 8a 3a 4e 00 90 3a b6 a9 87 3a 53 cc 87 3a
       0.001053353 0.0010986419 0.001035026 0.0010360576
0000f0 da 41 ac 3a f9 6d cd 3a 45 2c 94 3a d5 9c 8c 3a
       0.0013142184 0.0015673033 0.0011304697 0.0010727892
000100 76 f1 8f 3a 05 dd aa 3a 66 ce 95 3a 28 49 a0 3a
       0.0010981995 0.001303584 0.0011429309 0.0012228834
000110 7e 87 9c 3a 2f c2 a3 3a 0b ce 92 3a ff 14 a8 3a
       0.0011942235 0.0012493784 0.0011200322 0.001282364
000120 84 54 a9 3a 9f 37 9d 3a df 4e bd 3a ca 7b 3d 3a
       0.0012918864 0.0011994726 0.0014443061 0.0007228224
000130 17 71 38 3a 3b c6 31 3a 1a 4b 28 3a d3 56 16 3a
       0.00070358947 0.0006781553 0.00064198824 0.0005734984
000140 fd 0e 37 3a 26 47 31 3a cd 14 24 3a 84 2d 0e 3a
       0.00069831294 0.0006762616 0.0006259203 0.00054236525
000150 73 7c 0b 3a a6 45 3f 3a 3e a8 33 3a 64 a2 0c 3a
       0.00053209736 0.000729645 0.0006853378 0.0005364774
000160 39 1a 0a 3a 33 58 07 3a a1 ab 45 3a 5b 5c 26 3a
       0.00052681897 0.0005162984 0.00075405283 0.00063461595
000170 f9 77 ff 39 80 60 17 3a 5f 57 fd 39 12 a1 34 3a
       0.00048726777 0.00057745725 0.00048321017 0.00068904564
000180 c1 08 12 3a a9 b3 0d 3a 3b 9a 10 3a eb 8c e2 39
       0.00055707624 0.00054054946 0.0005516146 0.0004321107
000190 8e 76 0a 3a bf cf 14 3a 47 57 16 3a d6 cf 18 3a
       0.0005281948 0.00056767085 0.0005735051 0.000582931
0001a0 05 0e 28 3a 98 52 f4 39 f8 25 06 3a d6 8d ec 39
       0.00064107805 0.00046600844 0.0005117352 0.00045119104
0001b0 57 da 0d 3a 89 c7 2f 3a 94 73 ef 39 4e 0e b7 39
       0.00054112583 0.0006705453 0.00045671745 0.00034915138
0001c0 d6 4d 03 3a 7f d3 2c 3a da 36 46 3a 29 e2 fd 39
       0.0005008852 0.00065927947 0.0007561274 0.00048424423
0001d0 c6 01 ef 39 d7 0c 2e 3a 8d aa 4a 3a 69 5b 5c 3a
       0.00045586954 0.00066394865 0.00077311025 0.0008405955
0001e0 ff 4c 18 3a 7d 3e 36 3a 9b eb 4a 3a 67 7e 56 3a
       0.0005809813 0.00069520605 0.00077407964 0.00081822876
0001f0 99 10 6a 3a 5b e5 86 3a bc ce 8c 3a 5a cb 90 3a
       0.0008928865 0.0010291742 0.0010742764 0.0011046932
000200 bd c1 81 3a 96 ca 85 3a 5b 07 82 3a 91 8f 7f 3a
       0.0009899657 0.001020747 0.0009920405 0.0009748871
000210 47 f5 63 3a fa fd 6f 3a fe 42 88 3a 03 d8 75 3a
       0.0008695912 0.0009154972 0.0010395942 0.00093781966
000220 02 0b 6c 3a 3f 2f 59 3a b4 05 7a 3a 9f 2b 8b 3a
       0.0009004326 0.0008284933 0.0009537593 0.0010617858
000230 96 a2 61 3a d2 76 63 3a 3b bc 65 3a 80 c9 7d 3a
       0.0008607296 0.00086770684 0.0008763705 0.000968121
000240 a4 ce 86 3a c3 73 5e 3a 44 9e 65 3a b9 5d 66 3a
       0.0010284972 0.0008485878 0.000875924 0.00087877695
000250 38 f6 72 3a d5 db 77 3a 68 ea 01 3b e3 7f c8 3a
       0.0009268257 0.000945506 0.0019823555 0.0015296902
000260 ed 23 c4 3a f3 05 e1 3a 34 34 09 3b 1a 19 f3 3a
       0.001496432 0.0017167911 0.0020935657 0.001854691
000270 06 2f ce 3a 35 63 cf 3a f4 e0 ea 3a 5c ae 11 3b
       0.0015730567 0.0015822413 0.0017919824 0.002222917
000280 22 2c e9 3a 1f b8 ba 3a e4 e4 c7 3a 49 91 e8 3a
       0.0017789642 0.0014245546 0.001525071 0.0017743494
000290 10 d1 10 3b ac 83 d7 3a 0f 30 c5 3a 04 9d e7 3a
       0.0022097267 0.001644244 0.001504423 0.0017670696
0002a0 41 1b f8 3a 99 fe 13 3b c8 3a d8 3a 2b 63 e8 3a
       0.0018929021 0.0022582172 0.001649701 0.001772975
0002b0 0c 76 00 3b b0 12 04 3b 5e ba 15 3b fe b4 d7 3a
       0.0019601611 0.002015274 0.002284668 0.0016457138
0002c0 4c 5f b5 3a 01 cc 93 3a d4 e0 84 3a d6 08 7d 3a
       0.0013837605 0.0011276008 0.0010137805 0.0009652501
0002d0 c7 53 ce 3a 61 b3 a4 3a b2 05 90 3a 14 11 89 3a
       0.001574152 0.0012565666 0.0010988025 0.001045736
0002e0 9d 20 80 3a 1f e6 bc 3a e0 e3 a3 3a 90 18 88 3a
       0.0009775345 0.0014411843 0.0012503825 0.0010383297
0002f0 4f c0 91 3a 87 74 a7 3a a0 fe be 3a 4e ad a1 3a
       0.0011119934 0.0012775817 0.0014571734 0.0012334974
000300 20 b0 71 3a 0a 11 86 3a 81 f7 ac 3a 53 6c be 3a
       0.0009219665 0.0010228467 0.001319632 0.0014528133
000310 30 82 90 3a fb 70 7e 3a 12 59 8f 3a c8 b0 9d 3a
       0.0011025127 0.00097061665 0.0010936579 0.0012030834
000320 a9 7a 43 3a b7 7b 5d 3a 9e 89 7f 3a 62 eb 5b 3a
       0.00074569375 0.0008448916 0.00097479846 0.0008389262
000330 19 bb 37 3a db df 3a 3a 9d 57 66 3a c1 a7 64 3a
       0.0007008776 0.0007128694 0.0008786859 0.0008722507
000340 d6 9c 1c 3a d5 7f 12 3a 69 4e 34 3a 02 54 4f 3a
       0.0005974298 0.00055885065 0.0006878139 0.00079089415
000350 d1 37 20 3a 81 8c f6 39 cf a0 08 3a d3 cf 17 3a
       0.0006111833 0.0004702546 0.00052119506 0.0005791161
000360 0e c6 21 3a 39 1a e8 39 41 17 f8 39 d7 c4 28 3a
       0.0006171175 0.00044270026 0.00047319572 0.0006438023
000370 86 7c 0a 3a 0d 43 07 3a 6e ce 10 3a 11 df 34 3a
       0.00052828377 0.00051598327 0.00055239245 0.00068996946
000380 bf d9 45 3a 56 87 b5 39 c4 c6 a2 39 63 03 9c 39
       0.00075474003 0.00034623843 0.0003104714 0.00029757162
000390 72 dd c6 39 9b 16 e6 39 b9 e5 a8 39 f3 8e 9c 39
       0.00037930493 0.0004388586 0.00032214614 0.00029861144
0003a0 92 00 88 39 5a 84 b0 39 78 ff d3 39 33 fb bc 39
       0.00025940366 0.00033667946 0.00040435395 0.00036045312
0003b0 d6 78 b2 39 e1 7b 89 39 b3 02 ac 39 b5 26 cd 39
       0.00034040835 0.00026222973 0.00032808408 0.00039129486
0003c0 5f eb d2 39 23 2d d2 39 21 df b8 39 cb 29 cc 39
       0.00040229686 0.0004008795 0.0003526146 0.0003894105
0003d0 b8 91 dc 39 7c b4 f7 39 31 52 f7 39 3e 69 ee 39
       0.0004207024 0.00047245983 0.0004717275 0.0004547331
0003e0 ca 04 f0 39 94 6f f5 39
       0.00045779935 0.00046813174

exp_avg f4 [10]
000000 42 53 11 3c 4d b7 55 bb 15 0f ce bb 52 a8 69 ba
       0.008869948 -0.0032610476 -0.006288419 -0.00089133263
000010 45 fb eb 3a 70 58 b4 3b 83 dd d4 3a 17 bb 72 bc
       0.0018003961 0.0055037066 0.0016240332 -0.0148151135
000020 a2 f2 ea 3b 87 7b 23 bb
       0.0071700374 -0.0024945454

exp_avg_sq f4 [10]
000000 3e 0c 8b 3a 20 17 7e 3a 77 d6 5a 3b 5a af 50 3a
       0.0010608507 0.0009692777 0.0033391991 0.00079607
000010 2b 77 64 3a b0 31 91 3a a4 78 43 3b 3b ec 00 3b
       0.0008715267 0.001107743 0.0029826546 0.0019672054
000020 b3 34 2a 3a a4 45 e0 39
       0.0006492838 0.00042776496
