MNIST_/checkpoint/model_epoch4.pth (torch, 268573 bytes, 24 tensors)

conv1.weight f4 [10, 1, 5, 5]
-0.012084775 0.2803371 0.4199856 0.058050804 -0.078788675 -0.119542584 0.056117237 0.2697916
0.26173908 -0.03435687 -0.36416772 0.14475285 0.465478 0.15367562 -0.13421556 -0.31012055
0.0073991464 0.3592617 0.22294028 0.050279584 -0.25982577 0.0968646 0.3112682 0.24772348
0.031309363 0.10260365 0.24453211 0.19037816 0.009945989 -0.02574093 -0.08245537 0.34540865
0.12341774 -0.08743203 -0.23657817 0.07287391 0.281456 0.21640897 -0.071179524 -0.22144797
0.21622774 0.16964267 0.030546186 -0.18941316 -0.19005601 0.16453084 0.25654182 -0.026163952
-0.26657346 -0.18314044 0.41766983 0.5148097 0.21721011 0.17301568 -0.28152853 -0.08524028
-0.20204169 -0.054124046 0.15436435 0.09660957 -0.21836795 -0.48780465 -0.073218554 -0.010301936
0.30459228 0.0028319207 -0.27075776 -0.036604542 0.19069812 -0.044310264 0.33466944 0.47305578
0.0974235 -0.19151708 0.069071166 -0.14578664 -0.07733678 0.124384314 0.11388072 -0.08405285
-0.35408044 -0.1698544 -0.22322366 0.10852694 0.18341927 -0.06368932 -0.27046466 -0.24903221
0.19569169 0.14246885 -0.3414973 -0.17373087 0.065712854 0.36544755 0.24115378 -0.13298653
0.057637244 0.3090874 0.32832786 0.33466518 0.05197665 0.09441959 0.23846024 0.020557718
0.069743626 0.2211233 0.15913597 -0.00225108 -0.06819183 -0.1728294 0.49700505 0.08292489
-0.2444089 -0.11459574 0.025868844 0.3519993 -0.043135356 -0.22417653 -0.17967518 -0.12953463
0.24094746 -0.1512416 -0.09956788 -0.022435447 -0.082249895 -0.09957144 0.07077014 0.1750074
-0.0071827667 -0.25344548 -0.1415854 0.2021365 0.12632635 -0.18856472 -0.14515804 -0.044214714
-0.012251625 -0.025605109 -0.03564962 -0.22144298 -0.026595613 -0.04810383 0.009977814 -0.034477826
-0.21245901 0.076628365 -0.11823343 0.09709128 -0.28178668 -0.099358134 0.19863097 0.2297191
0.26326847 0.30874723 0.25934857 0.36190227 0.21414723 0.3174952 0.13246737 0.33880082
0.048534133 0.16707182 -0.07884557 0.041618038 0.09456413 -0.27681565 -0.08508346 -0.2572142
-0.075383015 -0.05549619 -0.39935803 -0.495499 -0.3835461 -0.41990742 -0.100098096 0.06648274
0.35003677 0.19735773 0.032474276 -0.15071604 0.19539618 0.16265033 0.17434952 0.19229603
-0.060836382 -0.30932578 -0.11949033 0.12850164 0.38535044 0.20153081 -0.07304397 -0.1208961
-0.265363 0.019975064 0.13896857 -0.35190648 -0.03354519 -0.2579078 -0.14374991 0.018969607
-0.011469004 -0.048723094 0.22062607 0.07168384 0.09293107 -0.13623057 0.12556373 0.01689298
-0.20682025 -0.25555092 0.09773205 0.27549866 -0.11940819 -0.3659438 -0.32049802 -0.14342614
0.43513665 0.292868 -0.2516155 0.019142253 -0.13190661 0.21950667 0.46337417 0.12802899
0.2189962 -0.3996324 0.14317498 0.30079046 0.27640784 0.07211137 0.16993558 0.50064087
0.42711997 -0.044894308 -0.019272897 0.09201612 0.19931705 -0.11794464 -0.29270524 -0.320486
0.22205666 0.021175232 -0.10193397 -0.2030965 -0.06456802 0.14833784 -0.10681116 0.06672023
-0.1170297 0.17269678
00000000: 38ff 45bc 5888 8f3e 5a08 d73e aec6 6d3d
00000010: f55b a1bd bed2 f4bd 30db 653d 2022 8a3e
00000020: aa02 863e cab9 0cbd 3174 babe 173a 143e
00000030: 2253 ee3e 245d 1d3e ce6f 09be 1fc8 9ebe
00000040: 8a74 f23b 26f1 b73e 754a 643e f7f1 4d3d
00000050: e207 85be f360 c63d 8c5e 9f3e 39ab 7d3e
00000060: 3f3e 003d dd21 d23d a066 7a3e 7ef2 423e
00000070: 80f4 223c a5de d2bc 5cde a8bd 67d9 b03e
00000080: 71c2 fc3d 900f b3bd 8c41 72be eb3e 953d
00000090: 001b 903e 509a 5d3e 92c6 91bd 42c3 62be
000000a0: ce6a 5d3e cfb6 2d3e ff3b fa3c 86f5 41be
000000b0: 0b9e 42be c67a 283e 7359 833e c955 d6bc
000000c0: 517c 88be 2b89 3bbe d2d8 d53e 92ca 033f
000000d0: 546c 5e3e 062b 313e 8224 90be 7592 aebd
000000e0: 04e4 4ebe 2db1 5dbd b011 1e3e 3ddb c53d
000000f0: d99b 5fbe 88c1 f9be 9cf3 95bd 74c9 28bc
00000100: 85f3 9b3e bf97 393b c3a0 8abe a5ee 15bd
00000110: 5e46 433e ae7e 35bd cb59 ab3e 5e34 f23e
00000120: f985 c73d 0e1d 44be 2f75 8d3d 1849 15be
00000130: bf62 9ebd 34bd fe3d 4c3a e93d e723 acbd
00000140: 084a b5be 50ee 2dbe be94 64be 5f43 de3d
00000150: 43d2 3b3e 8c6f 82bd 587a 8abe 4d02 7fbe
00000160: 6763 483e 5be3 113e bcd8 aebe 81e6 31be
00000170: 7694 863d f11b bb3e 04f1 763e 9f2d 08be
00000180: 0815 6c3d b440 9e3e 971a a83e 3c59 ab3e
00000190: 78e5 543d 0f5f c13d ec2e 743e a968 a83c
000001a0: bfd5 8e3d 256e 623e 8af4 223e db86 13bb
000001b0: 28a8 8bbd 31fa 30be 7277 fe3e 86d4 a93d
000001c0: 5446 7abe 2cb1 eabd e6ea d33c 4139 b43e
000001d0: b3ae 30bd 888e 65be c5fc 37be baa4 04be
000001e0: eeba 763e 14df 1abe 3fea cbbd 8bca b7bc
000001f0: a272 a8bd 1cec cbbd efef 903d 2435 333e
00000200: 6a5d ebbb 9bc3 81be c3fb 10be dffc 4e3e
00000210: b25b 013e 1c17 41be 4fa4 14be 7d1a 35bd
00000220: 0abb 48bc cec1 d1bc 5605 12bd f3c1 62be
00000230: 0bdf d9bc 8608 45bd fc79 233c 9f38 0dbd
00000240: db8e 59be 55ef 9c3d 5e24 f2bd cbd7 c63d
00000250: 5846 90be 477c cbbd eb65 4b3e 7c3b 6b3e
00000260: 20cb 863e 1e14 9e3e 56c9 843e 414b b93e
00000270: 6949 5b3e bb8e a23e 87a5 073e 4d77 ad3e
00000280: bacb 463d e014 2b3e c979 a1bd ad77 2a3d
00000290: d7aa c13d c8ba 8dbe 3d40 aebd 94b1 83be
000002a0: 6962 9abd f94f 63bd a878 ccbe 0cb2 fdbe
000002b0: 2860 c4be 1bfe d6be 3b00 cdbd 1a28 883d
000002c0: 0538 b33e 2518 4a3e bf03 053d 4e55 1abe
000002d0: f015 483e cf8d 263e ae88 323e 40e9 443e
000002e0: 922f 79bd f35f 9ebe 59b7 f4bd ef95 033e
000002f0: a74c c53e 185e 4e3e 1498 95bd 6098 f7bd
00000300: a9dd 87be bfa2 a33c c74d 0e3e 162d b4be
00000310: ae66 09bd 7e0c 84be 2d33 13be 2666 9b3c
00000320: 7de8 3bbc de91 47bd cdeb 613e face 923d
00000330: a552 be3d 0780 0bbe c793 003e 2663 8a3c
00000340: b0c8 53be 92d7 82be be27 c83d 290e 8d3e
00000350: 488c f4bd fc5c bbbe 5118 a4be 4dde 12be
00000360: 3bca de3e cbf2 953e bfd3 80be 37d0 9c3c
00000370: 8712 07be 5bc6 603e 613f ed3e 081a 033e
00000380: 8a40 603e 9e9c ccbe 769c 123e 3501 9a3e
00000390: 5485 8d3e 20af 933d 9803 2e3e 002a 003f
000003a0: 78af da3e 18e3 37bd 32e2 9dbc f372 bc3d
000003b0: c519 4c3e f68c f1bd 76dd 95be be16 a4be
000003c0: d262 633e ae77 ad3c c2c2 d0bd 87f8 4fbe
000003d0: 3d3c 84bd e0e5 173e cfbf dabd 9ea4 883d
000003e0: 44ad efbd 6dd7 303e

conv1.bias f4 [10]
-0.05757354 -0.10711604 0.20614116 0.020541934 -0.25617394 -0.39625567 0.24716277 0.262712
-0.039739743 0.20433088
00000000: 3bd2 6bbd a85f dbbd ab16 533e 8f47 a83c
00000010: 3b29 83be 06e2 cabe 3d18 7d3e 3082 863e
00000020: 24c6 22bd 1d3c 513e

conv2.weight f4 [20, 10, 5, 5]
-0.12323392 0.13647509 0.10618993 0.03547237 0.08269684 -0.09945133 0.1710448 0.15223815
0.04319429 0.11936729 -0.10869119 0.004944058 0.114506625 -0.131977 -0.041453045 -0.122468926
-0.005021046 0.014260938 -0.14414926 -0.08448617 -0.0591653 -0.092795834 -0.014498728 -0.07374329
-0.15776803 -0.1125526 -0.008746794 0.066304505 0.09832575 -0.005215386 -0.20008786 0.071236774
0.0903853 0.050224677 0.013591777 -0.09488261 0.044294927 0.085138455 0.06463811 -0.027634438
0.044414647 0.0010528205 0.037879165 -0.05997436 0.046062905 -0.062100258 -0.0017749132 0.06708185
-0.00020645744 0.05345865 -0.14232539 -0.05545584 -0.030366728 -0.09884825 -0.07381132 -0.070120774
8.974782e-05 0.06386669 -0.19065942 -0.013479581 0.03604737 -0.089950316 -0.26149803 -0.16561955
-0.13911144 -0.09764239 -0.20423086 -0.115791015 -0.16142276 -0.10808853 -0.092257276 -0.11195917
-0.11577523 -0.026501155 -0.06844082 0.079698555 0.12770379 0.07963597 -0.10082457 -0.19580464
0.07772211 0.10303421 0.045073614 -0.11994569 -0.17897414 0.107418396 0.16482213 0.11922982
-0.0637621 -0.035458826 0.06735407 0.1049718 -0.040831406 -0.15128082 -0.09470323 0.02127832
0.058246903 0.047496445 0.03577123 -0.121568866 -0.07258672 -0.19168189 0.12098429 0.10276548
-0.005189348 -0.26249236 -0.015318271 0.085377865 0.1382699 0.0070927558 -0.20305705 0.068608455
0.13265894 0.12966855 -0.10903418 0.00015305192 0.04456712 -0.03939478 -0.06098051 -0.10056256
0.046383195 -0.055166733 -0.12870136 -0.016800506 -0.038684316 0.013247343 0.042820744 0.03194466
-0.082540035 -0.059903346 -0.02860035 0.13929443 -0.0077035683 0.055846464 -0.037649628 0.032548238
0.03862201 0.01976095 -0.026258474 -0.035784088 0.031694543 0.078706205 0.09793088 -0.05229975
-0.009725361 -0.018622834 -0.0060574347 0.0553257 0.04490245 -0.0042362665 -0.14211565 -0.08792378
-0.011960897 0.07802347 0.1132017 0.040395107 -0.03980771 -0.05848626 0.033368524 0.038609553
0.051230744 -0.0373409 0.03096899 -0.0999567 -0.003100599 -0.0532307 -0.055650186 -0.03999982
-0.05752227 -0.045199685 -0.13342151 -0.032542653 -0.04232331 -0.066343576 -0.11015856 -0.19297473
-0.19299911 -0.08286053 -0.023792027 -0.014336788 -0.02344735 -0.029379314 0.024925629 0.00040134566
0.032518145 -0.12771809 0.054975517 0.04003853 -0.033823937 -0.034392122 -0.16482796 -0.023161776
0.07134285 0.012110387 -0.044249218 -0.062367234 -0.06648861 -0.08223402 -3.0627707e-06 -0.094174
-0.21534997 -0.14845544 -0.039044622 0.091426216 -0.06275251 -0.43438303 -0.0065506655 -0.013109415
0.14213583 -0.030663356 -0.29871812 0.046686016 0.03341512 0.006193462 -0.049838673 -0.022736924
0.03019744 -0.00619417 -0.09478878 0.021604547 0.026129158 0.008844757 -0.011019021 -0.021743227
-0.04103068 -0.1796418 0.0120250415 0.006560061 -0.005126457 0.000572385 -0.06765097 0.09077383
0.14351271 0.049811546 0.008128309 -0.08474413 0.032223243 0.09451004 0.091385745 -0.04108055
-0.063283876 0.038767263 -0.022808762 -0.081274234 -0.112514764 -0.026358299 -0.13164227 -0.060900714
-0.074239485 -0.040431425 -0.06307377 -0.013140675 -0.12704691 0.15652262 0.069399886 -0.09306608
00000000: 1162 fcbd 20c0 0b3e 1b7a d93d 7a4b 113d
00000010: f65c a93d 24ad cbbd 5e26 2f3e 51e4 1b3e
00000020: 7fec 303d d676 f43d 7d99 debd c401 a23b
00000030: 7382 ea3d fb24 07be abca 29bd fdd0 fabd
00000040: 9687 a4bb b6a6 693c dd9b 13be 1607 adbd
00000050: 5057 72bd be0b bebd 138c 6dbc b906 97bd
00000060: f18d 21be fa81 e6bd b74e 0fbc a8ca 873d
00000070: 035f c93d d4e5 aabb d5e3 4cbe 96e4 913d
00000080: ee1b b93d 64b8 4d3d 0bb0 5e3c d051 c2bd
00000090: 996e 353d 125d ae3d fc60 843d 9e61 e2bc
000000a0: 22ec 353d cbfe 893a 2f27 1b3d ada7 75bd
000000b0: 75ac 3c3d d75c 7ebd 34a4 e8ba 3562 893d
000000c0: 7f7c 58b9 75f7 5a3d bfbd 11be aa25 63bd
000000d0: a5c3 f8bc f470 cabd 642a 97bd 7b9b 8fbd
000000e0: fe36 bc38 8acc 823d 393c 43be 76d9 5cbc
000000f0: 68a6 133d df37 b8bd 12e3 85be 2c98 29be
00000100: 3b73 0ebe bcf8 c7bd e521 51be d723 edbd
00000110: 024c 25be 855d ddbd 62f1 bcbd d94a e5bd
00000120: 901b edbd f318 d9bc b32a 8cbd ff38 a33d
00000130: c8c4 023e 2f18 a33d 1d7d cebd 0381 48be
00000140: c52c 9f3d 9a03 d33d 1c9f 383d 16a6 f5bd
00000150: ff44 37be 2dfe db3d 22c7 283e c42e f43d
00000160: b495 82bd 463d 11bd eef0 893d 75fb d63d
00000170: d53e 27bd 5ce9 1abe c4f3 c1bd df4f ae3c
00000180: 4e94 6e3d a28b 423d da84 123d 19f9 f8bd
00000190: 59a8 94bd 4248 44be 9dc6 f73d b576 d23d
000001a0: 680b aabb 6665 86be 7cf9 7abc 97da ae3d
000001b0: a096 0d3e 596a e83b 30ee 4fbe 9782 8c3d
000001c0: bfd7 073e d5c7 043e 504d dfbd 907c 2039
000001d0: 038c 363d 6c5c 21bd b3c6 79bd bef3 cdbd
000001e0: 4efc 3d3d 83f6 61bd 4aca 03be 37a1 89bc
000001f0: 7273 1ebd 620b 593c ce64 2f3d 67d8 023d
00000200: c00a a9bd 365d 75bd 484b eabc 33a3 0e3e
00000210: 376e fcbb 43bf 643d 7f36 1abd 4d51 053d
00000220: 1d32 1e3d b7e1 a13c 031c d7bc 5692 12bd
00000230: 23d2 013d b830 a13d fc8f c83d 4338 56bd
00000240: 1f57 1fbc ea8e 98bc 727d c6bb 349d 623d
00000250: a2eb 373d 61d0 8abb c486 11be 6211 b4bd
00000260: a3f7 43bc c5ca 9f3d 4bd6 e73d 5775 253d
00000270: 690d 23bd 4a8f 6fbd 6fad 083d 0d25 1e3d
00000280: 54d7 513d c6f2 18bd aeb2 fd3c 19b6 ccbd
00000290: 6b33 4bbb 6f08 5abd 73f1 63bd dad6 23bd
000002a0: 799c 6bbd 4e23 39bd a69f 08be 724b 05bd
000002b0: 355b 2dbd 24df 87bd d09a e1bd 2b9b 45be
000002c0: 8fa1 45be c8b2 a9bd 7fe7 c2bc d9e4 6abc
000002d0: a814 c0bc e3ac f0bc d530 cc3c b46b d239
000002e0: bf31 053d 88c8 02be 022e 613d 71ff 233d
000002f0: f88a 0abd c1de 0cbd a9c8 28be c4bd bdbc
00000300: 331c 923d a56a 463c ab3e 35bd c974 7fbd
00000310: 2e2b 88bd 4f6a a8bd 008a 4db6 4cde c0bd
00000320: b484 5cbe b404 18be 41ed 1fbd ab3d bb3d
00000330: 6384 80bd 7467 debe f7a6 d6bb dfc8 56bc
00000340: 0e8c 113e b831 fbbc 95f1 98be d639 3f3d
00000350: 4bde 083d 86f2 ca3b a323 4cbd c942 babc
00000360: 9f60 f73c 77f8 cabb 9f20 c2bd 05fc b03c
00000370: d10c d63c 9ae9 103c 2089 34bc da1e b2bc
00000380: c90f 28bd 05f4 37be ae04 453c c8f5 d63b
00000390: d7fb a7bb 1b0c 163a 978c 8abd a1e7 b93d
000003a0: fff4 123e 3107 4c3d 992c 053c 558e adbd
000003b0: 85fc 033d 7b8e c13d 7328 bb3d 1444 28bd
000003c0: fa9a 81bd 6cca 1e3d 71d9 babc 1b73 a6bd
000003d0: 246e e6bd 5ced d7bc 3bcd 06be 0773 79bd
000003e0: df0a 98bd 6c9b 25bd d22c 81bd fc4b 57bc
000003f0: 9618 02be 7747 203e 8721 8e3d 6e99 bebd

conv2.bias f4 [20]
0.01252443 -0.0002575896 0.067688435 -0.038054164 -0.015911281 -0.051642515 -0.08408057 -0.033519387
0.061370946 -0.03697887 0.032078166 -0.031080801 -0.101061575 0.033639032 0.049910706 -0.022280145
-0.05670091 -0.018645272 -0.0409202 0.010793688
00000000: 4433 4d3c 170d 87b9 3ca0 8a3d afde 1bbd
00000010: 6058 82bc 1a87 53bd 6f32 acbd a04b 09bd
00000020: 1a60 7b3d 2877 17bd 6564 033d 2a9d febc
00000030: 5ff9 cebd 15c9 093d 2b6f 4c3d da84 b6bc
00000040: 373f 68bd f8bd 98bc f19b 27bd 02d8 303c

fc1.weight f4 [50, 320]
0.09046524 0.011740712 0.036334988 0.101074696 -0.094181545 -0.02955885 -0.031470988 0.07087584
-0.089825295 -0.14122306 0.009044129 0.093026556 0.2588112 -0.025466636 -0.110642076 -0.0180639
-0.052934572 -0.024370076 0.06236056 0.015116714 0.03514293 0.042895954 0.102998555 -0.032041837
0.07830961 -0.06292415 0.11630498 0.005863037 -0.083552614 -0.006777305 -0.19403912 -0.08184408
-0.059800386 -0.053916607 0.02540831 -0.12655453 0.07568482 -0.0014113057 0.0019329963 -0.2174921
0.0625785 0.016861044 0.080207035 -0.02464064 0.08721085 0.04844352 0.022007434 0.19910507
-0.1856711 -0.13455625 -0.06931959 -0.08200884 0.12516762 0.015366218 -0.06723676 -0.19370034
0.16147712 0.086607665 0.007885946 0.060274255 0.040560775 0.0502677 -0.09576553 0.07641534
-0.09205835 -0.03598075 -0.048329026 -0.0641576 0.08921277 -0.07834497 0.013538115 -0.069812246
0.13531128 0.03639803 0.03305936 -0.0113855265 -0.03776334 0.010587478 -0.089226 -0.12042283
0.041877415 -0.020041397 -0.072880894 -0.00074134395 0.111693814 0.06496156 -0.02377462 0.03261747
-0.03888383 0.02196349 0.078358844 0.09948232 0.02411257 -0.17254184 -0.03207403 -0.07889849
-0.052133776 -0.024400108 0.06643526 0.071348995 -0.075897895 -0.041611552 0.026353285 0.13706143
0.07695606 -0.01161009 0.024328725 -0.05342869 0.0035601521 0.00948607 -0.12638089 -0.22944763
-0.025256477 0.06693688 0.067353845 -0.006350971 -0.029940804 0.03594994 -0.07431884 0.035635874
-0.0105524035 -0.122562274 0.04497892 -0.049714927 -0.18546999 -0.10460224 0.005033444 -0.060176954
-0.0807048 -0.09183693 -0.03763354 -0.11195017 -0.068747185 -0.0004677027 -0.10759195 -0.14172938
-0.047130108 0.08339373 0.044984177 0.05984157 -0.006337056 -0.06966174 0.13879332 0.21907634
-0.08463892 -0.002081293 -0.060940746 -0.0040457128 0.2866211 -0.005984991 -0.1105824 -0.16581649
0.046413463 0.066239946 0.053743474 0.0049023796 0.09927614 -0.1100108 -0.12643825 -0.24082857
0.01091551 0.052676436 0.07873914 -0.11346941 0.060412508 0.038128443 0.05985539 -0.092803895
-0.049620796 -0.061779674 -0.11686104 -0.14232993 0.00011111957 -0.011390857 -0.060185257 0.0146196615
0.036056858 0.08694679 0.06478942 0.026042452 0.0020134961 -0.0168107 0.029442133 0.12073671
0.13610227 -0.084913835 0.0028241442 0.022586208 0.020403713 -0.11596479 -0.12441232 -0.14134851
-0.059440944 0.0498477 -0.012169433 0.032743875 -0.079518214 -0.086309835 -0.06290601 0.0697786
0.104564466 -0.009643898 0.16036727 -0.039727274 -0.13360913 -0.1349921 -0.015091828 0.07453134
0.14738952 0.034009118 0.13072492 -0.06520612 -0.097116806 -0.11868316 0.054978903 -0.05391469
0.0157536 0.04645796 -0.13012439 -0.06983444 0.052716203 0.046525277 -0.01938974 -0.09687055
0.12177903 0.04940213 -0.11956024 -0.025605772 0.1422141 0.07561399 -0.0064296564 0.0778631
-0.012022916 -0.042806186 -0.012670688 -0.047536287 -0.16510072 -0.15633346 -0.13580023 0.04860499
-0.0058162054 0.049159482 -0.021968057 -0.3474126 0.04335769 0.06215175 -0.14988536 -0.106189184
-0.013441002 -0.07379063 -0.004404205 0.2565246 0.06349517 -0.08496926 -0.07148923 0.11746573
00000000: d745 b93d 1e5c 403c ffd3 143d 4000 cf3d
00000010: 41e2 c0bd 6725 f2bc b9e7 00bd 5a27 913d
00000020: 53f6 b7bd c79c 10be d42d 143c b584 be3d
00000030: e782 843e 689f d0bc 5098 e2bd befa 93bc
00000040: ecd1 58bd c1a3 c7bc c96d 7f3d 18ac 773c
00000050: 08f2 0f3d abb3 2f3d e8f0 d23d 4d3e 03bd
00000060: ca60 a03d 60de 80bd 4e31 ee3d b81e c03b
00000070: a21d abbd 2814 debb 31b2 46be de9d a7bd
00000080: 40f1 74bd a9d7 5cbd 1725 d03c 8397 01be
00000090: a500 9b3d 90fb b8ba 985c fd3a 40b6 5ebe
000000a0: 2829 803d 2c20 8a3c 9643 a43d 2bdb c9bc
000000b0: 9a9b b23d b66c 463d ef48 b43c 33e2 4b3e
000000c0: 9120 3ebe 1dc9 09be 6ef7 8dbd 40f4 a7bd
000000d0: f12b 003e 97c2 7b3c 6db3 89bd 6259 46be
000000e0: 425a 253e 5c5f b13d 0e34 013c 23e2 763d
000000f0: 0e23 263d 81e5 4d3d b820 c4bd a57f 9c3d
00000100: 1789 bcbd 8d60 13bd a8f4 45bd 0f65 83bd
00000110: 2fb5 b63d 5473 a0bd f8ce 5d3c b9f9 8ebd
00000120: 0a8f 0a3e 1a16 153d 4069 073d 5c8a 3abc
00000130: bbad 1abd 1a77 2d3c 1fbc b6bd 3fa0 f6bd
00000140: a787 2b3d db2d a4bc 9442 95bd c056 42ba
00000150: babf e43d 910a 853d fec2 c2bc e599 053d
00000160: a744 1fbd c7ec b33c 9a7a a03d 63bd cb3d
00000170: b987 c53c cfae 30be 0f60 03bd 8895 a1bd
00000180: 3a8a 55bd bce2 c7bc 360f 883d 6c1f 923d
00000190: 5b70 9bbd e070 2abd d8e2 d73c d559 0c3e
000001a0: 249b 9d3d 3f38 3ebc 094d c73c 0bd8 5abd
000001b0: 7151 693b 766b 1b3c fe69 01be 52f4 6abe
000001c0: ace6 cebc 3416 893d d0f0 893d ce1b d0bb
000001d0: 6b46 f5bc 3f40 133d 7a34 98bd ecf6 113d
000001e0: fde3 2cbc ee01 fbbd d13b 383d e1a1 4bbd
000001f0: d8eb 3dbe b339 d6bd 97ef a43b 1c7c 76bd
00000200: 8f48 a5bd 0015 bcbd a025 1abd 2146 e5bd
00000210: 53cb 8cbd fe35 f5b9 2b59 dcbd 8221 11be
00000220: 800b 41bd 55ca aa3d 5441 383d 6f1c 753d
00000230: 14a7 cfbb d0aa 8ebd d61f 0e3e 8c55 603e
00000240: 2c57 adbd 4d66 08bb 019d 79bd e691 84bb
00000250: 00c0 923e be1d c4bb 0679 e2bd cccb 29be
00000260: 0b1c 3e3d cfa8 873d 1e22 5c3d 24a4 a03b
00000270: 4a51 cb3d 584d e1bd 0779 01be c49b 76be
00000280: f8d6 323c 3fc3 573d fc41 a13d a662 e8bd
00000290: 1b73 773d 922c 1c3d ed2a 753d f80f bebd
000002a0: 2d3f 4bbd af0c 7dbd d754 efbd f0be 11be
000002b0: dd08 e938 b8a0 3abc d184 76bd 4e87 6f3c
000002c0: 5bb0 133d 2911 b23d 51b0 843d fb56 d53c
000002d0: dcf4 033b 98b6 89bc a130 f13c cf44 f73d
000002e0: 655e 0b3e 4ee7 adbd 4715 393b b606 b93c
000002f0: b025 a73c f37e edbd e3cb febd aabd 10be
00000300: 5978 73bd 1a2d 4c3d 4d62 47bc 711e 063d
00000310: 72da a2bd 36c3 b0bd ded4 80bd 15e8 8e3d
00000320: e525 d63d 7101 1ebc 5137 243e 11b9 22bd
00000330: d5d0 08be 5e3b 0abe b743 77bc e3a3 983d
00000340: 47ed 163e 254d 0b3d c1dc 053e c98a 85bd
00000350: 2de5 c6bd 2810 f3bd 8f31 613d a6d5 5cbd
00000360: b20d 813c b44a 3e3d 543f 05be 5c05 8fbd
00000370: f2ec 573d 4a91 3e3d 3bd7 9ebc 1164 c6bd
00000380: 4967 f93d e359 4a3d 00dc f4bd 32c3 d1bc
00000390: 93a0 113e 82db 9a3d deaf d2bb b076 9f3d
000003a0: c4fb 44bc 8a55 2fbd b898 4fbc 69b5 42bd
000003b0: 2a10 29be e115 20be 370f 0bbe 0716 473d
000003c0: de95 bebb 745b 493d 5bf6 b3bc 10e0 b1be
000003d0: d597 313d d592 7e3d 8c7b 19be b779 d9bd
000003e0: a637 5cbc 8b1f 97bd 2651 90bb 3157 833e
000003f0: c109 823d 5d04 aebd f268 92bd df91 f03d

fc1.bias f4 [50]
-0.040889204 0.044454433 0.11828884 0.1886761 0.120911844 0.16704969 0.09846319 0.1328269
0.109166875 0.020486113 -0.075441904 0.03330058 0.08882595 0.016307954 0.08862065 0.13666004
0.0798763 0.046579316 -0.07813097 0.06918865 0.1789978 -0.0049838894 0.11500307 0.1000951
0.10487824 0.12639745 0.05578154 0.14426324 0.08234877 0.07908563 0.058142435 0.05365475
0.13819052 0.021836622 0.033806976 0.040221635 0.0428374 0.19358185 0.002168496 0.016075462
0.03618041 0.17161569 0.057817873 -0.016952232 0.06977219 0.1270529 0.07872074 0.12361194
0.1551737 0.08131935
00000000: 707b 27bd da15 363d 6b41 f23d 4f34 413e
00000010: a1a0 f73d 130f 2b3e 12a7 c93d c603 083e
00000020: e292 df3d 7ed2 a73c 4981 9abd 3066 083d
00000030: 61ea b53d 4298 853c be7e b53d 9cf0 0b3e
00000040: 3096 a33d f4c9 3e3d 2103 a0bd c7b2 8d3d
00000050: 334b 373e e54f a3bb bb86 eb3d a9fe cc3d
00000060: 67ca d63d 556e 013e 2f7b 643d beb9 133e
00000070: 79a6 a83d a6f7 a13d c326 6e3d 15c5 5b3d
00000080: d181 0d3e b7e2 b23c 2f79 0a3d 71bf 243d
00000090: 4576 2f3d 523a 463e 531d 0e3b b0b0 833c
000000a0: e931 143d 06bc 2f3e 6fd2 6c3d 68df 8abc
000000b0: b9e4 8e3d 281a 023e 5738 a13d 4228 fd3d
000000c0: dbe5 1e3e c28a a63d

fc2.weight f4 [10, 50]
-0.09394192 0.09257446 -0.35968956 -0.19596677 -0.14796866 0.1437342 0.12983847 -0.19566213
-0.20906414 0.008275716 -0.045031004 0.13947138 -0.080061495 -0.28617728 -0.1666462 -0.20458959
-0.009887271 0.12358667 -0.14034733 0.11609134 -0.008851387 -0.16214478 0.06386709 0.056378473
0.12696378 -0.11052102 -0.10030618 0.14408898 -0.31298602 -0.3436668 0.167859 0.17719044
-0.34173185 0.19816345 0.12366859 0.10665142 -0.16466701 0.11615505 -0.06905668 -0.07926547
0.16960156 -0.3049887 0.11831514 0.09231476 -0.26334512 -0.1773191 -0.121093914 0.08984135
-0.07867079 -0.11375655 0.036781844 0.13051093 0.12321954 0.13587777 0.11579637 0.1265892
0.116226174 0.06864102 -0.18497816 0.15132828 -0.29197213 -0.33043382 -0.23620822 -0.13205832
0.09155676 0.15699834 -0.07446126 -0.12595916 -0.29616705 -0.21790278 0.17234094 -0.26125407
-0.030298436 -0.100336425 -0.33250797 0.12148853 -0.13971856 -0.19589151 0.114418074 0.13883969
-0.04972291 -0.07825704 -0.25782642 -0.19607273 0.05018893 -0.1950321 0.053692903 0.1375299
-0.29419258 -0.24681905 -0.2868718 0.06784093 0.090750135 -0.37751076 0.15503621 -0.0108112395
0.115565926 -0.27080384 0.1454537 -0.10923301 0.18285775 -0.083294265 -0.07674225 0.15736897
-0.06194843 0.10153861 0.07057583 -0.04087709 -0.12696019 -0.034132287 -0.093031704 -0.19510067
-0.14775997 -0.04010635 0.07831678 -0.110913314 0.15124422 0.13741305 -0.06113504 0.07721085
0.17141357 0.084611885 -0.0834146 0.09631058 -0.23419166 -0.15044187 0.15298517 -0.2781961
-0.19900426 0.12031874 0.19042139 0.1260012 0.026644096 -0.111719966 0.030997977 0.090906635
-0.28455764 -0.16235004 -0.25396323 -0.019219162 0.035374697 -0.1791109 -0.039944164 0.064306416
0.14226483 0.10281979 0.018424897 -0.13647588 0.15045245 0.13253026 -0.08425248 -0.12393307
-0.13850941 -0.015674755 -0.1631311 -0.05881097 0.1163731 -0.33271158 0.1439865 -0.21103191
-0.12916175 -0.202083 0.20088378 0.1391317 0.07900193 0.17218862 -0.06302749 0.14417014
-0.15246573 0.107632264 0.13718385 -0.07126674 -0.02027986 0.094283566 0.06189044 0.17480211
0.06224736 -0.16582054 -0.04955291 0.14091052 -0.07885041 0.110046536 0.2085857 -0.06257814
-0.23909312 0.07486629 0.009640326 0.093351685 -0.07010354 -0.22434497 -0.16060153 0.13810216
-0.30727246 -0.17888232 -0.09611577 0.12827158 -0.1804134 -0.21071172 -0.17197378 0.1359718
0.17671262 0.13500334 0.11489652 -0.07900376 0.14359634 -0.11478002 -0.27425584 0.04888128
-0.03967335 0.13027485 0.14684649 0.010479373 -0.15104017 0.1260231 0.06803089 -0.13724631
-0.12626977 -0.4207923 0.16977347 0.10791049 -0.14629006 0.087345526 0.091378756 -0.24128178
-0.06773109 -0.17219618 -0.21153183 0.089206114 0.0854242 0.087338366 0.021786636 -0.048633683
-0.020366022 -0.22602977 -0.078284584 0.091528326 0.06921463 -0.1900812 0.09308498 0.08143632
-0.10019907 0.030183764 0.088002294 -0.027830608 -0.048549987 -0.23577608 0.11287379 -0.20993131
-0.04232579 -0.22182925 -0.17704313 0.06603319 -0.1743364 -0.09772576 -0.05005514 0.024226304
00000000: 9f64 c0bd ae97 bd3d 3b29 b8be 83ab 48be
00000010: 1985 17be 0f2f 133e 60f4 043e a75b 48be
00000020: e914 56be de96 073c 6e72 38bd 96d1 0e3e
00000030: 48f7 a3bd d485 92be 4da5 2abe ef7f 51be
00000040: 38fe 21bc 021b fd3d 36b7 0fbe 4cc1 ed3d
00000050: 6805 11bc 4809 26be c0cc 823d 1ded 663d
00000060: cb02 023e d858 e2bd 546d cdbd 108c 133e
00000070: b43f a0be 18f5 afbe 3be3 2b3e 6971 353e
00000080: 7af7 aebe 5ceb 4a3e f545 fd3d 0f6c da3d
00000090: 789e 28be b3e2 ed3d 976d 8dbd ef55 a2bd
000000a0: 08ac 2d3e 7b27 9cbe 354f f23d 850f bd3d
000000b0: 2cd5 86be 2393 35be 1600 f8bd befe b73d
000000c0: 271e a1bd 32f9 e8bd 8fa8 163d a8a4 053e
000000d0: 875a fc3d 8b23 0b3e a626 ed3d 99a0 013e
000000e0: fd07 ee3d aa93 8c3d ea6a 3dbe cdf5 1a3e
000000f0: 5f7d 95be 9f2e a9be 91e0 71be 4c3a 07be
00000100: 1c82 bb3d 2cc4 203e 257f 98bd 70fb 00be
00000110: 35a3 97be e821 5fbe 257a 303e 18c3 85be
00000120: 6d34 f8bc 2f7d cdbd 7c3e aabe face f83d
00000130: 6212 0fbe c997 48be 0654 ea3d fe2b 0e3e
00000140: 40aa 4bbd 3a45 a0bd d301 84be 4ac7 48be
00000150: e892 4d3d 7fb6 47be 17ed 5b3d a3d4 0c3e
00000160: 69a0 96be 22be 7cbe dce0 92be 2ff0 8a3d
00000170: 35db b93d 1749 c1be d0c1 1e3e a021 31bc
00000180: d4ad ec3d cda6 8abe d1f1 143e 8eb5 dfbd
00000190: 103f 3b3e 2f96 aabd 0a2b 9dbd 5525 213e
000001a0: a3bd 7dbd 7af3 cf3d 108a 903d bc6e 27bd
000001b0: da01 02be 4cce 0bbd 6887 bebd 78c8 47be
000001c0: 644e 17be 8e46 24bd 8c64 a03d 8526 e3bd
000001d0: c4df 1a3e 02b6 0c3e bc68 7abd b920 9e3d
000001e0: 0a87 2f3e ff48 ad3d 46d5 aabd 7b3e c53d
000001f0: f0cf 6fbe 6f0d 1abe 25a8 1c3e b86f 8ebe
00000200: c6c7 4bbe ac69 f63d d3fd 423e 7506 013e
00000210: b844 da3c 70cd e4bd 78ef fd3c 422d ba3d
00000220: 8ab1 91be 173f 26be 7807 82be 8171 9dbc
00000230: 0fe5 103d d968 37be 7e9c 23bd 15b3 833d
00000240: dfad 113e 2f93 d23d cfef 963c 55c0 0bbe
00000250: 3510 1a3e 03b6 073e 908c acbd 9fd0 fdbd
00000260: 69d5 0dbe 5868 80bc d70b 27be c6e3 70bd
00000270: 0555 ee3d 2c59 aabe 3271 133e c018 58be
00000280: fa42 04be d9ee 4ebe 7ab4 4d3e 8a78 0e3e
00000290: c4cb a13d 3752 303e 8f14 81bd 56a1 133e
000002a0: fa1f 1cbe 4e6e dc3d ec79 0c3e 4cf4 91bd
000002b0: f321 a6bc be17 c13d d480 7d3d 53ff 323e
000002c0: 16f7 7e3d dccc 29be fef7 4abd d94a 103e
000002d0: 537c a1bd 1460 e13d 7d97 553e f828 80bd
000002e0: d4d4 74be 7f53 993d 75f2 1d3c 2b2f bf3d
000002f0: 7292 8fbd b0ba 65be ba74 24be a76a 0d3e
00000300: d152 9dbe ed2c 37be 58d8 c4bd a059 033e
00000310: 4abe 38be d0c4 57be e519 30be 313c 0b3e
00000320: 27f4 343e 513e 0a3e de4e eb3d b9cc a1bd
00000330: eb0a 133e ca11 ebbd 436b 8cbe bd37 483d
00000340: 8680 22bd c566 053e ed5e 163e adb1 2b3c
00000350: 46aa 1abe 330c 013e c753 8b3d 4c8a 0cbe
00000360: dd4c 01be 1772 d7be 19d9 2d3e 2d00 dd3d
00000370: 10cd 15be 36e2 b23d c924 bb3d 9212 77be
00000380: 99b6 8abd 3254 30be cd9b 58be b2b1 b63d
00000390: e2f2 ae3d 75de b23d e379 b23c 1d34 47bd
000003a0: a5d6 a6bc 5974 67be ab53 a0bd 3473 bb3d
000003b0: 66c0 8d3d a5a4 42be 57a3 be3d 16c8 a63d
000003c0: 2c35 cdbd f143 f73c 8c3a b43d 04fd e3bc
000003d0: 5adc 46bd 496f 71be 602a e73d 3cf8 56be
000003e0: cf5d 2dbd 3527 63be cb4a 35be 693c 873d
000003f0: 3e85 32be 7124 c8bd 9e06 4dbd 3e76 c63c

fc2.bias f4 [10]
0.084041096 0.18311574 -0.14792712 0.11053079 -0.29651305 -0.13213302 -0.12035791 -0.08165213
0.21921991 0.12183791
00000000: bd1d ac3d b182 3b3e 357a 17be f85d e23d
00000010: 8fd0 97be e14d 07be 357e f6bd 3b39 a7bd
00000020: 2f7b 603e 2786 f93d

exp_avg f4 [10, 1, 5, 5]
0.001655764 -0.0014228092 -0.0074924272 -0.00531496 0.0013675442 0.005166178 0.0015096017 -0.0074810274
-0.004670401 0.0039141346 0.00527206 0.0020847782 -0.004825518 -0.0044949674 0.0048024915 -0.0029924947
-0.0058003557 -0.008360509 -0.0019452188 0.009383588 -0.006376444 -0.007998879 -0.008587816 -0.002232626
0.008605812 0.005204586 0.0057718614 0.00042496837 -0.0026721773 -0.0021845223 0.0019191825 0.0022880465
-0.0005612007 -0.004175163 -0.0018091745 -2.75114e-05 0.0003109977 -0.00070190534 -0.0028974873 -0.0023538868
0.00023761041 -0.00016761874 -0.00023972103 -0.002599683 -0.0023260228 -0.00045223854 0.0012969179 0.0003405535
-0.00090980914 0.002180334 -0.0115057705 -0.0021138547 0.0014934898 0.00093541434 -0.010585716 -0.008675441
-0.0077205957 -0.0019377647 -0.0003260235 -0.0071947826 -0.007982134 -0.01149236 -0.0050122826 -0.001330897
-0.007178908 -0.008125204 -0.011400508 -0.0011656404 -2.685329e-05 -0.0108706765 -0.0055614873 -0.0050332714
-0.00016250648 -0.004145047 -0.015027281 0.005947831 0.0056314147 0.004051538 0.0039981566 0.0036735963
0.0039790035 0.0021660428 0.001572422 0.0002571975 -0.0022034147 0.0048309676 0.0026102045 0.00076371775
-0.0027776451 -0.006285088 0.0022073605 0.0009522232 -0.002751865 -0.0053224447 -0.003752463 0.00071943447
-0.003490727 -0.005159322 -0.0053675165 -0.0029804497 0.0007275357 0.0005217497 0.00084664975 0.0017940468
-0.00045152818 -0.0036781486 -0.0023844265 0.0012736279 -0.000381832 -0.0017560509 -0.005194827 -0.0037030634
-0.0026549413 -0.0018512164 -0.0016026774 0.0023521008 -0.0005311782 -0.0012583892 -0.0005281091 -0.0013830059
0.006236065 0.0010308163 -0.0011901048 0.0024871265 0.0009467055 0.007573205 0.008863995 0.0022512982
-0.0031358239 -0.0030868782 0.0071689254 0.007744669 0.0027611738 -0.0020928462 -0.0010316311 0.00314434
0.004867559 0.0019347707 0.0005879184 0.0005667508 0.003328122 0.0045764614 0.0017705383 -0.00028930802
-0.0014962964 0.0007888188 0.0023794312 -0.00040646945 -0.0034893134 -0.0036286616 -0.007427291 -0.004949143
-0.0054112906 -0.006669241 -0.0056036734 -0.0009943898 -0.0023554768 -0.005401927 -0.0071415324 -0.0048776246
0.0076181684 0.0025131102 2.5803456e-05 -0.00016242638 -0.0002063904 0.0060177464 0.0028603196 0.0023163497
0.0015663481 -0.0024642495 -0.0027756072 -0.0025897264 -0.0040469687 -0.0041277967 -0.004806039 -0.007821215
-0.0088667115 -0.011604432 -0.008599743 -0.008124509 -0.008268037 -0.010924548 -0.012761764 -0.006648466
-0.004361825 -0.009655104 -0.010764969 -0.00887609 -0.002627891 0.00039367372 -0.010219838 -0.010697423
-0.0076981196 -0.0005120002 -0.0007919863 -0.012950057 -0.0148795955 -0.0097784735 -0.0014427551 -0.00517032
-0.003169683 -0.0041462188 -0.0030698953 0.0020083606 0.00012169697 -0.0004127595 -0.004080709 -0.003491669
-0.00038440083 -0.00220228 0.003124929 -0.00086017733 3.2018987e-05 -0.0003458819 -0.0034226947 0.0015910218
0.0002455298 0.0031414786 0.0046029245 -0.00078242226 -0.001610051 0.00040502485 0.005652259 0.013114281
0.009208125 0.00038278825 0.0003458943 -0.0034728204 -0.001306248 0.001531522 0.001945192 0.00027013477
0.0015828481 0.0010644372 -0.0012535483 0.005660558 0.0060131364 0.0020671557 -0.0027286105 -0.005776465
0.007774463 0.0054021813 -0.0024521123 -0.004632518 -0.0046627377 0.0054798815 -0.0005953829 -0.005190313
-0.004087927 -0.002099402
00000000: 3806 d93a 8e7d baba 0983 f5bb 1e29 aebb
00000010: 2b3f b33a 0b49 a93b d4dd c53a 6823 f5bb
00000020: 2a0a 99bb 2442 803b 3fc1 ac3b c6a0 083b
00000030: 611f 9ebb 854a 93bb 385e 9d3b bb1d 44bb
00000040: e910 bebb 84fa 08bc b6f6 feba 9fbd 193c
00000050: 7df1 d0bb bb0d 03bc e9b3 0cbc 4051 12bb
00000060: 64ff 0c3c 3b8b aa3b e221 bd3b 4ace de39
00000070: b21f 2fbb 342a 0fbb 148d fb3a 0df3 153b
00000080: 8b1d 13ba cecf 88bb d321 edba 48c8 e6b7
00000090: 680d a339 1200 38ba c5e3 3dbb ab43 1abb
000000a0: 0f27 7939 d0c2 2fb9 a05d 7bb9 715f 2abb
000000b0: 3070 18bb 6e1a edb9 58fd a93a 518c b239
000000c0: 4280 6eba efe3 0e3b b382 3cbc 9988 0abb
000000d0: 34c1 c33a 9836 753a b66f 2dbc 7023 0ebc
000000e0: 0dfd fcbb 98fc fdba 22ee aab9 36c2 ebbb
000000f0: 7fc7 02bc 744a 3cbc 133e a4bb 7e71 aeba
00000100: 0c3d ebbb 931f 05bc 32c9 3abc 67c8 98ba
00000110: 0043 e1b7 ec1a 32bc 233d b6bb 24ee a4bb
00000120: 8066 2ab9 2dd3 87bb fc34 76bc 06e6 c23b
00000130: bb87 b83b c4c2 843b f802 833b b8c0 703b
00000140: 4d62 823b 2bf4 0d3b ba19 ce3a 77d8 8639
00000150: 2a67 10bb 184d 9e3b f70f 2b3b 3b34 483a
00000160: 2709 36bb 24f3 cdbb 5da9 103b 9e9e 793a
00000170: a258 34bb e767 aebb e2eb 75bb 6e98 3c3a
00000180: aec4 64bb 880f a9bb fee1 afbb a653 43bb
00000190: 18b8 3e3a 08c6 083a b4f1 5d3a 3926 eb3a
000001a0: 16bb ecb9 180d 71bb 0a44 1cbb dcef a63a
000001b0: a030 c8b9 4a2b e6ba 5e39 aabb 18af 72bb
000001c0: 86fe 2dbb 84a4 f2ba ee10 d2ba b425 1a3b
000001d0: c43e 0bba 89f0 a4ba cd70 0aba fa45 b5ba
000001e0: e857 cc3b 751c 873a 4afd 9bba 0fff 223b
000001f0: 552c 783a a628 f83b 4a3a 113c 848a 133b
00000200: 6582 4dbb 394d 4abb 4ee9 ea3b fec6 fd3b
00000210: cff4 343b 2228 09bb cc37 87ba 4511 4e3b
00000220: 0b80 9f3b 2298 fd3a 891e 1a3a 0192 143a
00000230: 9f1c 5a3b 24f6 953b 6811 e83a 44ae 97b9
00000240: 601f c4ba bcc8 4e3a 3bf0 1b3b 681b d5b9
00000250: f7ac 64bb d7ce 6dbb a260 f3bb 6c2c a2bb
00000260: 3251 b1bb a689 dabb 059f b7bb 2f56 82ba
00000270: 585e 1abb a602 b1bb 8403 eabb 7bd4 9fbb
00000280: d4a1 f93b feb2 243b 8074 d837 0051 2ab9
00000290: 806a 58b9 8430 c53b 3374 3b3b e6cd 173b
000002a0: ec4d cd3a 3f7f 21bb f6e6 35bb 66b8 29bb
000002b0: 6f9c 84bb 7842 87bb fa7b 9dbb 8e24 00bc
000002c0: af45 11bc 8420 3ebc f0e5 0cbc a91c 05bc
000002d0: a976 07bc e0fc 32bc b816 51bc 60db d9bb
000002e0: a4ed 8ebb 7130 1ebc 8d5f 30bc 056d 11bc
000002f0: b238 2cbb fe65 ce39 1b71 27bc 3e44 2fbc
00000300: 8240 fcbb c037 06ba 4d9d 4fba 7a2c 54bc
00000310: 8cc9 73bc e435 20bc d41a bdba ca6b a9bb
00000320: 75ba 4fbb 01dd 87bb 4c30 49bb b39e 033b
00000330: 9037 ff38 a467 d8b9 78b7 85bb 7cd4 64bb
00000340: 6889 c9b9 2154 10bb 9ccb 4c3b 867d 61ba
00000350: 204c 0638 7c57 b5b9 4a4f 60bb d589 d03a
00000360: 74ba 8039 44e1 4d3b 21d4 963b 781b 4dba
00000370: 5908 d3ba 8459 d439 9636 b93b 48dd 563c
00000380: addd 163c f8b0 c839 2659 b539 4298 63bb
00000390: 6936 abba 5abd c83a d0f5 fe3a e0a0 8d39
000003a0: 9277 cf3a 9684 8b3a 1a4e a4ba 347c b93b
000003b0: d809 c53b 1e79 073b 7dd2 32bb 8048 bdbb
000003c0: ecc0 fe3b c804 b13b 9eb3 20bb 61cc 97bb
000003d0: e1c9 98bb 9490 b33b 7813 1cba 8013 aabb
000003e0: 04f4 85bb 1f96 09bb

exp_avg_sq f4 [10, 1, 5, 5]
0.0005896565 0.0004774755 0.00042951643 0.00041856564 0.00044763673 0.0005251761 0.0003752037 0.0004140641
0.00040990612 0.00039244274 0.0005186981 0.00028664936 0.00045877535 0.000417417 0.00037448673 0.000498978
0.00031030513 0.0004953686 0.00042876072 0.000410653 0.0005093659 0.00043487153 0.00043284343 0.00041009398
0.00048173426 0.0005013832 0.00049982383 0.0004557123 0.00043311517 0.00047369898 0.0003508463 0.00039415955
0.00039213427 0.00037425145 0.0005049166 0.00031963363 0.00036757934 0.00030168061 0.00040831993 0.0005835815
0.000352539 0.00034186937 0.00035745485 0.00054407347 0.00065251754 0.00038010057 0.00042358594 0.0005537287
0.00064912473 0.00069026335 0.00084206916 0.00081183325 0.0007486824 0.0007774971 0.0007817854 0.00076407613
0.0006999774 0.00081843283 0.000787334 0.0006953564 0.00087373244 0.0010417526 0.000790721 0.00073070015
0.00069372455 0.0008527208 0.00080165983 0.00089399633 0.00074817793 0.0007193879 0.0008596915 0.0010025038
0.0009834461 0.00075537554 0.00081541453 0.0005205578 0.00051609764 0.00054677593 0.0005646586 0.00051056274
0.00050500274 0.00049942697 0.00050511793 0.0004949789 0.00045653788 0.0005185418 0.0005095132 0.00044397917
0.00047525144 0.00042526043 0.00052115665 0.00048409446 0.00043517168 0.00049999764 0.00038072193 0.000494039
0.00046123978 0.0004831013 0.00047801895 0.0003695704 0.00043465223 0.00047368286 0.00048608572 0.00046024323
0.0005247338 0.00039737526 0.00044708292 0.000376583 0.00044890592 0.0005858068 0.00039963858 0.00029625976
0.00041590934 0.00060249574 0.00067522627 0.00039629423 0.00038208655 0.0005792962 0.0007001498 0.00074679975
0.00049756194 0.0006131022 0.000700609 0.0007426908 0.0008058708 0.00051532796 0.0005580639 0.0005740863
0.0005299096 0.00054433115 0.0005348059 0.0005471028 0.0004875223 0.0004798152 0.00052867905 0.000540261
0.0004941127 0.00045208016 0.0004900435 0.0005276912 0.000512841 0.000475276 0.00046414498 0.0005084286
0.00051422295 0.00050625124 0.00048062325 0.00045788716 0.0004770575 0.0004654639 0.0015025259 0.0013708207
0.0014543181 0.001616959 0.0017982193 0.0015787774 0.001535802 0.0015748122 0.0016944603 0.0019542621
0.0016502722 0.0014228965 0.0015157211 0.0017332474 0.0019920173 0.0015426093 0.0014845489 0.0017619123
0.0018726732 0.0020444195 0.0015806452 0.0017511466 0.001990685 0.0020398654 0.0021382724 0.0012401652
0.001109573 0.0010186611 0.0009831921 0.00095957116 0.0012723872 0.0011406869 0.0010700666 0.0010315856
0.0009401128 0.0012215832 0.0011353217 0.0010730843 0.0010495627 0.0010513919 0.0012414658 0.0011735228
0.0010461573 0.0010007988 0.0011615658 0.0012769488 0.0011767177 0.001037838 0.0010885965 0.0012104124
0.00044956896 0.0005014207 0.00057744194 0.00050881074 0.00045910288 0.00043073818 0.00052141 0.0005237173
0.00038407955 0.00039706426 0.00043583842 0.00047645209 0.000405898 0.0003476414 0.0004008083 0.00038532604
0.0003801435 0.00032393556 0.0004014967 0.00053429365 0.00037282976 0.00035646054 0.00044237403 0.00057858205
0.0006095928 0.00026215977 0.00021865404 0.00020967994 0.0002674161 0.00029634408 0.00024108384 0.00019237
0.00017714188 0.0002424838 0.0002914728 0.00024680432 0.00020730622 0.00018028743 0.0002504318 0.0003090057
0.0002545708 0.0002610494 0.0002480819 0.00028701115 0.00031886806 0.00029657537 0.0003215957 0.0003292052
0.0003503993 0.0003676811
00000000: 2e93 1a3a ad55 fa39 b830 e139 ee72 db39
00000010: c9b0 ea39 f9ab 093a fdb6 c439 be16 d939
00000020: abe8 d639 c6c0 cd39 3ef9 073a 6d49 9639
00000030: c987 f039 c3d8 da39 c256 c439 d9cd 023a
00000040: 73b0 a239 a0db 013a 4acb e039 ea4c d739
00000050: f886 053a 78ff e339 43ef e239 e201 d739
00000060: 4791 fc39 426f 033a 9c06 033a abec ee39
00000070: bc13 e339 cd5a f839 cbf1 b739 33a7 ce39
00000080: 5f97 cd39 2e37 c439 615c 043a 8094 a739
00000090: aab7 c039 e32a 9e39 c613 d639 7efb 183a
000000a0: fcd4 b839 ee3c b339 c768 bb39 27a0 0e3a
000000b0: b60d 2b3a 3c48 c739 be14 de39 1b28 113a
000000c0: 062a 2a3a caf2 343a 4ebe 5c3a 35d1 543a
000000d0: 3a43 443a f2d0 4b3a bbf0 4c3a 484c 483a
000000e0: b07e 373a 198c 563a 1765 4e3a 9448 363a
000000f0: 310b 653a 6b8b 883a 6348 4f3a 758c 3f3a
00000100: 11db 353a 2089 5f3a 7b26 523a 145b 6a3a
00000110: 5f21 443a 4e95 3c3a ec5c 613a 7266 833a
00000120: fae6 803a 6504 463a 8bc1 553a 0b76 083a
00000130: ba4a 073a 8355 0f3a 9905 143a 49d7 053a
00000140: 2962 043a faeb 023a e469 043a 79c1 013a
00000150: 7a5b ef39 c0ee 073a da90 053a e0c5 e839
00000160: 2b2b f939 7df5 de39 3b9e 083a 0fce fd39
00000170: c127 e439 4612 033a a29b c739 6582 013a
00000180: 8ed2 f139 c248 fd39 9e9e fa39 e6c2 c139
00000190: 09e2 e339 a358 f839 52d9 fe39 cd4c f139
000001a0: 4a8e 093a ce56 d039 7466 ea39 1d70 c539
000001b0: 225b eb39 d490 193a 9586 d139 5053 9b39
000001c0: 680e da39 cef0 1d3a ab01 313a b6c5 cf39
000001d0: ca52 c839 e9db 173a 428a 373a e2c4 433a
000001e0: d16e 023a 98b8 203a 13a9 373a 23b1 423a
000001f0: 1341 533a 1317 073a 094b 123a 487e 163a
00000200: a2e9 0a3a 72b1 0e3a 3732 0c3a 736b 0f3a
00000210: 239a ff39 b58f fb39 0d97 0a3a 4da0 0d3a
00000220: 5887 013a 2c05 ed39 4376 003a c254 0a3a
00000230: 2d70 063a 772e f939 7c58 f339 1148 053a
00000240: ebcc 063a f2b5 043a 29fc fb39 9310 f039
00000250: 931d fa39 8209 f439 67f0 c43a 1cad b33a
00000260: d19e be3a 24f0 d33a 3ab2 eb3a fbee ce3a
00000270: f74c c93a ee69 ce3a a718 de3a 1413 003b
00000280: f24d d83a 7c80 ba3a 29ab c63a 222e e33a
00000290: 818c 023b 6131 ca3a 3295 c23a f7ef e63a
000002a0: 7c74 f53a abfb 053b a72d cf3a bb86 e53a
000002b0: 2776 023b 43af 053b 4222 0c3b 0a8d a23a
000002c0: 176f 913a 9884 853a 74de 803a bb8b 7b3a
000002d0: 3bc6 a63a 1a83 953a 7a41 8c3a 4536 873a
000002e0: e771 763a 881d a03a 13cf 943a bca6 8c3a
000002f0: 7b91 893a dcce 893a aeb8 a23a e4d0 993a
00000300: 371f 893a 3c2d 833a ae3f 983a 4b5f a73a
00000310: 183c 9a3a 1108 883a 3daf 8e3a b3a6 9e3a
00000320: 20b4 eb39 c671 033a 795f 173a b661 053a
00000330: bfb3 f039 b3d4 e139 3caf 083a 134a 093a
00000340: 495e c939 102d d039 3e81 e439 51cc f939
00000350: b5ce d439 a443 b639 9423 d239 9605 ca39
00000360: ff4d c739 e5d5 a939 fa7f d239 d70f 0c3a
00000370: 5d78 c339 53e3 ba39 70ee e739 fcab 173a
00000380: 15cd 1f3a 7d72 8939 7f46 6539 88dd 5b39
00000390: fb33 8c39 a15e 9b39 73cb 7c39 eeb6 4939
000003a0: 29bf 3939 4043 7e39 d1d0 9839 8465 8139
000003b0: 5760 5939 8a0b 3d39 634c 8339 0b02 a239
000003c0: ea77 8539 75dd 8839 fd10 8239 fc79 9639
000003d0: bf2d a739 ac7d 9b39 d89b a839 2d99 ac39
000003e0: ccb5 b739 52c5 c039

exp_avg f4 [10]
-0.006259039 -0.0022634943 0.021198086 -0.0069548506 -0.00047503016 0.00074189174 0.0030712017 0.013933384
0.002903967 0.0029468175
00000000: a018 cdbb 2257 14bb 9ca7 ad3c 84e5 e3bb
00000010: 780d f9b9 837b 423a 3746 493b d948 643c
00000020: 7b50 3e3b 651f 413b

exp_avg_sq f4 [10]
0.00087294995 0.00071867637 0.0021342551 0.000549131 0.0007745896 0.0005396153 0.002693819 0.0014975934
0.00040424897 0.00030868698
00000000: aed6 643a 8e65 3c3a dcde 0b3b 8ff3 0f3a
00000010: d40d 4b3a f874 0d3a c98a 303b e54a c43a
00000020: 61f1 d339 44d7 a139

exp_avg f4 [20, 10, 5, 5]
8.169522e-05 -0.001675403 -0.0031431117 -0.0015978083 -4.8921618e-05 -0.0008313126 -0.0039179567 -0.0042559225
-0.0009789655 -0.000120292214 -0.0013475247 -0.0049904035 -0.004655502 -0.0012813471 0.00025967436 -0.0022403356
-0.0033874046 -0.0021944095 -0.0022083337 0.00022834363 -0.0022368566 -0.0025589883 -0.00068153907 -0.0029441263
-0.0005992545 0.00026685724 -0.0002060077 -0.0015882249 -0.002729151 -0.0025287967 9.577816e-05 -0.00061828765
-0.0049144477 -0.0049193674 -0.0021946377 0.00075145945 -0.0016213083 -0.004570364 -0.004662174 -0.0012743307
-0.0001908651 -0.004195351 -0.004333884 -0.0012405503 -0.0004660978 -0.0006533147 -0.005634879 -0.0038257034
-0.001058608 -0.00075874676 0.00070570904 -0.0012519544 -0.0014334195 -0.00118641 3.603837e-05 -0.00074781745
-0.0012986378 -0.00066883024 -0.0007110598 0.00044105705 -0.0008868198 -0.00036335265 -0.0011007703 -0.0014869793
-0.0011488819 -0.0011509852 -0.0030683004 -0.0018957845 1.8567836e-05 -0.0005568226 -0.0018755628 -0.0009127334
-0.0019930757 -0.0019482214 0.0004959013 -0.0025573028 -0.0069507076 -0.0054145046 -0.00048535797 0.00112557
-0.005845677 -0.007845795 -0.0028019561 -0.00020077759 0.0019706613 -0.0053721215 -0.004093663 -0.0021435185
7.0251735e-05 0.0014618482 -0.0035541886 -0.0019245048 -0.0019174522 -0.0009889504 7.6053926e-05 -0.003526669
-0.00043863902 -0.0010621331 -3.462963e-06 0.002003743 0.0005614079 0.00015910705 0.00078073156 -0.0014926267
-0.0018759252 6.0664097e-05 0.00037929433 -0.0014928252 -0.004184168 -0.002171183 0.0004570825 -0.0004950135
-0.004779339 -0.00573688 -0.0016117957 0.00021309963 -0.00033535747 -0.003092838 -0.0020084735 -0.0011102109
0.00034715515 -0.0020206175 -0.0031552832 0.00077401486 -0.0010747169 -0.00024730968 0.00037200467 0.00020715198
-0.0004859461 -0.0009571152 0.0008122371 0.0012371459 -2.6357535e-05 -0.0005629359 -0.0016117307 0.0010784713
0.0013942202 -0.00010467762 -0.0010107665 -0.0014926333 0.00032574538 -0.000722909 -8.812086e-05 -4.3434906e-05
-3.8036524e-07 0.00023411389 -0.0016646648 -0.0005414332 -0.0007566014 -0.000744415 -0.0002628945 -0.0006756608
0.0010948338 0.00053452066 -0.00014953822 0.0010435816 0.0012324343 -0.0001549793 -0.0017211144 -0.0020222357
-0.0001256743 -0.0026152746 -0.0031596355 -0.0031208966 -0.0012838682 -0.0038908 -0.0041964543 -0.00420813
-0.002122754 0.0008396271 -0.0019557313 -0.0017238599 -0.0040077986 -0.002726903 -0.0016910372 -0.00010928794
-0.0012509213 -0.0010511435 0.00044331368 0.0011318539 -0.00038688618 0.00021230377 -0.0011566139 -0.0013195263
-9.908213e-05 -0.0008319258 -0.0018070738 -0.0020064686 -0.0012457112 -0.0008696101 -0.0027006608 -0.0024379971
-0.0036392077 -0.0023922492 0.00010479536 -0.001714932 -0.00012315757 -0.001923213 -0.0028690079 -0.0015622741
4.6491623e-05 -0.00061373133 -0.0023005172 -0.002141848 -0.0007321195 -0.00023075892 -0.00070138543 -0.0027347954
-0.0018619292 -0.00023307427 -1.9918198e-05 -0.0014876273 -0.0038230116 -0.0026625043 -0.00059859006 0.0002513879
-0.0015249294 -0.00079456274 -0.0030520137 -0.0027842778 -5.286443e-05 -0.0022022794 0.00023142353 0.00086791895
-1.696113e-05 0.00035776797 -0.00011927143 0.00027724763 -0.00080659334 -0.00093132333 0.00041344165 -0.0001715942
-0.0034541385 -0.0043644956 -0.0016542468 0.00030688592 -0.0029096324 -0.00534675 -0.0037760152 -0.00072551984
-0.0026402487 -0.0030878526 -0.0036064058 -0.0005755916 0.0005140763 -0.0008848876 -0.0058403993 -0.0035698502
-0.001037467 -0.0012662467 0.00010175559 -0.0011556682 -0.00090281793 0.0003276127 0.00017285807 7.145383e-05
00000000: ca53 ab38 3299 dbba aafc 4dbb 8d6d d1ba
00000010: 3031 4db8 72ec 59ba 3462 80bb 4475 8bbb
00000020: a250 80ba 6445 fcb8 6d9f b0ba 8a86 a3bb
00000030: 2e8d 98bb e0f2 a7ba e724 8839 98d2 12bb
00000040: 38ff 5dbb 15d0 0fbb b1b9 10bb 876f 6f39
00000050: 3a98 12bb b3b4 27bb 50a9 32ba 3ef2 40bb
00000060: 4a17 1dba f9e8 8b39 c503 58b9 fc2b d0ba
00000070: 8edb 32bb 2bba 25bb 82dc c838 9514 22ba
00000080: 6009 a1bb a532 a1bb e9d3 0fbb 97fd 443a
00000090: 1482 d4ba fec2 95bb 26c5 98bb 7107 a7ba
000000a0: f622 48b9 2879 89bb 4103 8ebb f699 a2ba
000000b0: 965e f4b9 3543 2bba cba4 b8bb a7b8 7abb
000000c0: fdc0 8aba a2e6 46ba 55ff 383a 9e18 a4ba
000000d0: 94e1 bbba 5081 9bba e827 1738 2e09 44ba
000000e0: 0e37 aaba 7054 2fba 6a66 3aba ad3d e739
000000f0: 7879 68ba 5e80 beb9 b947 90ba bfe6 c2ba
00000100: 1496 96ba a8dc 96ba 8a15 49bb f97b f8ba
00000110: 20c2 9b37 bbf7 11ba 72d5 f5ba 8044 6fba
00000120: 439e 02bb 765b ffba 5fff 013a 6c98 27bb
00000130: c3c2 e3bb 286c b1bb a577 feb9 dd87 933a
00000140: 188d bfbb a68b 00bc 06a1 37bb d387 52b9
00000150: 3626 013b 9f08 b0bb 2224 86bb 467a 0cbb
00000160: 1d54 9338 7c9b bf3a 64ed 68bb aa3f fcba
00000170: 0553 fbba ab9f 81ba 247f 9f38 b01f 67bb
00000180: 22f9 e5b9 4637 8bba 4065 68b6 3b51 033b
00000190: 722b 133a f9d5 2639 02aa 4c3a 3ea4 c3ba
000001a0: 9be1 f5ba 9471 7e38 06dc c639 e7aa c3ba
000001b0: 581b 89bb 684a 0ebb 93a4 ef39 cbc3 01ba
000001c0: 009c 9cbb 70fc bbbb e442 d3ba 7f73 5f39
000001d0: ebd2 afb9 36b1 4abb 98a0 03bb 7f84 91ba
000001e0: 6002 b639 566c 04bb dec8 4ebb 42e7 4a3a
000001f0: 84dd 8cba 58a9 81b9 9f09 c339 f036 5939
00000200: 95c6 feb9 eae6 7aba 4fec 543a ba27 a23a
00000210: 601a ddb7 fd91 13ba b540 d3ba 7e5b 8d3a
00000220: 44be b63a 5f86 dbb8 b27b 84ba 76a4 c3ba
00000230: cec8 aa39 9a81 3dba 87cd b8b8 e02d 36b8
00000240: 0035 ccb4 787c 7539 e230 daba f8ee 0dba
00000250: a956 46ba d824 43ba 1ad5 89b9 d41e 31ba
00000260: 8780 8f3a 131f 0c3a 5ccd 1cb9 cac8 883a
00000270: a289 a13a f081 22b9 0497 e1ba 7c87 04bb
00000280: 70c7 03b9 0765 2bbb e311 4fbb f587 4cbb
00000290: 7847 a8ba cbfc 7ebb 6982 89bb 5ae4 89bb
000002a0: e71d 0bbb 6c1a 5c3a ba2b 00bb 24f3 e1ba
000002b0: da53 83bb d7b5 32bb cba5 ddba 8431 e5b8
000002c0: f4f5 a3ba 86c6 89ba 8e6c e839 b75a 943a
000002d0: fcd6 cab9 dc9d 5e39 8699 97ba f5f3 acba
000002e0: 50ca cfb8 9815 5aba 56db ecba f57e 03bb
000002f0: 2247 a3ba 8cf6 63ba 92fd 30bb cec6 1fbb
00000300: c67f 6ebb 48c7 1cbb 95c5 db38 92c7 e0ba
00000310: dc23 01b9 5214 fcba f705 3cbb 38c5 ccba
00000320: 0000 4338 d0e2 20ba 46c4 16bb 3f5e 0cbb
00000330: b5eb 3fba e0f7 71b9 2edd 37ba 413a 33bb
00000340: fa0b f4ba 6665 74b9 0116 a7b7 7dfc c2ba
00000350: 7e8b 7abb 697d 2ebb b3ea 1cba b6cc 8339
00000360: 24e0 c7ba 344a 50ba 4b04 48bb 6e78 36bb
00000370: c0ba 5db8 1e54 10bb 48aa 7239 0e85 633a
00000380: c047 8eb7 ce92 bb39 5d21 fab8 8c5b 9139
00000390: 9071 53ba 0d24 74ba 33c3 d839 f8ed 33b9
000003a0: d45e 62bb 0b04 8fbb 50d3 d8ba 88e5 a039
000003b0: 88af 3ebb ca33 afbb 0677 77bb d030 3eba
000003c0: 0608 2dbb 925d 4abb 7359 6cbb 4ce3 16ba
000003d0: 14c3 063a cdf7 67ba d260 bfbb 26f4 69bb
000003e0: 9efb 87ba 30f8 a5ba 9e65 d538 ca79 97ba
000003f0: 16ab 6cba 6fc3 ab39 3c41 3539 7cd9 9538
