MNIST_/checkpoint/model_epoch9.pth (torch, 268573 bytes, 24 tensors)

conv1.weight f4 [10, 1, 5, 5]
0.033305436 0.29044393 0.3893771 0.015758788 -0.032015588 -0.12560168 0.0040781875 0.3069637
0.23940127 -0.054524858 -0.409936 0.049499672 0.46624875 0.14261396 -0.12107457 -0.28677535
-0.06309003 0.3528169 0.19299859 0.12410479 -0.21759337 -0.026795685 0.23212725 0.25686547
0.0579502 0.07661895 0.25840232 0.17309876 -0.011411941 -0.0028335636 -0.13307285 0.31648144
0.05411264 -0.041711766 -0.21023352 0.007508024 0.31397855 0.1541809 -0.057041 -0.20242488
0.15058818 0.23905164 0.027427694 -0.12378605 -0.14251466 0.15631749 0.24118245 -0.05283206
-0.21734414 -0.18954375 0.46225122 0.54595584 0.29758346 0.17536068 -0.30085352 -0.07587278
-0.19192913 -0.015286096 0.1626226 0.07307301 -0.25669792 -0.5652975 -0.12552126 -0.0012386031
0.33689138 -0.050682206 -0.27870774 0.0031511008 0.2145322 -0.005824226 0.3455476 0.50054353
0.090050995 -0.2322412 0.075862154 -0.124053024 -0.09930868 0.107081935 0.12852159 -0.075280026
-0.32455775 -0.16290396 -0.2419063 0.06296693 0.17761438 -0.062697075 -0.24663652 -0.24821635
0.1427361 0.14909191 -0.32120317 -0.14218114 0.04379907 0.3384851 0.18499666 -0.13969071
0.05956597 0.23649643 0.2856858 0.2986885 0.04524996 0.03364649 0.18068264 0.024127208
0.100996524 0.21429636 0.069439076 -0.0761853 -0.049375955 -0.06617753 0.5185477 0.0064130095
-0.25956964 -0.060412444 0.07634948 0.3715788 -0.12454017 -0.2011247 -0.13587868 -0.15945582
0.16705678 -0.15350477 -0.044142794 -0.03092412 -0.15952395 -0.14863773 0.06971784 0.1704063
0.006689452 -0.26620334 -0.15414964 0.20892067 0.13934132 -0.15765727 -0.13164839 -0.03641058
-0.018994555 -0.049451273 -0.027355954 -0.19813712 -0.017318228 -0.08547877 -0.012998233 -0.03388322
-0.18939655 0.09589632 -0.12070215 0.12722889 -0.24334292 -0.06698788 0.22504413 0.19392478
0.22378582 0.26248544 0.29334807 0.3477258 0.17400722 0.26670897 0.107533365 0.31771258
0.02485273 0.16608366 0.0015561315 0.052839775 0.0871291 -0.2959691 -0.08952976 -0.19050449
-0.07513053 -0.07376882 -0.3441027 -0.49690205 -0.34274116 -0.3655174 -0.102663666 -0.0030738823
0.3037491 0.17303014 -0.047111806 -0.20326225 0.08521753 0.11770467 0.22590962 0.19867146
-0.0532815 -0.34961268 -0.09161605 0.19516578 0.40344813 0.21607812 -0.066995405 -0.13505657
-0.21339175 0.051816314 0.20389448 -0.30284625 -0.046335578 -0.21824221 -0.18133844 0.017132968
0.031786554 -0.082617454 0.16157098 0.028846098 0.16641882 -0.14837764 0.089024745 -0.021914566
-0.24825875 -0.19067428 -0.03441875 0.2676397 -0.15707798 -0.4290386 -0.34433484 -0.18105064
0.50678337 0.36317933 -0.3451724 -0.035989635 -0.13765132 0.17258452 0.5282316 0.16709647
0.19461162 -0.48098963 0.020770522 0.31008953 0.31334037 0.11060623 0.022260468 0.51748955
0.43941048 -0.09664111 -0.025446085 0.11355482 0.2542368 -0.23118314 -0.33121225 -0.23368466
0.18763995 -0.066644825 -0.21080214 -0.16318686 0.030757058 0.08595003 -0.12461335 0.095216945
-0.019639734 0.20211807
00000000: 486b 083d 11b5 943e 6f5c c73e 9318 813c
00000010: c722 03bd ba9d 00be 51a2 853b 592a 9d3e
00000020: 9b25 753e 7555 5fbd 22e3 d1be 2bc0 4a3d
00000030: 28b8 ee3e 6509 123e f2f5 f7bd 38d4 92be
00000040: 5835 81bd 6ba4 b43e 6ca1 453e a72a fe3d
00000050: ccd0 5ebe a082 dbbc c4b2 6d3e df83 833e
00000060: 305d 6d3d 65ea 9c3d 4f4d 843e cd40 313e
00000070: 26f9 3abc 4fb3 39bb 4044 08be db09 a23e
00000080: 37a5 5d3d f5d9 2abd 7547 57be df05 f63b
00000090: ccc1 a03e 99e1 1d3e d3a3 69bd 7848 4fbe
000000a0: ca33 1a3e f4c9 743e 0bb0 e03c 8a83 fdbd
000000b0: 5def 11be b111 203e 88f8 763e 6e66 58bd
000000c0: 768f 5ebe c217 42be 31ac ec3e c3c3 0b3f
000000d0: dc5c 983e c091 333e 7909 9abe 3063 9bbd
000000e0: 1289 44be 8972 7abc 8a86 263e 4da7 953d
000000f0: e96d 83be 56b7 10bf a588 00be a058 a2ba
00000100: 077d ac3e 2598 4fbd c8b2 8ebe b382 4e3b
00000110: 54ae 5b3e 26d9 bebb 9deb b03e 9f23 003f
00000120: a86c b83d a3d0 6dbe 9e5d 9b3d 830f febd
00000130: 5962 cbbd c64d db3d 2a9b 033e 6a2c 9abd
00000140: 6f2c a6be 4cd0 26be 49b6 77be cef4 803d
00000150: 8be0 353e 5367 80bd 498e 7cbe 6d2c 7ebe
00000160: 6a29 123e 8dab 183e be74 a4be ef97 11be
00000170: a766 333d eb4d ad3e c46f 3d3e 150b 0fbe
00000180: 72fb 733d 1f2c 723e 6945 923e b3ed 983e
00000190: 0658 393d e7d0 093d df04 393e 6ca6 c53c
000001a0: 44d7 ce3d 8170 5b3e 1336 8e3d 0a07 9cbd
000001b0: 713e 4abd 1688 87bd 8bbf 043f 3924 d23b
000001c0: 50e6 84be 0a73 77bd 1e5d 9c3d 943f be3e
000001d0: eb0e ffbd a2f3 4dbe c823 0bbe 6348 23be
000001e0: ef10 2b3e 5b30 1dbe 13cf 34bd 9554 fdbc
000001f0: 3f5a 23be 7d34 18be 3ac8 8e3d fd7e 2e3e
00000200: 3133 db3b ce4b 88be 67d9 1dbe 4def 553e
00000210: 7eaf 0e3e e870 21be d6ce 06be 4323 15bd
00000220: 789a 9bbc 6b8d 4abd 9819 e0bc 75e4 4abe
00000230: f5de 8dbc 7e0f afbd 8af6 54bc 22c9 0abd
00000240: 2bf1 41be 4a65 c43d b032 f7bd 4a48 023e
00000250: e32e 79be f130 89bd f871 663e 3894 463e
00000260: 1c28 653e 7e64 863e b831 963e 1e09 b23e
00000270: f32e 323e 148e 883e 743a dc3d 39ab a23e
00000280: f497 cb3c d611 2a3e 1cf7 cb3a 856e 583d
00000290: be70 b23d 4389 97be 615b b7bd 9c13 43be
000002a0: 09de 99bd 1b14 97bd 3b2e b0be f269 febe
000002b0: c57b afbe 1925 bbbe 5441 d2bd 3073 49bb
000002c0: 0185 9b3e d02e 313e 4ff8 40bd fb23 50be
000002d0: 8786 ae3d 250f f13d da54 673e 8870 4b3e
000002e0: b43d 5abd 6f00 b3be 32a1 bbbd 8ad9 473e
000002f0: c190 ce3e 9543 5d3e e334 89bd 454c 0abe
00000300: 5e83 5abe 583d 543d b7c9 503e aa0e 9bbe
00000310: 60ca 3dbd e37a 5fbe c9b0 39be 705a 8c3c
00000320: 9e32 023d 5733 a9bd dd72 253e a74e ec3c
00000330: b269 2a3e 4ff0 17be 9b52 b63d 2d86 b3bc
00000340: 8b37 7ebe 1e40 43be adfa 0cbd 1208 893e
00000350: 0dd9 20be f3aa dbbe a84c b0be 5765 39be
00000360: 8ebc 013f a4f2 b93e 70ba b0be de69 13bd
00000370: 78f4 0cbe ffb9 303e 303a 073f 561b 2b3e
00000380: 4548 473e 4644 f6be f126 aa3c 0ec4 9e3e
00000390: 266e a03e 8585 e23d 965b b63c 327a 043f
000003a0: 69fa e03e c6eb c5bd 4f74 d0bc 6e8f e83d
000003b0: 532b 823e 46bb 6cbe a794 a9be 084b 6fbe
000003c0: b024 403e 157d 88bd 84dc 57be 751a 27be
000003d0: 3af6 fb3c 9206 b03d 4935 ffbd 1a01 c33d
000003e0: 82e3 a0bc 0af8 4e3e

conv1.bias f4 [10]
-0.047787596 -0.18287805 0.10048527 -0.06648584 -0.3046755 -0.5054846 0.12176793 0.0873104
-0.24908611 0.05002891
00000000: edbc 43bd 6244 3bbe 39cb cd3d ba29 88bd
00000010: 6dfe 9bbe 7067 01bf 7761 f93d cccf b23d
00000020: 6e10 7fbe 1deb 4c3d

conv2.weight f4 [20, 10, 5, 5]
-0.13177826 0.11350338 -0.04628896 -0.04033399 0.18174529 -0.09909227 0.19115327 0.11791893
-0.013797806 0.2391277 -0.13175023 0.025229858 0.11473654 -0.12703882 -0.07280498 -0.13486655
0.002310175 0.03607992 -0.15977457 -0.19827963 -0.09812679 -0.072177045 0.0075000813 -0.12857468
-0.24282958 -0.05187556 0.027969051 0.03623085 0.046007987 -0.07801984 -0.38109687 0.04156047
0.090821885 0.05697073 0.0198807 -0.14049532 0.05018699 0.08461077 0.052230224 0.038451303
0.116596125 0.046048537 0.033034846 -0.041749015 0.002500957 0.022152329 -0.010676805 0.08366512
0.057137936 0.042213682 -0.2509727 -0.16137902 -0.056890577 -0.07679684 0.058336783 -0.054781627
0.03703945 0.041054957 -0.21720108 -0.0061644367 0.009982787 -0.076793626 -0.3679352 -0.16745399
-0.17177658 -0.15721092 -0.23787642 -0.10600204 -0.20828122 -0.16904718 -0.13187745 -0.17516479
-0.1338059 -0.01300447 -0.1000655 0.10533916 0.11534781 0.069525085 -0.16027826 -0.2749387
0.1296964 0.1256852 0.044322222 -0.1444484 -0.15876853 0.17689475 0.19546787 0.13965905
-0.052456826 -0.042654205 0.08972038 0.1331252 -0.041461557 -0.148064 -0.15162866 0.00898314
0.106136635 0.12638961 0.054741576 -0.17992333 -0.08591656 -0.22492638 0.108452044 0.03129194
-0.047190193 -0.35967436 -0.110177055 0.09425605 0.12253564 0.017866805 -0.35367644 0.068788484
0.13936505 0.1204917 -0.05709693 0.019694516 0.045964856 -0.047445163 -0.08424666 -0.04743044
0.11875713 -0.048408728 -0.16037193 0.017969549 0.021463202 -0.0036923983 0.05836304 -0.07000079
-0.12909424 -0.13940069 -0.06637843 0.13170624 -0.049667936 0.06068778 -0.08916454 0.018823294
0.037334956 0.003330836 -0.042430703 -0.036982145 0.040721647 0.103087015 0.07318736 -0.06741437
-0.01857937 -0.011732992 0.007234374 0.03748908 0.059430894 0.037534658 -0.19889161 -0.06021106
0.059394527 0.07739461 0.13285135 0.06415085 0.008561156 -0.015212988 0.04134293 0.037856344
0.015524007 0.0039814175 0.044547416 -0.10139529 0.007982568 -0.06988984 -0.07449557 -0.020352352
-0.046072274 -0.039166223 -0.12158373 0.0058963816 -0.056897555 -0.077307396 -0.10320085 -0.21992128
-0.26164192 -0.17096366 -0.088977985 0.04089889 -0.0016477496 -0.0033295322 0.012867658 0.036781035
0.028508348 -0.12054149 0.090026535 0.068961725 -0.01438894 -0.07629548 -0.14423166 -0.008317802
0.096526854 0.031532068 -0.07622541 -0.10792068 -0.07198763 -0.1367163 -0.017826624 -0.068719424
-0.38036445 -0.20350003 -0.07249963 0.05900314 -0.18271327 -0.4762041 -0.018546132 0.0023028255
0.14500771 -0.08798348 -0.27385303 0.11256397 0.04361709 0.012658091 -0.07246047 0.0016921944
0.07046568 -0.012971372 -0.077061035 0.01711369 0.084140226 0.048569966 0.018456064 0.0045276056
-0.09498472 -0.075271435 0.19990107 -0.009755514 -0.023600655 -0.030922184 -0.05813462 0.11531414
0.1366386 0.0481116 -0.04247338 -0.11742544 0.035255935 0.074012786 0.05767557 0.012066623
-0.02143908 0.050571777 -0.06553468 -0.08904803 -0.1247822 -0.0019794723 -0.17027012 -0.11156226
-0.11241995 -0.0587761 -0.06980123 -0.07246147 -0.2359074 0.10838517 0.16224937 -0.051104143
00000000: e1f0 06be 7674 e83d 7e99 3dbd 4135 25bd
00000010: 701b 3a3e e3f0 cabd afbd 433e 7b7f f13d
00000020: 3110 62bc e4dd 743e 88e9 06be d9ae ce3c
00000030: fefa ea3d 7716 02be c71a 95bd 751a 0abe
00000040: 4e66 173b 8ac8 133d f29b 23be d109 4bbe
00000050: b3f6 c8bd 8fd1 93bd 3ec3 f53b 15a9 03be
00000060: 51a8 78be 787b 54bd 5a1f e53c cd66 143d
00000070: df72 3c3d dec8 9fbd 211f c3be 503b 2a3d
00000080: d300 ba3d 245a 693d dadc a23c 01de 0fbe
00000090: e090 4d3d 6948 ad3d 5cef 553d 1d7f 1d3d
000000a0: f3c9 ee3d 649d 3c3d 8c4f 073d 0401 2bbd
000000b0: 19e7 233b cd78 b53c c4ed 2ebc 9e58 ab3d
000000c0: 7809 6a3d 41e8 2c3d 7e7f 80be 8b40 25be
000000d0: 1806 69bd a947 9dbd 8df2 6e3d b362 60bd
000000e0: aeb6 173d 3e29 283d f669 5ebe 0bff c9bb
000000f0: d88e 233c fa45 9dbd 0162 bcbe 0f79 2bbe
00000100: 33e6 2fbe e6fb 20be e095 73be 9917 d9bd
00000110: ac47 55be b41a 2dbe e20a 07be 665e 33be
00000120: 6a04 09be b310 55bc 24ef ccbd 0fbc d73d
00000130: 793b ec3d 2b63 8e3d fc1f 24be c4c4 8cbe
00000140: 22cf 043e 9fb3 003e 388b 353d 48ea 13be
00000150: 3894 22be e623 353e bb28 483e c802 0f3e
00000160: f8dc 56bd 2db6 2ebd 52bf b73d f951 083e
00000170: 98d3 29bd 179e 17be 8b44 1bbe 052e 133c
00000180: 2a5e d93d 476c 013e b438 603d d23d 38be
00000190: 05f5 afbd 1a53 66be 1b1c de3d fa2b 003d
000001a0: 814a 41bd 3d27 b8be 82a4 e1bd 5109 c13d
000001b0: f7f3 fa3d 685d 923c 1415 b5be fae0 8c3d
000001c0: b6b5 0e3e 5ac4 f63d 78de 69bd 6556 a13c
000001d0: a545 3c3d dc55 42bd 8389 acbd 6c46 42bd
000001e0: f036 f33d 3b48 46bd 8a38 24be e034 933c
000001f0: 99d3 af3c 2afc 71bb 150e 6f3d 935c 8fbd
00000200: 4831 04be 0ebf 0ebe 6af1 87bd 00de 063e
00000210: 9b70 4bbd c093 783d e69b b6bd 4f33 9a3c
00000220: 8aec 183d 284a 5a3b d1cb 2dbd 977a 17bd
00000230: becb 263d 491f d33d 41e3 953d 8c10 8abd
00000240: c333 98bc bc3b 40bc 540e ed3b 268e 193d
00000250: cf6d 733d f1bd 193d 3eaa 4bbe df9f 76bd
00000260: ad47 733d 1181 9e3d 2f0a 083e 8561 833d
00000270: 1744 0c3c e53f 79bc 3457 293d 410f 1b3d
00000280: 6858 7e3c 8d76 823b 5a77 363d 55a8 cfbd
00000290: 51c9 023c 6822 8fbd 2291 98bd fab9 a6bc
000002a0: 48b6 3cbd c36c 20bd e400 f9bd 6f36 c13b
000002b0: 690d 69bd 5753 9ebd f85a d3bd 0b33 61be
000002c0: eef5 85be 1911 2fbe 173a b6bd 9885 273d
000002d0: 4df9 d7ba 4834 5abb dfd2 523c b6a7 163d
000002e0: 578a e93c 75de f6bd d55f b83d ce3b 8d3d
000002f0: 97bf 6bbc ce40 9cbd 77b1 13be 6447 08bc
00000300: dfaf c53d c527 013d 111c 9cbd 8405 ddbd
00000310: 406e 93bd 5cff 0bbe 2409 92bc c5bc 8cbd
00000320: 21bf c2be 5062 50be b07a 94bd 47ad 713d
00000330: 3019 3bbe 06d1 f3be 0fee 97bc 00eb 163b
00000340: e77c 143e af30 b4bd 7736 8cbe f087 e63d
00000350: d5a7 323d e263 4f3c 2866 94bd 9fcc dd3a
00000360: 4f50 903d e185 54bc 2dd2 9dbd 0232 8c3c
00000370: b651 ac3d 4df1 463d 2c31 973c 4f5c 943b
00000380: 5987 c2bd e927 9abd deb2 4c3e 97d5 1fbc
00000390: 2956 c1bc 8550 fdbc 911e 6ebd d229 ec3d
000003a0: fdea 0b3e ab10 453d 91f8 2dbd c07c f0bd
000003b0: 8768 103d 0494 973d 383d 6c3d 16b3 453c
000003c0: 02a1 afbc 5a24 4f3d 0c37 86bd d05e b6bd
000003d0: cf8d ffbd 09ba 01bb 4a5b 2ebe c17a e4bd
000003e0: 6e3c e6bd 35bf 70bd f3f3 8ebd ae66 94bd
000003f0: b691 71be 0bf9 dd3d b324 263e 9452 51bd

conv2.bias f4 [20]
0.006348522 -0.0038937388 0.016813964 -0.11591155 -0.007859452 -0.09843588 -0.084548175 -0.03202836
0.061540913 0.0182668 0.0027533604 0.0014438444 -0.13005912 0.03960753 0.034060013 -0.04037355
-0.013913896 -0.06775276 -0.017266473 0.0006116892
00000000: 4307 d03b 192e 7fbb 70bd 893c 0963 edbd
00000010: eec4 00bc c098 c9bd 9827 adbd 2b30 03bd
00000020: 5312 7c3d 42a4 953c b971 343b 613f bd3a
00000030: 382e 05be 813b 223d 8382 0b3d bc5e 25bd
00000040: 1cf7 63bc f6c1 8abd 6b72 8dbc c459 203a

fc1.weight f4 [50, 320]
0.13125034 0.0785239 0.086013034 0.10214876 -0.20402731 -0.041746065 0.009637782 0.07822437
-0.16384013 -0.105802275 0.03762614 0.014845231 0.2207055 -0.010926598 -0.12990387 -0.05142179
-0.012518785 -0.0058643986 0.05980995 0.03500943 0.053117976 0.12139518 0.14867665 -0.020307655
0.122105725 -0.06354206 0.11878225 -0.045316473 -0.12140386 -0.04708734 -0.19970083 -0.09916903
-0.12957099 -0.17971101 -0.04495978 -0.10092548 -0.0017715944 0.036273774 0.024986356 -0.24566977
0.10115818 0.09860645 0.11662029 -0.07176654 0.12039664 0.0511694 0.01443894 0.2566041
-0.23357971 -0.14899649 -0.10098712 -0.05673279 0.19043142 -0.021776345 -0.089381374 -0.2160063
0.22651021 0.13749297 0.018269517 0.093168035 0.039084706 0.057068553 -0.13299112 0.08376047
-0.10033642 -0.051664356 -0.14126049 -0.09848014 0.13830142 -0.04975784 0.03910857 -0.025049437
0.16278967 0.07409643 -0.004575253 0.09624502 -0.05179332 0.07116938 -0.1300341 -0.04816524
-0.043667793 -0.04271184 -0.06240543 0.019404512 0.043517347 0.03669866 -0.058002364 0.020209951
-0.0921094 0.04968533 0.049143456 0.01797191 0.08592758 -0.06508158 0.0023440872 -0.09890258
-0.076712914 -0.041535053 0.13361076 0.065434 -0.09702215 -0.09666426 0.04451767 0.1358288
0.09663245 0.0131156035 -0.08877643 0.0030052701 0.050170902 0.12880927 -0.1394386 -0.24912097
-0.0014960612 0.09178996 0.06279465 0.041781027 -0.06224725 0.04524822 -0.03450312 0.06803622
0.034409054 -0.07762682 0.14242564 -0.033523787 -0.26439646 -0.059952337 0.03692921 -0.09099314
-0.11449037 -0.07605193 -0.02828014 -0.08910764 -0.0430377 0.08098059 -0.13600323 -0.18925951
-0.04636937 0.12634964 0.004204089 0.0795364 -0.044130825 -0.056048866 0.16622885 0.26537958
-0.067412965 0.0029052831 -0.07000892 0.018102726 0.2796111 0.03989227 -0.083064005 -0.03181714
0.023949578 0.041614424 0.10796332 0.091694586 0.2301024 0.10517361 -0.103562415 -0.3235499
0.08833938 0.13815671 0.15820472 -0.11900029 -0.04354171 0.013333843 0.15897454 -0.17487332
0.032088723 0.010157021 0.007632002 -0.25650063 0.030905496 0.020574197 -0.08051403 0.00850297
-0.0055772043 0.104387775 0.12327963 0.025053741 -0.045972273 -0.07910974 0.023466652 0.11805552
0.12058732 -0.16864724 0.04812682 0.047813516 0.08083946 -0.10652223 -0.088978216 -0.18639237
-0.114196405 0.019916823 -0.11718276 0.03546561 -0.065552704 0.008228795 -0.10158507 0.009828764
0.08030363 -0.0554503 0.24598865 -0.0144407945 -0.16627185 -0.14193124 0.04397721 0.1202961
0.24246897 0.042551335 0.16280432 -0.11418542 -0.12408233 -0.14290766 0.17146696 0.042225577
-0.10527512 0.060973305 -0.18130696 -0.090491995 0.060819957 0.065517925 0.09973285 -0.086915344
0.163573 0.08776519 -0.0690022 -0.042717226 0.1754511 0.12309175 0.009717045 0.11028931
0.07896776 0.010989264 0.04994362 -0.06866626 -0.20293212 -0.225966 -0.104040794 -0.030632704
0.0135261165 0.07770458 0.0240025 -0.3670177 0.07810738 0.09875563 -0.20744292 -0.17334525
-0.009293225 -0.081674896 0.0201513 0.25067118 0.045376305 -0.05966361 -0.0044645057 0.21740368
00000000: 7d66 063e 23d1 a03d 9a27 b03d 5e33 d13d
00000010: 89ec 50be ecfd 2abd cae7 1d3c 1934 a03d
00000020: b5c5 27be ddae d8bd de1d 1a3d 6939 733c
00000030: 9f00 623e 7905 33bc 8505 05be a89f 52bd
00000040: 971b 4dbc 242a c0bb 47fb 743d 0c66 0f3d
00000050: 3c92 593d 099e f83d b13e 183e 3d5c a6bc
00000060: 9112 fa3d 5722 82bd 1c44 f33d c49d 39bd
00000070: 96a2 f8bd a8de 40bd 607e 4cbe 2219 cbbd
00000080: 42ae 04be 2a06 38be bf27 38bd 05b2 cebd
00000090: d834 e8ba cf93 143d 30b0 cc3c db90 7bbe
000000a0: 052c cf3d 2ef2 c93d 9ed6 ee3d 56fa 92bd
000000b0: 8392 f63d 0197 513d 4e91 6c3c 9d61 833e
000000c0: 852f 6fbe 8992 18be 56d2 cebd a460 68bd
000000d0: 7400 433e 4e64 b2bc 950d b7bd c130 5dbe
000000e0: 4bf2 673e f5ca 0c3e f4a9 953c e2ce be3d
000000f0: 4917 203d b7c0 693d d32e 08be 9c8a ab3d
00000100: 2e7d cdbd 019e 53bd 97a6 10be f5af c9bd
00000110: e39e 0d3e e0ce 4bbd 4f30 203d 7a34 cdbc
00000120: 56b2 263e debf 973d 01ec 95bb 1c1c c53d
00000130: 3b25 54bd 40c1 913d a927 05be ea48 45bd
00000140: 00dd 32bd 9cf2 2ebd d69c 7fbd 36f6 9e3c
00000150: 3f3f 323d 5651 163d e393 6dbd 578f a53c
00000160: daa3 bcbd d882 4b3d a64a 493d d439 933c
00000170: cdfa af3d 7e49 85bd 429f 193b 708d cabd
00000180: a91b 9dbd a920 2abd 42d1 083e 4302 863d
00000190: 8db3 c6bd e9f7 c5bd 2958 363d b416 0b3e
000001a0: 3ce7 c53d d4e2 563c 6bd0 b5bd 11f4 443b
000001b0: 0180 4d3d 94e6 033e fec8 0ebe 9119 7fbe
000001c0: 7c17 c4ba 60fc bb3d 7b9a 803d 9522 2b3d
000001d0: f9f6 7ebd 3356 393d 2553 0dbd 9356 8b3d
000001e0: 82f0 0c3d cffa 9ebd 07d8 113e 3d50 09bd
000001f0: f95e 87be 9590 75bd 1543 173d 9d5a babd
00000200: ed79 eabd 1dc1 9bbd c1ab e7bc 117e b6bd
00000210: 4d48 30bd 27d9 a53d 6e44 0bbe 3fcd 41be
00000220: cfed 3dbd cd61 013e 74c2 893b fbe3 a23d
00000230: 86c2 34bd 7f93 65bd e537 2a3e d5df 873e
00000240: cf0f 8abd 9066 3e3b d660 8fbd 2b4c 943c
00000250: 3029 8f3e 1466 233d 761d aabd b052 02bd
00000260: e831 c43c e373 2a3d e01b dd3d 5fca bb3d
00000270: f79f 6b3e 4365 d73d 8818 d4bd 55a8 a5be
00000280: 47eb b43d f478 0d3e 6b00 223e 6db6 f3bd
00000290: cb58 32bd 3176 5a3c 39ca 223e fe11 33be
000002a0: 776f 033d a269 263c df15 fa3b 0d54 83be
000002b0: 862d fd3c 388b a83c 8ae4 a4bd 0b50 0b3c
000002c0: fbc0 b6bb 42c9 d53d 087a fc3d 813d cd3c
000002d0: 6c4d 3cbd 4a04 a2bd 233d c03c 18c7 f13d
000002e0: 7cf6 f63d ddb1 2cbe a120 453d 1bd8 433d
000002f0: 298f a53d 5428 dabd 363a b6bd a4dd 3ebe
00000300: cedf e9bd 9b28 a33c 84fd efbd 6344 113d
00000310: 7f40 86bd 11d2 063c d50b d0bd d308 213c
00000320: 3b76 a43d db1f 63bd 73e4 7b3e 1599 6cbc
00000330: 2b43 2abe 6c56 11be 7221 343d cd5d f63d
00000340: c949 783e 4f4a 2e3d 2db6 263e 0cda e9bd
00000350: e01e febd 6356 12be 0995 2f3e baf4 2c3d
00000360: 7b9a d7bd 25bf 793d 88a8 39be de53 b9bd
00000370: 591e 793d 432e 863d bd40 cc3d ac00 b2bd
00000380: ae7f 273e 3cbe b33d 0751 8dbd 42f8 2ebd
00000390: 74a9 333e 8717 fc3d 3e34 1f3c 5ddf e13d
000003a0: d9b9 a13d 500c 343c ae91 4c3d e5a0 8cbd
000003b0: 70cd 4fbe a263 67be 5713 d5bd 70f1 fabc
000003c0: a59c 5d3c 9423 9f3d e4a0 c43c bee9 bbbe
000003d0: c3f6 9f3d 6440 ca3d eb6b 54be 6b81 31be
000003e0: 9c42 18bc 2b45 a7bd 5714 a53c f957 803e
000003f0: 81dc 393d d461 74bd fd4a 92bb 129f 5e3e

fc1.bias f4 [50]
0.029133104 0.10483308 0.21522391 0.3080854 0.2506682 0.30324483 0.24792369 0.25490037
0.053386148 0.18040869 -0.1209109 0.06055801 0.11578067 0.047701247 0.1120597 0.25495
0.108338274 0.029142747 -0.13800101 0.112816736 0.3336214 0.011452885 0.12835227 0.20655069
0.10236394 0.20483409 0.053834353 0.20761082 0.17033125 0.2213215 0.13220283 0.14531323
0.23049311 0.11515802 0.19532791 0.053717285 0.08026133 0.33888498 -0.0013238769 0.073781006
0.07112128 0.19559608 0.1704376 0.0074115153 0.19036166 0.11120649 0.20089397 0.15658584
0.2956814 0.11974713
00000000: 8ca8 ee3c bab2 d63d a863 5c3e 5fbd 9d3e
00000010: 9557 803e e842 9b3e b5df 7d3e 4d82 823e
00000020: 6fab 5a3d 0ebd 383e 22a0 f7bd ad0b 783d
00000030: 6a1e ed3d 6262 433d 8e7f e53d ce88 823e
00000040: 75e0 dd3d c5bc ee3c 2350 0dbe 760c e73d
00000050: 6dd0 aa3e e2a4 3b3c c76e 033e 0682 533e
00000060: 2fa4 d13d 07c0 513e 6981 5c3d ee97 543e
00000070: 516b 2e3e 1aa2 623e 2e60 073e fecc 143e
00000080: 6306 6c3e f8d7 eb3d 0a04 483e a806 5c3d
00000090: 0d60 a43d 5582 ad3e f085 adba 7f1a 973d
000000a0: 09a8 913d 574a 483e 3287 2e3e 4cdc f23b
000000b0: 2bee 423e 3ac0 e33d 26b7 4d3e 0a58 203e
000000c0: 8d63 973e fc3d f53d

fc2.weight f4 [10, 50]
-0.0733209 0.086351156 -0.42960355 -0.193033 -0.17352593 0.14280471 0.14779225 -0.24004437
-0.23309335 -0.10556386 -0.014548781 0.13922629 -0.17576712 -0.3292229 -0.21883604 -0.2824194
-0.051635984 0.15376867 -0.19182037 0.1239052 -0.15392613 -0.16296141 -0.030413056 0.056055088
0.10780522 -0.19848144 -0.14266372 0.17247689 -0.38111115 -0.38514128 0.16430968 0.1898037
-0.40090156 0.19288592 0.1073651 0.105309375 -0.17419909 0.13049461 0.020126138 -0.13157186
0.16079459 -0.29743275 0.11747626 0.08588145 -0.30284542 -0.12643062 -0.14831696 0.09994091
-0.10981574 -0.2072619 0.09361122 0.14499414 0.108114496 0.1134257 0.13667816 0.12810503
0.13645093 0.05118637 -0.32846835 0.16543296 -0.41181815 -0.4288646 -0.20166399 -0.19519435
0.073174864 0.16895604 -0.12223835 -0.16222326 -0.34890294 -0.21118532 0.15100528 -0.2252013
-0.08758266 -0.09679541 -0.3336867 0.13038713 -0.12997232 -0.24509631 0.106998615 0.13115127
-0.06482417 -0.07570221 -0.3667707 -0.18738148 0.08702809 -0.15266839 0.07472349 0.13916771
-0.5100476 -0.34388044 -0.33227146 0.072075956 0.069436036 -0.31606948 0.14133137 -0.05457851
0.103704214 -0.2354369 0.13954566 -0.09677801 0.17483263 -0.050908353 -0.11888133 0.1389994
-0.020129243 0.12403374 0.052664302 -0.033481278 -0.12854718 -0.018145291 -0.106293045 -0.15823883
-0.16524306 -0.102830835 0.08640519 -0.12948598 0.17794833 0.1298472 -0.044386853 0.07817669
0.17503023 0.067652196 -0.09689401 0.09188127 -0.18286103 -0.17118527 0.14341013 -0.28544593
-0.21645531 0.14144012 0.20841074 0.123843744 -0.03743267 -0.14134932 0.030679341 0.08228852
-0.37490544 -0.20826414 -0.22314972 -0.0566055 0.013975938 -0.2000951 -0.06658467 0.10544103
0.14809604 0.11622149 0.048689727 -0.10932001 0.15145461 0.1090135 -0.17720003 -0.12673509
-0.14957392 0.0036211554 -0.22509389 -0.10753133 0.113205135 -0.28073448 0.17022759 -0.33727014
-0.16986011 -0.21176302 0.19562393 0.14453429 0.07169997 0.16621436 -0.076608256 0.12801215
-0.17938395 0.08489696 0.17148364 -0.084465735 -0.027172253 0.0929912 0.108408764 0.16986918
0.071961895 -0.20885605 -0.07317329 0.107291184 -0.100122705 0.11641261 0.22451355 -0.06788161
-0.2409453 0.09662507 -0.053619802 0.11367518 -0.10397579 -0.2352622 -0.15679336 0.13657384
-0.34137216 -0.21661301 -0.07929171 0.12128935 -0.21522126 -0.19522566 -0.23755668 0.15172784
0.15075146 0.14488551 0.13310203 -0.12252333 0.11445988 -0.11240029 -0.33366716 0.048070032
-0.070872255 0.16073608 0.16731215 -0.062255163 -0.15711108 0.13900909 0.09450252 -0.18346766
-0.06940689 -0.34472853 0.14841028 0.11919279 -0.1422416 0.10814196 0.118209094 -0.22444695
-0.12965666 -0.15944317 -0.24223511 0.13867453 0.10176974 0.080721445 0.03454395 0.002876982
0.017004041 -0.27191877 -0.13255228 0.10453954 0.07558102 -0.1974952 0.10466988 0.08358011
-0.13495538 0.021014933 0.08945875 -0.015277305 -0.030314563 -0.19696659 0.10602867 -0.25721443
-0.031267896 -0.34255624 -0.18513614 0.0065286397 -0.28494322 -0.10082031 -0.07326029 0.032778703
00000000: 4529 96bd e0d8 b03d fff4 dbbe 71aa 45be
00000010: c8b0 31be 663b 123e da56 173e 31ce 75be
00000020: 06b0 6ebe dd31 d8bd 035e 6ebc 5691 0e3e
00000030: 4cfc 33be e78f a8be 8e16 60be 4799 90be
00000040: 4180 53bd 8975 1d3e 8f6c 44be 02c2 fd3d
00000050: d09e 1dbe 5bdf 26be cd24 f9bc 059a 653d
00000060: fcc8 dc3d b83e 4bbe 7016 12be c89d 303e
00000070: 0021 c3be 3d31 c5be cc40 283e e75b 423e
00000080: f842 cdbe e383 453e 3ce2 db3d 71ac d73d
00000090: 3f61 32be 61a0 053e 92df a43c c6ba 06be
000000a0: 56a7 243e 1b49 98be 6597 f03d 9de2 af3d
000000b0: 8e0e 9bbe 0777 01be 67e0 17be d2ad cc3d
000000c0: 13e7 e0bd 773c 54be 3db7 bf3d 5879 143e
000000d0: 226b dd3d bc4b e83d 5cf5 0b3e f72d 033e
000000e0: cbb9 0b3e cda8 513d 012d a8be 4267 293e
000000f0: d4d9 d2be 2494 dbbe 0181 4ebe 07e1 47be
00000100: b4dc 953d d002 2d3e 1a58 fabd db1d 26be
00000110: 68a3 b2be f740 58be 21a1 1a3e 2b9b 66be
00000120: 8a5e b3bd ac3c c6bd fcd8 aabe 3484 053e
00000130: 7717 05be 87fa 7abe 1722 db3d 854c 063e
00000140: 89c2 84bd c309 9bbd 5fc9 bbbe eee0 3fbe
00000150: c93b b23d 1a55 1cbe a108 993d fb81 0e3e
00000160: 7b92 02bf 1911 b0be 7c1f aabe 8f9c 933d
00000170: 7b34 8e3d dcd3 a1be 2cb9 103e b78d 5fbd
00000180: e062 d43d 5f16 71be 0fe5 0e3e 8d33 c6bd
00000190: 5307 333e 4785 50bd 0e78 f3bd dc55 0e3e
000001a0: 15e6 a4bc 6705 fe3d 86b6 573d aa23 09bd
000001b0: dfa1 03be 6fa5 94bc 2bb0 d9bd 5c09 22be
000001c0: 7a35 29be f998 d2bd 34f5 b03d f997 04be
000001d0: 1638 363e aaf6 043e fdce 35bd 1a1b a03d
000001e0: 203b 333e 3c8d 8a3d 5e70 c6bd 3f2c bc3d
000001f0: ec3f 3bbe 314b 2fbe 1bda 123e f825 92be
00000200: 76a6 5dbe aed5 103e a069 553e caa1 fd3d
00000210: 0053 19bd e0bd 10be 3e53 fb3c e286 a83d
00000220: 9bf3 bfbe 3243 55be 5c81 64be 2bdb 67bd
00000230: 55fb 643c bbe5 4cbe 8b5d 88bd 77f1 d73d
00000240: 7da6 173e 8805 ee3d e16e 473d 2be3 dfbd
00000250: eb16 1b3e 7842 df3d ed73 35be d8c6 01be
00000260: e829 19be e850 6d3b 037f 66be 6339 dcbd
00000270: 18d8 e73d 6ebc 8fbe 2450 2e3e acae acbe
00000280: cfef 2dbe 68d8 58be a451 483e cc00 143e
00000290: 6fd7 923d 1934 2a3e cae4 9cbd 9e15 033e
000002a0: 6db0 37be 75de ad3d 6899 2f3e 5ffc acbd
000002b0: 5898 debc 2c72 be3d 6a05 de3d 30f2 2d3e
000002c0: c260 933d 5cde 55be e1db 95bd 7bbb db3d
000002d0: 220d cdbd bc69 ee3d e1e6 653e 8305 8bbd
000002e0: 5dba 76be 5de3 c53d 70a0 5bbd 88ce e83d
000002f0: 42f1 d4bd 93e8 70be 708e 20be 03da 0b3e
00000300: 55c8 aebe cdcf 5dbe b163 a2bd 8d66 f83d
00000310: f662 5cbe 3ce9 47be 0f42 73be 8b5e 1b3e
00000320: 975e 1a3e de5c 143e e64b 083e 83ed fabd
00000330: f169 ea3d 2032 e6bd 6cd6 aabe 15e5 443d
00000340: 7925 91bd 0098 243e e053 2b3e 45ff 7ebd
00000350: bae1 20be 6658 0e3e 8a8a c13d f2de 3bbe
00000360: 3325 8ebd 4280 b0be ddf8 173e 591b f43d
00000370: c8a7 11be 8879 dd3d 9c17 f23d 6cd5 65be
00000380: b7c4 04be 1245 23be 7b0c 78be b200 0e3e
00000390: a76c d03d 4951 a53d f57d 0d3d c08b 3c3b
000003a0: 0f4c 8b3c f038 8bbe c9bb 07be d418 d63d
000003b0: 39ca 9a3d 2f3c 4abe 295d d63d 0c2c ab3d
000003c0: be31 0abe 8227 ac3c 2636 b73d a94d 7abc
000003d0: 3f56 f8bc 9cb1 49be 8f25 d93d 9cb1 83be
000003e0: c412 00bd 8863 afbe 5494 3dbe 33ee d53b
000003f0: 14e4 91be e17a cebd 7e09 96bd f642 063d

fc2.bias f4 [10]
0.36222056 0.3876329 -0.114466876 0.05994826 -0.40291214 -0.14129212 -0.2732366 -0.062007543
0.18361697 0.02633709
00000000: f974 b93e d277 c63e 9c6d eabd 4f8c 753d
00000010: 804a cebe e2ae 10be abe5 8bbe 9ffb 7dbd
00000020: 1606 3c3e e2c0 d73c

exp_avg f4 [10, 1, 5, 5]
0.0028218748 -0.0030015428 -0.0013013013 -0.00722106 -0.013485073 0.003021356 -0.0011218364 -0.0018960665
-0.008980148 -0.01199274 0.00057104276 -0.004137097 -0.004142224 -0.008241294 -0.011267354 -0.0057037184
-0.009712452 -0.0037159093 -0.004928305 -0.005952293 -0.0037354254 -0.005560442 0.0014813384 0.0050320635
0.002044556 -0.006467908 -0.015175245 -0.013209341 -0.012498096 -0.010956388 -0.011696673 -0.013956459
-0.0074264626 -0.009209953 -0.008919081 -0.008993523 -0.0051779915 -0.004099576 -0.00946801 -0.008815507
-0.008602729 0.0021956165 0.0006925608 -0.0018094135 -0.0034694022 3.0150404e-05 0.011097571 0.009898418
0.0009359759 -0.0016107503 0.0032550746 0.008471781 0.011609353 0.0064730784 0.0055748415 0.011067579
0.017398417 0.015726648 0.004275874 0.00051508355 0.017691113 0.021466717 0.01607965 0.0028097394
0.0020083655 0.015023993 0.019703258 0.01002635 0.0016644262 0.012051483 0.0087042395 0.0069088954
-0.0018073169 -0.0013811644 0.011819669 -0.008540024 -0.008972688 -0.012804516 -0.011878829 -0.011888113
-0.013070358 -0.014105789 -0.01760557 -0.015928697 -0.011479687 -0.01392391 -0.01401611 -0.012481879
-0.0011002063 0.0003636456 -0.017033717 -0.018665468 -0.008715708 0.0054116123 0.00585354 -0.021856826
-0.021991964 -0.010806378 0.0027139192 0.0023956054 -0.010841194 -0.016276253 -0.017248351 -0.011342302
-0.008385021 -0.006790774 -0.013819795 -0.017773125 -0.0074715633 -0.003433331 0.0058474913 -0.0033018687
-0.004662161 0.00015650224 0.0038211038 0.0021532183 0.0015094753 0.0016345489 0.0046994677 0.006974437
0.00076928735 0.0023224235 0.0050520636 0.0049209152 0.006324271 -0.0019614464 0.0015821955 -0.0004395193
-0.006245004 -0.0037088809 0.0036164827 0.0137568135 0.0074791694 -0.0011400334 -0.0041925376 0.0089733265
0.0122566465 0.006768738 0.0051837363 0.000870151 0.009002004 0.0060508205 0.003036107 0.006145911
0.007715089 0.005454211 0.002771587 0.002089015 0.009178155 0.014861384 0.00046676816 0.0071643745
0.006812595 0.009268165 0.005373399 -0.0012637875 -0.00010384107 0.0022319253 -0.0005553588 0.0034112893
-0.004146941 -0.002872428 -0.0047743684 -0.005841062 -0.00344448 -0.0025798888 0.0006793013 -0.0019444622
-0.006769987 -0.003927499 -0.0060886634 -0.0041045914 -0.00643077 -0.0054703937 -0.004746 -0.008646488
-0.0055096066 -0.0010252143 0.00015295728 0.005912268 -0.0011496367 0.001697542 -0.0011725574 0.0015224693
0.010145126 0.0026206255 0.006006924 0.0034731568 0.0058676703 0.010001512 0.004969572 0.009663386
0.0025052305 -0.00038982066 0.0010883661 0.0069106496 0.010981735 0.0029544884 0.0010744813 0.0014252891
-0.005778669 -0.0025858185 0.0032015615 0.0030960408 -0.00054942863 -0.007698537 -0.0017882459 0.0053625377
0.009732748 0.0073669497 -0.0028674137 0.0016537807 0.0032108317 0.0057097785 0.005617353 0.0038802237
0.0075033666 0.005594745 0.008339606 0.005825108 0.0030722881 0.007101897 0.0057274415 0.006147192
0.0047539575 -0.0013728625 9.69045e-05 -0.0035106642 -0.010618486 -0.011551364 -0.008604879 -0.00031288667
-0.0026484816 -0.0070076417 -0.00531108 -0.00022032461 0.007099882 0.008613288 0.005047596 0.005265915
-0.003039064 0.010504625 0.007819476 0.0036301007 0.0046089585 -0.00013789721 0.0070100594 0.0079638325
0.006960225 0.0049277134
00000000: 34ef 383b 88b5 44bb 6d90 aaba a49e ecbb
00000010: 7ff0 5cbc f101 463b 950a 93ba 6f85 f8ba
00000020: 7821 13bc 337d 44bc 08b2 153a 7c90 87bb
00000030: 7ebb 87bb 7e06 07bc b59a 38bc 42e6 babb
00000040: fa20 1fbc 9d86 73bb 9e7d a1bb 740b c3bb
00000050: 0ace 74bb 5e34 b6bb 7829 c23a 02e4 a43b
00000060: f5fd 053b bff0 d3bb 97a1 78bc fe6b 58bc
00000070: d0c4 4cbc 6c82 33bc 67a3 3fbc a2a9 64bc
00000080: af59 f3bb 58e5 16bc 5621 12bc 9259 13bc
00000090: 24ac a9bb bc55 86bb b61f 1bbc eb6e 10bc
000000a0: 76f2 0cbc 55e4 0f3b f88c 353a d829 edba
000000b0: e95e 63bb 80eb fc37 96d2 353c f92c 223c
000000c0: 485c 753a d01f d3ba 1753 553b 3acd 0a3c
000000d0: 2835 3e3c 1e1c d43b 29ad b63b ca54 353c
000000e0: 2087 8e3c 2cd5 803c a11c 8c3b ac06 073a
000000f0: f4ec 903c f8da af3c 78b9 833c 9b23 383b
00000100: c89e 033b 3227 763c ba68 a13c 8f45 243c
00000110: e028 da3a 9573 453c 3a9c 0e3c 0464 e23b
00000120: 7ee3 ecba 3008 b5ba 49a7 413c 75eb 0bbc
00000130: 2e02 13bc 08ca 51bc 6c9f 42bc 5cc6 42bc
00000140: 0e25 56bc f81b 67bc 8e39 90bc e67c 82bc
00000150: 4c15 3cbc 1d21 64bc d4a3 65bc cc80 4cbc
00000160: cc34 90ba b0a7 be39 4b8a 8bbc 53e8 98bc
00000170: 54cc 0ebc e553 b13b 0dcf bf3b 160d b3bc
00000180: 7e28 b4bc 3c0d 31bc 02dc 313b 97ff 1c3b
00000190: 439f 31bc c755 85bc 6a4c 8dbc 10d5 39bc
000001a0: 5461 09bc 2485 debb 6c6c 62bc f298 91bc
000001b0: 04d4 f4bb bc01 61bb 509c bf3b 2a64 58bb
000001c0: 0bc5 98bb c01a 2439 7c6b 7a3b 021d 0d3b
000001d0: 96d9 c53a 5c3e d63a fefd 993b d189 e43b
000001e0: 00aa 493a cd33 183b c88b a53b a13f a13b
000001f0: d53b cf3b 9c8b 00bb ac61 cf3a 486f e6b9
00000200: e4a2 ccbb b210 73bb 8302 6d3b 4264 613c
00000210: d213 f53b 2c6d 95ba 8e61 89bb dc04 133c
00000220: 1ad0 483c 4acc dd3b 55dc a93b d81a 643a
00000230: 247d 133c f645 c63b 6cf9 463b a363 c93b
00000240: dbce fc3b 3db9 b23b 84a3 353b dbe7 083b
00000250: f95f 163c 2a7d 733c 90b8 f439 21c3 ea3b
00000260: 303c df3b 80d9 173c 5613 b03b aca5 a5ba
00000270: 40c5 d9b8 7e45 123b 8095 11ba f08f 5f3b
00000280: 10e3 87bb 583f 3cbb 4e72 9cbb 6166 bfbb
00000290: c9bc 61bb 5a13 29bb 2313 323a 53dd feba
000002a0: c4d6 ddbb 40b2 80bb 6983 c7bb cf7f 86bb
000002b0: 35b9 d2bb fd40 b3bb 5584 9bbb 00aa 0dbc
000002c0: ee89 b4bb 7c60 86ba 2863 2039 b3bb c13b
000002d0: 68af 96ba 0f80 de3a 7fb0 99ba 988d c73a
000002e0: be37 263c cdbe 2b3b bbd5 c43b e79d 633b
000002f0: 9645 c03b 62dd 233c cbd7 a23b 2e53 1e3c
00000300: cb2e 243b d860 ccb9 82a7 8e3a bb72 e23b
00000310: bcec 333c 17a0 413b 9cd5 8c3a c4d0 ba3a
00000320: fd5a bdbb d676 29bb 4ad1 513b f2e6 4a3b
00000330: 8807 10ba 0244 fcbb 9363 eaba 3ab8 af3b
00000340: 1b76 1f3c 7466 f13b 38eb 3bbb acc3 d83a
00000350: d16c 523b 1819 bb3b c611 b83b 5a4b 7e3b
00000360: cdde f53b 1f54 b73b d8a2 083c 8ce0 be3b
00000370: 7158 493b 08b7 e83b 43ad bb3b 626e c93b
00000380: 16c7 9b3b 9ff1 b3ba 3539 cb38 2c13 66bb
00000390: 29f9 2dbc ef41 3dbc 7afb 0cbc f00a a4b9
000003a0: 2692 2dbb 5ca0 e5bb 9108 aebb f006 67b9
000003b0: 20a6 e83b c01e 0d3c 4e66 a53b b28d ac3b
000003c0: 082b 47bb 971b 2c3c 421d 003c fce6 6d3b
000003d0: bf06 973b 8098 10b9 a4b4 e53b bc7a 023c
000003e0: 9912 e43b a878 a13b

exp_avg_sq f4 [10, 1, 5, 5]
0.0007848649 0.000648866 0.00061281456 0.0006455678 0.00071506866 0.00072930823 0.00056714093 0.00062368944
0.0006504779 0.0006107124 0.00071825326 0.0004583493 0.0006855535 0.00069627224 0.0005918015 0.0007269461
0.00053040957 0.0007397783 0.00070216093 0.00063090614 0.0007885202 0.0007072915 0.00072056253 0.00067522854
0.00070643873 0.0007894868 0.0007364269 0.00073135976 0.0006831969 0.0007774644 0.00059368875 0.00072769617
0.0006666562 0.0005953566 0.000829155 0.00056191057 0.0006997289 0.00052017014 0.00062616414 0.0009984756
0.00063260697 0.0006635202 0.00054411637 0.00086756865 0.0011505857 0.00066724175 0.0007591351 0.00091389194
0.0010741099 0.0012078523 0.0014999105 0.0014821842 0.0013161326 0.0013246593 0.0014487779 0.0014265717
0.0013117471 0.0014682887 0.0014049677 0.0012801768 0.0016849344 0.0018876051 0.0014791294 0.0013544508
0.001332346 0.0016864191 0.0014349397 0.0015193026 0.0013592663 0.0015052331 0.00156841 0.0017138517
0.0015801808 0.001429505 0.0017341257 0.0009901795 0.0009396537 0.0009073796 0.0009069485 0.0008417747
0.0009903263 0.0009378017 0.00085688493 0.0008020774 0.00081341644 0.0010130327 0.000953147 0.0007885665
0.0007953099 0.0008050631 0.0010046246 0.00088588824 0.0007606023 0.0009047904 0.00078785967 0.0009652655
0.0008569611 0.00091165793 0.0009452204 0.00074859156 0.0006537129 0.00070955214 0.00074635335 0.0006810191
0.0007735783 0.0006162984 0.0006774463 0.0005595872 0.0006357532 0.0008435778 0.00058594765 0.00040295182
0.0005630269 0.0007971993 0.0009354989 0.0005545572 0.0004999785 0.00076879887 0.0009378449 0.0010031171
0.0006655551 0.00084213197 0.00092954707 0.0010019375 0.0010605173 0.0013898656 0.0013701046 0.0014318236
0.0013837097 0.0014836623 0.0013388059 0.0012873993 0.0012585862 0.001367161 0.0015184942 0.0012786093
0.0012376767 0.0012924894 0.0014387158 0.001552673 0.0011823521 0.0012107892 0.0013661719 0.0014712848
0.0015135289 0.0011479864 0.0012492671 0.0013693621 0.0014536134 0.0013972711 0.0020829835 0.0015795642
0.0015726102 0.0018237708 0.002260807 0.0020271908 0.001668219 0.0016783574 0.0018745463 0.0023662038
0.0019070235 0.0015582725 0.0016469493 0.0019321895 0.0024042667 0.0017060477 0.0016424084 0.0019146982
0.002080563 0.0025032891 0.0017160613 0.001956924 0.0021824983 0.0022838274 0.0025695676 0.0019595334
0.0017386004 0.0013178932 0.001070149 0.0009597414 0.0018354678 0.0014805765 0.0011554583 0.0009787247
0.000871139 0.0017573795 0.0014318052 0.0010199855 0.0010471292 0.0012718701 0.0017537844 0.0013322998
0.0009066416 0.0010670997 0.0014140146 0.0016719191 0.0011768066 0.00096439396 0.0011313683 0.001307673
0.00091353274 0.0010176513 0.0011056083 0.0009938494 0.00085448084 0.00084154843 0.0009816497 0.0010620641
0.0008236933 0.0007712337 0.00077041704 0.00091395405 0.000831788 0.00067285466 0.0006836894 0.00065366534
0.00077587034 0.0006096859 0.0005840969 0.00073707517 0.0005809438 0.000595527 0.0006533626 0.0007929899
0.0008581504 0.00048038832 0.0004171113 0.00041612255 0.00046514196 0.00051838293 0.000455526 0.00041524603
0.00039381903 0.00040299844 0.00048628903 0.00048713607 0.00044910942 0.0003753709 0.00043467962 0.0005137499
0.0005093814 0.0004908872 0.00049478834 0.0005164831 0.0005327661 0.00056942616 0.0005858361 0.0006084492
0.0005966509 0.00058095943
00000000: 64bf 4d3a a918 2a3a 4aa5 203a 523b 293a
00000010: 7273 3b3a 0c2f 3f3a 2fac 143a 177f 233a
00000020: d584 2a3a 3718 203a 2949 3c3a 9a4e f039
00000030: b7b6 333a 0a86 363a 2023 1b3a 8790 3e3a
00000040: 2f0b 0b3a aeed 413a 3911 383a 6563 253a
00000050: b2b4 4e3a 8769 393a 22e4 3c3a d201 313a
00000060: 4d30 393a 90f5 4e3a c60c 413a b9b8 3f3a
00000070: 9118 333a c1ce 4b3a c7a1 1b3a ddc2 3e3a
00000080: 8ac2 2e3a b511 1c3a a65b 593a 2e4d 133a
00000090: 036e 373a 075c 083a 2a25 243a 48df 823a
000000a0: 89d5 253a 16f0 2d3a 08a3 0e3a 8c6d 633a
000000b0: 40cf 963a d6e9 2e3a b200 473a 4092 6f3a
000000c0: 26c9 8c3a cc50 9e3a a598 c43a d945 c23a
000000d0: 1582 ac3a 31a0 ad3a ebe4 bd3a cefb ba3a
000000e0: eeee ab3a 9873 c03a e526 b83a 9bcb a73a
000000f0: 04d9 dc3a 8469 f73a 59df c13a d487 b13a
00000100: 1da2 ae3a d60a dd3a 9614 bc3a 5623 c73a
00000110: 6929 b23a 3e4b c53a 1b93 cd3a 52a3 e03a
00000120: 121e cf3a 3a5e bb3a 9a4b e33a e9c8 813a
00000130: 1853 763a 37dd 6d3a 49c0 6d3a 8baa 5c3a
00000140: d6cd 813a cfd6 753a 93a0 603a 8142 523a
00000150: 743b 553a bdc7 843a 9ddc 793a cdb7 4e3a
00000160: 587c 503a df0a 533a 9cad 833a f43a 683a
00000170: 2863 473a 752f 6d3a 5e88 4e3a df09 7d3a
00000180: b0a5 603a 54fc 6e3a abc8 773a 213d 443a
00000190: ee5d 2b3a 3d01 3a3a eda6 433a 6b86 323a
000001a0: f6c9 4a3a 168f 213a a796 313a 43b1 123a
000001b0: ada8 263a 8c23 5d3a 489a 193a 4743 d339
000001c0: 1898 133a 24fb 503a 453c 753a b45f 113a
000001d0: fd10 033a 3889 493a b5d9 753a 067b 833a
000001e0: a678 2e3a 85c2 5c3a d9ac 733a 7253 833a
000001f0: 0e01 8b3a 272c b63a 1595 b33a 07ac bb3a
00000200: 985d b53a 7277 c23a df7a af3a f4bd a83a
00000210: 25f7 a43a 5032 b33a 3608 c73a 0297 a73a
00000220: 8a39 a23a bf68 a93a 4b93 bc3a 1083 cb3a
00000230: 27f9 9a3a 58b3 9e3a 1f11 b33a 20d8 c03a
00000240: 9a61 c63a 0878 963a 73be a33a 2b7c b33a
00000250: 2c87 be3a a324 b73a aa82 083b 6109 cf3a
00000260: 0b20 ce3a 980b ef3a 0c2a 143b 9eda 043b
00000270: 24a8 da3a 54fc db3a 56b3 f53a 5012 1b3b
00000280: 17f5 f93a f33e cc3a 73de d73a 8541 fd3a
00000290: e790 1d3b 769d df3a 1546 d73a 9cf6 fa3a
000002a0: 0e5a 083b 390e 243b 76ed e03a bd3f 003b
000002b0: 3f08 0f3b 44ac 153b 3166 283b 846b 003b
000002c0: c0e1 e33a 28bd ac3a 3e44 8c3a 2897 7b3a
000002d0: 1494 f03a e70f c23a bf72 973a 8d48 803a
000002e0: 265d 643a df57 e63a 69ab bb3a 09b1 853a
000002f0: d33f 893a e1b4 a63a 3ddf e53a 90a0 ae3a
00000300: b0ab 6d3a eddd 8b3a 7556 b93a 4c24 db3a
00000310: 143f 9a3a 62cf 7c3a 6c4a 943a 3a66 ab3a
00000320: 257a 6f3a b662 853a 0fea 903a 0d44 823a
00000330: 3dff 5f3a 5c9b 5c3a b3aa 803a f534 8b3a
00000340: 1fed 573a 9e2c 4a3a d0f5 493a 6b96 6f3a
00000350: 590c 5a3a 8362 303a 9e39 333a bd5a 2b3a
00000360: c763 4b3a 54d3 1f3a 141e 193a 4738 413a
00000370: 7a4a 183a 241d 1c3a 6c46 2b3a a7e0 4f3a
00000380: 80f5 603a a1dc fb39 bbaf da39 062b da39
00000390: 4cde f339 17e4 073a aad3 ee39 61b5 d939
000003a0: 7f79 ce39 8949 d339 9cf4 fe39 4c66 ff39
000003b0: 7276 eb39 6ecd c439 b6e5 e339 2cad 063a
000003c0: 0288 053a e2ae 003a afb4 013a 9864 073a
000003d0: 54a9 0b3a 8b45 153a cc92 193a 5680 1f3a
000003e0: 9068 1c3a 874b 183a

exp_avg f4 [10]
-0.004891189 -0.00053641293 -0.007951103 0.018940687 -0.0044246297 -0.002554432 0.0129237 0.0024196221
0.003354621 -0.0017707596
00000000: 4446 a0bb 109e 0cba 5845 02bc 8029 9b3c
00000010: 7cfc 90bb 4268 27bb edbd 533c 8692 1e3b
00000020: 33d9 5b3b d518 e8ba

exp_avg_sq f4 [10]
0.0012185719 0.001393601 0.0041295527 0.0010999806 0.0010614493 0.0015940001 0.003220719 0.0024573107
0.0009248888 0.000516445
00000000: 7db8 9f3a 7da9 b63a 3351 873b 392d 903a
00000010: 5420 8b3a c5ed d03a b312 533b d50a 213b
00000020: 3d74 723a 0a62 073a

exp_avg f4 [20, 10, 5, 5]
2.5220797e-05 -0.0009815991 -0.005031029 0.0020913505 0.0028678998 -0.000871195 0.0020757955 -0.00055777037
0.0015735314 0.0031542294 0.00022221939 0.0021323203 0.0026442313 0.0008419904 0.0023509292 0.000658192
-0.00061650854 -0.00078330014 0.0011983844 0.0017472345 0.0013163084 -0.0004518981 -0.0021964316 5.651855e-07
0.000907372 0.00014860384 0.00021755567 -0.002630579 -0.0043063965 0.000773578 9.7493226e-05 0.0002695492
-0.0011100044 -0.002708984 0.0010214788 -0.00011111176 0.0019326027 0.0011431195 -0.00016638568 0.001175628
0.00027289795 0.00437469 0.002651443 0.00021681935 0.00093520526 0.002002296 0.005266191 0.0015901923
-9.008116e-05 0.0006086862 -0.00093513995 -0.0013072352 0.0023759152 0.0039528357 0.0028176038 0.001621472
0.0032645608 0.002787135 0.002648499 0.0034403629 0.0009114305 0.0021227186 0.0021245012 -0.0011820509
0.0003709636 0.0029890407 0.0020570739 0.0015093108 0.0022377423 2.7266116e-05 -0.0035424791 -0.0012704316
8.336614e-05 0.0004867026 0.0010734692 0.00016673881 -0.002928516 -0.000888639 0.003504415 0.0017971394
0.0018568014 0.0024202967 0.0018017584 0.0008073404 -0.00044898404 0.005239313 0.0026851236 0.001352749
0.00019640265 0.00023847552 0.0065058204 0.0022568374 0.0013797635 0.0010909019 -0.00036972284 0.0027975473
-0.00027961202 0.0015528315 0.0015532135 0.00028064306 0.00015238312 -0.00036473596 0.0007166983 -0.0035399487
-0.0010380566 0.0013809645 -0.0007399669 -0.0008428464 0.00033177796 0.0010115011 -0.00013692988 0.00044614496
0.0014214399 0.00078040967 0.00082391605 0.0004007294 0.0018752334 0.0031231549 0.001227353 -0.0002293019
0.0016243594 0.0031958134 0.0027318134 -0.0014137445 -3.566132e-05 0.001876101 0.0024236792 0.001223754
0.0013212026 0.00083506224 0.0008621221 0.0014208922 0.0006427842 0.0019873418 0.0021550364 0.001674232
0.002623511 0.002153232 0.0027572482 0.0024723045 0.0024677797 0.003452835 0.0034524582 0.0029907315
0.0029802178 0.0020295708 0.0037375095 0.0022316035 0.001980844 0.0028138165 0.0031315957 0.0009630377
0.0027362993 0.0022662194 0.0030196658 0.007760922 0.005261579 0.0018664608 0.002172538 0.0042753303
0.0023013623 0.0041308743 0.0040433104 0.0039022048 0.0015920808 -0.004815067 0.00035160768 0.004629109
0.0049424046 0.0025190208 -0.0021661727 -0.0040763873 -0.0028902497 -0.0005539103 -0.00013102012 0.0024072547
0.0017229414 -0.00033913067 0.002635107 0.0033948733 0.0036901205 0.0056322077 0.0010903998 0.0004425636
0.0017971322 0.000716464 0.003691575 0.004003785 0.0014495165 0.0009964383 -0.0040109004 -0.0017084131
0.0016689335 0.0032355466 0.0021052582 -0.002390664 -0.0039796503 -0.0025562397 -0.0004374875 0.00036608128
0.0010364747 0.0036314877 0.0024232839 -0.00025636662 0.0015109705 -0.000106407664 0.0032184604 0.0023549898
0.00085655565 -1.545348e-05 -0.0023771736 0.0007493942 -0.00041517214 0.00022702292 0.0014215916 0.00072310574
0.003023908 -7.30888e-05 8.90777e-05 0.0007239414 0.0021961385 0.0035841495 0.0011537772 0.0034363212
0.0028411192 0.0015361665 0.001209897 0.00039180624 -0.002795475 -0.00016997408 0.0028057396 0.0005400231
-0.0019105327 0.0029681074 0.0035379003 0.0007548717 0.00037231517 7.3498755e-05 0.002001274 8.1759965e-05
0.0009874229 0.0034362713 0.0029364403 0.0019622925 0.0004495349 0.0049050166 0.0044246535 0.00091838755
-0.0002686467 -0.0006716857 -0.0054276073 -0.0012667432 -7.4737414e-05 -0.0030601814 0.00041301106 -0.0076424624
00000000: 4091 d337 00a9 80ba 55db a4bb 0a0f 093b
00000010: 60f3 3b3b e860 64ba 120a 083b 5637 12ba
00000020: f43e ce3a 30b7 4e3b 9003 6939 66be 0b3b
00000030: d74a 2d3b 05b9 5c3a 0c12 1a3b 848a 2c3a
00000040: 309d 21ba 6256 4dba 1c13 9d3a 7603 e53a
00000050: fb87 ac3a bcec ecb9 02f2 0fbb 40b7 1735
00000060: b4dc 6d3a 8ad2 1b39 a81f 6439 cb65 2cbb
00000070: ac1c 8dbb f1c9 4a3a 4775 cc38 4852 8d39
00000080: 917d 91ba 3689 31bb 24e3 853a ac04 e9b8
00000090: 634f fd3a bad4 953a d177 2eb9 8817 9a3a
000000a0: be13 8f39 8f59 8f3b d5c3 2d3b 005a 6339
000000b0: 9028 753a f438 033b 0390 ac3b 006e d03a
000000c0: f4e9 bcb8 3d90 1f3a 2e24 75ba 8957 abba
000000d0: 3eb5 1b3b ca86 813b 8ca7 383b 9287 d43a
000000e0: 3ef2 553b 5ea8 363b 7192 2d3b b677 613b
000000f0: 11ed 6e3a 4f1d 0b3b 373b 0b3b 0cef 9aba
00000100: e47d c239 c8e3 433b f9cf 063b 11d4 c53a
00000110: 16a7 123b 8ab9 e437 f028 68bb 9c84 a6ba
00000120: dbd4 ae38 1e2c ff39 a6b3 8c3a 9cd6 2e39
00000130: 58ec 3fbb 8ef3 68ba 54aa 653b fe8d eb3a
00000140: eb5f f33a d79d 1e3b fb28 ec3a b2a3 533a
00000150: 9e65 ebb9 8bae ab3b e6f8 2f3b b94e b13a
00000160: 6ff1 4d39 490f 7a39 c72e d53b 73e7 133b
00000170: 2ed9 b43a 98fc 8e3a 5cd7 c1b9 0e57 373b
00000180: e498 92b9 6188 cb3a 3295 cb3a 4623 9339
00000190: 08c9 1f39 083a bfb9 cfe0 3b3a 7cfe 67bb
000001a0: 660f 88ba 7b01 b53a 57fa 41ba 77f2 5cba
000001b0: 7cf2 ad39 5894 843a d694 0fb9 90e8 e939
000001c0: 9c4f ba3a 6894 4c3a 12fc 573a fd18 d239
000001d0: 64ca f53a d8ad 4c3b 22df a03a c370 70b9
000001e0: 75e8 d43a da70 513b 3908 333b 654d b9ba
000001f0: 0d93 15b8 81e7 f53a 97d6 1e3b 5f66 a03a
00000200: 342c ad3a 14e8 5a3a 0900 623a 3b3d ba3a
00000210: 8480 283a 103e 023b 833b 0d3b e771 db3a
00000220: 36ef 2b3b 3d1d 0d3b f3b2 343b 6306 223b
00000230: 79ba 213b f548 623b a342 623b 2600 443b
00000240: c24f 433b 8c02 053b 01f1 743b 1840 123b
00000250: 0cd1 013b 0268 383b 753b 4d3b 5e74 7c3a
00000260: 7c53 333b da84 143b 96e5 453b 554f fe3b
00000270: 5369 ac3b 08a4 f43a 2461 0e3b 1218 8c3b
00000280: 74d2 163b 495c 873b bf7d 843b 22bc 7f3b
00000290: 5ead d03a b6c7 9dbb fc57 b839 c8af 973b
000002a0: e5f3 a13b 2816 253b 59f6 0dbb 3793 85bb
000002b0: 586a 3dbb 4a34 11ba 7262 09b9 08c3 1d3b
000002c0: 52d4 e13a 59cd b1b9 c2b1 2c3b 867c 5e3b
000002d0: f3d5 713b 628e b83b bfeb 8e3a e207 e839
000002e0: c08d eb3a 16d1 3b3a 5aee 713b 2f32 833b
000002f0: b4fd bd3a ec9a 823a df6d 83bb d5ec dfba
00000300: 1ec0 da3a 770b 543b 5ff8 093b b0ac 1cbb
00000310: ba67 82bb 9686 27bb 945e e5b9 99ee bf39
00000320: 52da 873a 41fe 6d3b f5cf 1e3b f268 86b9
00000330: c20b c63a 2e27 dfb8 ceec 523b 2c56 1a3b
00000340: 7a8a 603a 18a2 81b7 5bca 1bbb fe72 443a
00000350: 76ab d9b9 000d 6e39 b354 ba3a ce8e 3d3a
00000360: c22c 463b 4047 99b8 3acf ba38 e3c6 3d3a
00000370: 17ed 0f3b 0de4 6a3b 573a 973a e733 613b
00000380: 1232 3a3b 3259 c93a 6895 9e3a 586b cd39
00000390: 4a34 37bb 123b 32b9 80e0 373b 5690 0d3a
000003a0: d76a faba 9484 423b 1edc 673b 95e2 453a
000003b0: 4c33 c339 5823 9a38 ce27 033b 8c76 ab38
000003c0: 6a6c 813a 1133 613b 4b71 403b ce99 003b
000003d0: 8eaf eb39 43ba a03b affc 903b f2bf 703a
000003e0: 26d9 8cb9 1014 30ba 12da b1bb d908 a6ba
000003f0: 58bc 9cb8 538d 48bb 6889 d839 9f6d fabb
