MNIST_/checkpoint/model_epoch1.pth (torch, 268573 bytes, 24 tensors)

conv1.weight f4 [10, 1, 5, 5]
00000000: 1cec 84bd c77c 373e dcdb a03e 19ab ad3d
00000010: 7134 41bd d0a2 06be 3286 3a3d 0183 083e
00000020: 6b09 773e da2a 8ebc a6df abbe 004a 493e
00000030: e8d4 b63e 680a 8e3d 6501 4bbe 3e21 96be
00000040: 683e a03d 88f3 913e 3648 213e 50b6 72bc
00000050: 355c 62be 4bda 603e 01fa 973e f478 f33d
00000060: 1828 8dbd 0be7 633d e58d 203e 2f99 123e
00000070: e674 97bb cc32 f7bc b3d8 42bd 8659 a43e
00000080: 2eaf f83d d1c0 f0bd d474 84be 607b a83d
00000090: d34f 143e b9f2 2d3e 6ce1 3dbd 39e5 6abe
000000a0: 9afe 863e 2aa6 e53c c484 66bd fb2b 54be
000000b0: 0651 4dbe 2a43 423e 7c9b 6f3e f651 a7bc
000000c0: 6ad5 83be e703 12be 2552 963e 5cb3 cb3e
000000d0: a370 c43d f4dc 133e dafd 3ebe 8276 66bd
000000e0: 8146 f2bd bd19 9cbd 348b eb3d 202d d53d
000000f0: c83a d4bd 0253 8ebe 59ee 743d 5415 793a
00000100: 8ad5 7b3e ee66 35bc c903 74be 8f49 42bd
00000110: 024f 493e 0d25 9bbd 75d9 1c3e be29 9a3e
00000120: 5b63 4c3d 53dd 5bbd cd32 0c3e 8e58 35be
00000130: 78fc 82bd b9d9 b13d 7c47 8fbb 93f3 dfbd
00000140: f7b5 b2be d36b 1cbe b2fa 6ebe cda9 bc3d
00000150: b66a 503e 1aeb 07bd 7bc6 8bbe 2ddd 82be
00000160: f497 583e 22bc 163e 1be5 a3be 3ab9 45be
00000170: f15f 983d 07ac ac3e de94 633e 58b8 15be
00000180: b440 b13c 5442 913e 73c3 963e 505c a83e
00000190: 1b14 c13d 12c9 cc3d 4d63 6c3e 6e1d 95bc
000001a0: e04a eb3b 8927 773e 619b 223e ce7e 013d
000001b0: 8895 7dbd 4b29 7ebe b894 d73e 1068 853d
000001c0: 62f2 6ebe e4f5 11be f2f9 98bc c55c ac3e
000001d0: b132 843d fc54 56be 5b07 69be 901a 08be
000001e0: 0c3a 983e eb91 c4bd a01b c3bd 539e c83a
000001f0: 055e bfbc b25d 9bbd 4271 6c3d 2965 3e3e
00000200: eee9 ea3b 181b 5fbe 1ab7 1cbe ef80 493e
00000210: 5cae 203e ee79 40be 7e1e 29be 1c1b b8bd
00000220: e08d 0cbd fa7c 06bc 2d47 02bd d483 80be
00000230: e4b5 57bd c651 66bd 0f17 173d e433 e83c
00000240: eaf7 3ebe 5651 00bc 9c8f 11be 4b9d e53d
00000250: 7942 85be cc7e 97bd e41f 1a3e 1c96 5e3e
00000260: 7516 8d3e f693 ad3e 411e 983e 41ff 923e
00000270: 9248 2b3e ead5 8d3e 392d b13d 6006 ab3e
00000280: da52 c63c 98b3 1c3e 1a8d 10be a409 283d
00000290: 3d6a da3d 5852 85be 556e 8bbd 2e8c 90be
000002a0: 0ab4 e7bc 7132 54bb 2137 cabe e33f debe
000002b0: 81b2 bebe 9439 c8be 52b2 2abd dd99 c33d
000002c0: ca3c a63e b131 363e daf6 273e 187b 0bbc
000002d0: c4be 753e 2a6b 2d3e a343 973d e14d 1e3e
000002e0: a472 8abd dba8 63be 3055 94bd f8b0 053d
000002f0: 8b25 883e 7646 8e3d ac5d 13bd 4308 aebd
00000300: 90b8 9fbe 8a55 d1bc 467f c63c 4ed5 bfbe
00000310: b738 a3bc 82af 8bbe e91b 99bd 5508 733d
00000320: a980 85bd bddc 723c dedc 993e 72dc 033e
00000330: 3982 273d 92a2 debd bdcd 213e f089 b23d
00000340: 8bf3 97bd 9125 96be 8d5e 593e e2eb 6b3e
00000350: 9308 20bd 63c1 76be 6604 a6be 8ad1 b0bd
00000360: 2b21 aa3e c086 663e 2b08 50be 6614 733d
00000370: 05a9 723c a1d6 6b3e 7a15 913e f032 133d
00000380: c735 653e aea6 51be 6e63 8b3e 0b52 8b3e
00000390: 024f 4a3e dee5 163c 7fd5 843e 6a9d b63e
000003a0: 2aca ac3e 7644 01bc 07d9 ed3c f331 4ebd
000003b0: db2b a03d 8041 a6bc 3e83 74be 2ad4 bfbe
000003c0: 503c 2a3e 163a 933d 9a76 723d 7878 43be
000003d0: 98d9 24be 8ba2 e13d aaa1 c7bd 70c3 e73d
000003e0: a0ef 2fbe 689e fc3d
-0.06490347 0.17918693 0.3141774 0.084799 -0.047169153 -0.13148046 0.045538135 0.13331224
0.24124686 -0.017354418 -0.33569068 0.19657135 0.3570931 0.069355786 -0.1982475 -0.29322237
0.07824403 0.28506112 0.15750203 -0.0148139745 -0.22105487 0.21958272 0.29682925 0.11888304
-0.06892413 0.05564026 0.15679128 0.14316247 -0.0046220897 -0.030175589 -0.04756994 0.3209955
0.12142788 -0.11755527 -0.25870383 0.08226657 0.14483576 0.16987123 -0.046357557 -0.22939004
0.2636612 0.028033335 -0.05627896 -0.20719902 -0.20050439 0.18970934 0.23399156 -0.020424824
-0.2574876 -0.14259301 0.29359546 0.39785278 0.09591796 0.14439756 -0.18651524 -0.05626536
-0.11829854 -0.07622097 0.1150116 0.104089975 -0.10362774 -0.27797705 0.05979762 0.00095017743
0.24593177 -0.011071904 -0.23829569 -0.047433432 0.19659045 -0.07575426 0.15317328 0.30109972
0.04989944 -0.053677868 0.13691254 -0.17709562 -0.06395811 0.086841054 -0.0043725353 -0.1093513
-0.34904453 -0.15275507 -0.2333782 0.092120744 0.20353207 -0.033183195 -0.27299866 -0.2555937
0.21151716 0.14720204 -0.3201073 -0.1930894 0.07440174 0.33724996 0.22224757 -0.14621103
0.021637298 0.28370917 0.2944599 0.3288293 0.09427663 0.099992886 0.23084755 -0.01820251
0.0071805567 0.24136175 0.15879585 0.03161507 -0.061910182 -0.2482044 0.4210565 0.06513989
-0.23334649 -0.14253956 -0.01867387 0.33664528 0.06454981 -0.20930856 -0.22756712 -0.13291383
0.29731786 -0.09598144 -0.095267534 0.0015305973 -0.023360262 -0.0758623 0.0577252 0.18593277
0.007169 -0.21787679 -0.15304223 0.1967809 0.15691513 -0.18796512 -0.16515538 -0.08989546
-0.03431499 -0.008208508 -0.03180616 -0.25100577 -0.0526637 -0.05623033 0.036887225 0.028345056
-0.18649259 -0.007831892 -0.14214939 0.11211642 -0.26027277 -0.073972315 0.15051228 0.2173695
0.27556196 0.33901948 0.29710582 0.28710368 0.16726902 0.27702266 0.08651204 0.334033
0.024209429 0.15302885 -0.14116326 0.04102482 0.106647946 -0.26039386 -0.068081535 -0.2823195
-0.028284092 -0.0032378698 -0.39495185 -0.43408117 -0.37245563 -0.3910643 -0.041673966 0.095508315
0.32468253 0.17792393 0.1640276 -0.008513235 0.23998553 0.16935411 0.073859476 0.15459396
-0.06760147 -0.22232382 -0.07242811 0.032639474 0.26591143 0.06947033 -0.035978004 -0.084976695
-0.31195498 -0.025553484 0.02423061 -0.37467426 -0.019924505 -0.2728234 -0.074760266 0.059334118
-0.065186806 0.014823136 0.3005132 0.12877062 0.040895674 -0.108708516 0.15801139 0.08717716
-0.07419499 -0.29325536 0.21227475 0.23039201 -0.039070677 -0.24097209 -0.3242523 -0.086337164
0.3322843 0.2251234 -0.20315616 0.059345625 0.014810805 0.23031093 0.28336698 0.03593725
0.22383796 -0.2047374 0.27224296 0.2721103 0.19756702 0.009210078 0.25944135 0.35666972
0.3374799 -0.0078898575 0.02903415 -0.050340604 0.07820865 -0.020294905 -0.2387819 -0.37466556
0.1662457 0.071888134 0.05919514 -0.19088924 -0.1609863 0.11017331 -0.09747632 0.113165736
-0.17181253 0.12334901

conv1.bias f4 [10]
00000000: 131c 8fbc f2b7 b03a aa84 813e d077 803d
00000010: e591 2cbe 913a 83be 2396 a23e 1876 b63e
00000020: 3794 243e 8c81 b33e
-0.017469442 0.0013482554 0.25296527 0.062728524 -0.1685253 -0.2563062 0.3175517 0.35636973
0.16072164 0.35059774

conv2.weight f4 [20, 10, 5, 5]
00000000: f704 7dbd 9e85 1f3d c330 e93d 088b 043d
00000010: 0967 62bd 84a9 cbbc 090d f63d 69f2 133e
00000020: f0fa 893d 5468 cebc a9c9 0abd d4cd c23b
00000030: 6dc4 c23d 4b16 85bd 6da6 b4bd d26e 3ebd
00000040: 4d5d ac3a 9044 623c 3343 78bd ede1 9cbd
00000050: 632b 23bd 650e b5bd 6450 823c 4190 7ebc
00000060: 10c7 bcbd ef8f 31bd ace4 a0bd 8e18 d33c
00000070: 27d2 d63d 3372 a33c 9a71 0abe 45ca dc3b
00000080: 230a 6b3d 2077 193d e65b e83c 3796 b1bd
00000090: 4a25 933c a043 8a3d e89e 6f3d fba4 06bd
000000a0: 42ff 183d c19d a9bb 9c59 483d 0cb4 54bd
000000b0: 3095 da3c 3ea9 8e3c 8814 38ba 3671 9d3c
000000c0: ef17 88bc 7bce 263d 6e1d e2bc a438 863c
000000d0: 6485 78bd 2232 acbd 1004 c1bd eaae d43c
000000e0: c653 bb3c 1cb8 9c3c 7661 edbd 02fd 75bc
000000f0: 9b0c 863d 01d6 01bd 4795 02be d57b dbbd
00000100: 840d 6fbd e012 8ebc 83b7 03be a2e8 2bbd
00000110: 688f efbd 6dd2 a3bd 9ba3 8dbd 45e2 ffbc
00000120: 179b 90bd 86a0 5cbd 8c60 2bbc 41e0 d43c
00000130: eea1 d93d c4fd a63d 2e75 d2bd 2071 bfbd
00000140: d46b 733d 59eb 653d f675 dcbb b5db 1bbe
00000150: a46f 10be 8db1 9c3d 9733 c43d 09f3 163d
00000160: b565 1bbe 27f2 a7bb 945a 893d 5ed5 0b3d
00000170: 09ff 82bd f642 23be 66d1 a9bc d40f 85bc
00000180: 7993 053d 6376 29bc 43c2 0abc 7a5c 8dbc
00000190: e8d2 40bd 59ce 28be d31e 8c3d ec1e e73d
000001a0: 5320 e4bb 1667 3cbe a5e5 933c 8a9b 933d
000001b0: cd27 253e b52c 643a 2da9 11be caad 7e3d
000001c0: 5230 003e e7c5 003e dff7 b4bd 3df0 46bd
000001d0: 7109 9b3d 4c97 87bc 014a 91bd 5a65 b4bd
000001e0: 6f92 e03d e518 da3c 8004 07be 7308 25bd
000001f0: 3244 b7bc f5bc 433c 2a34 1dbd 8758 483d
00000200: abbe 28bd de33 29bd 08c5 3dbd 0e38 2c3d
00000210: f05d 93bc 06d0 4b3d 2741 c4bc 90af 31bc
00000220: becc 82bc 6e4a fd3a 19b9 0cbd 35ad 0cbd
00000230: db21 f2bc 656d 493d e562 893d 312c 27bd
00000240: b475 18bd 2d41 453c 130b 183c 4b33 403c
00000250: a600 dc3c 6ded 5fbd 6591 63bd d09d 63bd
00000260: d990 cbbd 1701 173d a3f1 6e3d 160c 2e3d
00000270: 46d4 10bd e92d 6dbd ff42 1f3d 68af 063d
00000280: c570 c83b 0876 8dbd e65b ba3c 28cb c6bd
00000290: a854 b1bc 244d 3fbd 2a5a 13bd 0e87 16bd
000002a0: f88e b4bd 5b3c c1bd 18d7 0ebd ab8d 2e3d
000002b0: 6bbc 033b 620a a7bd 3d9d 04be bb55 dfbd
000002c0: 6947 c6bd d65e 8abd 97e3 58bc cb77 09bd
000002d0: e3f2 25bc 7df2 b3bc 6a2d 093d 652d 873b
000002e0: 492a 433d d306 06be 62ba 33bb 3c20 2f3d
000002f0: 5cb7 c5bc 0b58 bebc dba5 0ebe 8f20 83bc
00000300: dc80 af3d 8293 87ba 50aa bbbd 9f4c 213c
00000310: f72d 063d c166 e4bc 9f24 a5bc 4e77 07be
00000320: 4b3e c1bd b801 9fbd 6430 803c a046 dd3d
00000330: e25a 18bd 5f1c 6ebe ef1d b93b 3c72 923b
00000340: 157f d63d 8d77 46bd 5929 1dbe dee5 293d
00000350: 04b7 ba3c 2cfb 963c 51fa a1bd 8fa1 38bb
00000360: cc44 bbbb 8183 70bc fa25 8abd 52bc 9bbc
00000370: b036 143d 3ad1 41bd 097a 46bd ab68 0a3c
00000380: 26a4 41bd 6253 0cbe 8017 c3bd 0c19 94bc
00000390: 61ee 8b3c 5ad7 8e3c 9427 26bd fc93 b83c
000003a0: bc47 fb3d 1dd9 623d c23a 373d 9c6e 43bd
000003b0: 7f28 da3c c2ab bf3d f3b4 923d fcde aabd
000003c0: b0e5 7cbd 7ded 3a3d 96f8 11bc 1d05 a8bd
000003d0: ab99 25be 9cd5 583d f2a4 a8bd cc9f b0bd
000003e0: 0f44 01bd 73ea 43bd f8f6 27bd 71af b13c
000003f0: d56e f5bd eb0f fabb c48e b13c e9c8 e6bd
-0.061772313 0.038945787 0.11386254 0.032359153 -0.055274043 -0.024861105 0.12014205 0.14447941
0.06737316 -0.025196232 -0.033883724 0.005944947 0.095101215 -0.06498393 -0.08820806 -0.046492405
0.0013150364 0.013810292 -0.06061096 -0.076602794 -0.0398363 -0.08840636 0.015907474 -0.0155373225
-0.09217656 -0.043350156 -0.07856116 0.025768545 0.10489302 0.019951915 -0.13519898 0.0067379796
0.057382714 0.037467122 0.028364133 -0.08671229 0.017962117 0.0675118 0.058501154 -0.03287218
0.037352808 -0.0051762764 0.048913583 -0.05192952 0.026682466 0.017414685 -0.00070221024 0.019219022
-0.016612975 0.04072426 -0.027601924 0.01638443 -0.060674086 -0.084079996 -0.09424603 0.025962312
0.022867095 0.019130759 -0.11590855 -0.015013935 0.06545373 -0.03169823 -0.12752257 -0.107169785
-0.0583625 -0.017342985 -0.12862973 -0.041969903 -0.116972744 -0.0799912 -0.06915971 -0.031235823
-0.07060831 -0.053864025 -0.01046003 0.025985839 0.10626589 0.08153871 -0.102762565 -0.09347749
0.059429005 0.05613265 -0.006727929 -0.1522053 -0.14105088 0.076510526 0.095801525 0.03685287
-0.15175517 -0.0051253024 0.067067295 0.03413903 -0.063963 -0.15943512 -0.020729732 -0.016242899
0.032611344 -0.010343167 -0.008469167 -0.01725601 -0.047076136 -0.16484965 0.06841817 0.11285195
-0.006961861 -0.18398699 0.018053839 0.07207401 0.16128464 0.00087041716 -0.14224692 0.062177457
0.12518433 0.12575494 -0.0883634 -0.048568953 0.0757016 -0.016551636 -0.07094193 -0.08808394
0.1096543 0.026623199 -0.1318531 -0.04029126 -0.022371385 0.011946906 -0.038379826 0.04891255
-0.04119746 -0.04130923 -0.04633048 0.042045645 -0.017989129 0.049758933 -0.023956848 -0.01084508
-0.01596677 0.001932455 -0.03435621 -0.03434487 -0.02955716 0.049176592 0.06708316 -0.04081363
-0.037221625 0.012039465 0.009279984 0.011730979 0.026855778 -0.054669786 -0.05555858 -0.055570424
-0.09939737 0.036866274 0.05833591 0.042491995 -0.03535869 -0.05790511 0.03888225 0.032882124
0.006116959 -0.06907278 0.022748899 -0.09706718 -0.021646813 -0.046704426 -0.03597466 -0.036749892
-0.088163316 -0.0943534 -0.034873098 0.042615574 0.002010132 -0.08156277 -0.12950607 -0.10905024
-0.09681589 -0.0675637 -0.013237855 -0.03356151 -0.0101287095 -0.021966213 0.033490576 0.0041252845
0.04764775 -0.1308854 -0.0027424325 0.04275535 -0.024135284 -0.023235342 -0.13930456 -0.016006736
0.085695 -0.0010343643 -0.09163344 0.009844928 0.03275868 -0.027881028 -0.020159064 -0.13229105
-0.094357096 -0.07764 0.015648074 0.10804486 -0.037196048 -0.2325301 0.0056493203 0.004469184
0.10473458 -0.048453856 -0.15347804 0.041478984 0.022792347 0.018430315 -0.07909072 -0.0028172468
-0.0057149883 -0.0146797905 -0.06745525 -0.019010697 0.036184967 -0.047318675 -0.048456226 0.008447806
-0.047275685 -0.13703683 -0.09525967 -0.01807835 0.017081441 0.017436672 -0.04056509 0.022531502
0.122695416 0.055382837 0.04473377 -0.047712907 0.026630638 0.09358932 0.071634196 -0.08343312
-0.061742485 0.045636643 -0.008909365 -0.082041 -0.16171901 0.05293809 -0.08234586 -0.08624229
-0.031559046 -0.04783101 -0.041007012 0.021690102 -0.1198403 -0.007631292 0.021674521 -0.11268789

conv2.bias f4 [20]
00000000: 57a7 193c 88de 3b3d 1740 9c3d 2657 0b3c
00000010: c4cc b8bb cb6a dbbc 8cca 8abd 9fb6 a0bc
00000020: d0ef a83d 8aac 5dbd e2aa 3a3d 8ee2 18bd
00000030: 20da 78bd a0b4 b23c c247 6b3d c287 bfbb
00000040: f206 6dbd 43d0 9dbc e5ba 6abd 0d43 f43c
0.009378276 0.04586652 0.07629412 0.0085046645 -0.0056396443 -0.026784321 -0.06776914 -0.01961833
0.082488656 -0.054119624 0.045573123 -0.037325434 -0.060754895 0.021814644 0.05744148 -0.005845041
-0.05786795 -0.019264346 -0.057307143 0.029817129

fc1.weight f4 [50, 320]
00000000: 365b 923c 4eef 563d 4cd6 d23c 4ecb 823d
00000010: 4d05 98bc 62f0 3bbb 72d0 cbbc e4d7 7d3d
00000020: dde5 e33b 447c 9abd 54e3 203d 3f05 043e
00000030: ada2 083e 3ea0 50bd 81ed 15bd d897 973c
00000040: fa85 19bd 9dec 16bd bf7b 70bb 841a 50bc
00000050: b22f d83a b28e 063d ee66 b33c 108f 75bd
00000060: b247 033d 5ed6 4fbc b19e 443d 67f5 863d
00000070: cffa 18bd 64ee 23bd b867 45bd 1daf 1dbc
00000080: b5d7 63bd fb8f 93bc e853 e8bb f8fb aebd
00000090: 89b5 7c3c 1f84 de3b f9ec 673c 2b66 06be
000000a0: 3b30 883d 0a28 e43c 2bc5 c83c 57a2 81bc
000000b0: 822b 7d3d 1abd 243d 4c18 d1bb 3a26 b83d
000000c0: 4ebb 47bd a062 dfbd 8ac7 12bd 0f34 82bd
000000d0: f545 f03c d7d3 0c3c 4a69 dbbb 669d d8bd
000000e0: b296 ce3d 19ae b23d 4092 243d 7a08 4fbc
000000f0: f73c b43d a115 133d 71bb b0bd 4062 833d
00000100: 1599 7fbd d411 6abd 03be a7bc fb1b 213c
00000110: 028f ea3c 0e25 bbbd bc37 dc3d bead fb3c
00000120: ccf4 0c3d 5029 6d3c edc6 ab3d fcdf acbd
00000130: b6d5 2ebd 62dc 61bd 80a6 b4bd ca58 80bd
00000140: ed3c c13b 3604 66bd 5949 0dbd 47a5 f3bb
00000150: de71 573d 3556 a83c c272 103d 5da9 5cba
00000160: c923 c9bc d24b 9e3c 6fa6 623d 11e0 773d
00000170: 2d08 173d ec59 11be 4ef5 babc bdf8 c2bc
00000180: 0284 48bd 276e 54bb b878 4c3d f16e ce3d
00000190: 8c0e e7bc 37a4 053c 93ec 043d 3430 233e
000001a0: c672 af3d 4291 98bc f5f4 753d 2669 4dbd
000001b0: 6428 203d 512c 41bc 8262 3ebd 0447 98bd
000001c0: 36af 92bc 7d2d 4a3d f56e 333d 134f 85bc
000001d0: 5d3c 283b a3c7 ec3b b636 7bbd faff 003d
000001e0: e799 093d 12c8 60bd f4c3 363d 12ac 59bc
000001f0: dd93 febd ada3 ddbc e8bd e43b 9ca1 853b
00000200: 520c 27bd 6b33 9cbd 7c00 13bd 5924 90bd
00000210: 6e7a 48bd 07a1 86bd 5a59 aebd ad21 8bbd
00000220: 2d18 1bbd eca8 293d 23d2 093d 9684 a8bc
00000230: 8ca6 943c b161 03bd a469 ca3d b5fb a83d
00000240: 1293 9ebc 7663 1ebd a916 b0bc 8716 eabc
00000250: e98e fc3d da57 7ebb 2100 94bd 0ec0 04bd
00000260: 2200 373d 48ce b13d 210e 7abd f711 883d
00000270: 8ad0 a13c 8b20 c2bd 8129 8bba e6d4 4fbc
00000280: 9dfb 873a 0da5 d33c d27e 573d 1201 83bd
00000290: 5b21 123d 0300 0b3d df39 e3bc b6e4 57bd
000002a0: a7ec 85bd fcc0 94bd 6618 61bd c0d8 5abc
000002b0: 4824 e43b 6a24 91bb 0b2f bdbd 10c0 933d
000002c0: e411 abbc 59a2 2d3d fde3 603d 9061 aa3c
000002d0: 80c3 50bd 1f31 33bd a27e c73c 861a 723d
000002e0: ba6c 9c3c b7b0 88bd 7264 6d3d 89ef 57ba
000002f0: a017 a0bd 1a6e 2abd a4e5 7ebd 0441 b0bd
00000300: bc37 24bd 0315 913d dcf6 5d3c 46df 5f3d
00000310: 1669 4dbd f433 4bbd ac8f 9cbc bb3e ee3c
00000320: e6b8 5b3d 3fe1 a239 484f 633d 56fb 55bd
00000330: cb2e f4bd bb38 c4bd e8cd a8bc 138e d13d
00000340: 0af7 6b3d 9205 c4bb 5fb8 bb3d 839b 013b
00000350: 3627 a9bc afcc 83bd 8a02 803c 503e dabc
00000360: fed9 683d 3d78 f6ba 5762 89bd 108c 733c
00000370: 21c4 753c c9da cd3c dcc3 0c3d 94b1 8cbd
00000380: bca5 be3d fce7 8d3c e067 b5bd 26a0 483d
00000390: 437e 873d 15ed 963d 7dc5 e73c 574a 8a3d
000003a0: 313e ec3c 61aa dbbc bfc1 7cbd f4cc e53c
000003b0: 473f 17be 09db b2bd 8398 b1bd dd8f 9a3d
000003c0: 3bea 4dbd 5a07 2a3d 5648 5dbd 161f 0fbe
000003d0: a816 0bbc dc38 00bd 9ec6 01be 859f 44bd
000003e0: 1a4d cebc 8a7d 1bbd 63f8 aa3a 45b4 023e
000003f0: 7b96 113d bb97 0f3c 39b1 9539 4f96 d73d
0.017865758 0.052474312 0.02573695 0.063864335 -0.018557215 -0.0028677215 -0.024879668 0.061973467
0.006954892 -0.07543233 0.039279297 0.12892626 0.13343306 -0.05093407 -0.036603455 0.018505022
-0.037481286 -0.036846746 -0.0036694852 -0.012701634 0.0016493706 0.03285093 0.021899667 -0.05995089
0.032050796 -0.012685386 0.048002902 0.065897755 -0.037348565 -0.04002227 -0.048194617 -0.00962427
-0.055625636 -0.018012991 -0.0070900805 -0.08544153 0.015424141 0.0067906524 0.01415562 -0.13124911
0.06649824 0.027851123 0.02450808 -0.01582448 0.06180907 0.040219404 -0.0063810702 0.08991666
-0.048762612 -0.10907483 -0.035834827 -0.06357586 0.029330233 0.008595428 -0.006695901 -0.10576896
0.100873366 0.08724613 0.040178537 -0.012636298 0.088006906 0.0359093 -0.086295016 0.06415224
-0.06240185 -0.05714591 -0.020476347 0.009833331 0.028632645 -0.09137927 0.10752818 0.030722495
0.034413144 0.014475182 0.083875515 -0.08441159 -0.04268428 -0.055141814 -0.0882082 -0.06266935
0.0058971555 -0.05615636 -0.034493778 -0.007435474 0.052598827 0.02054892 0.03526569 -0.0008417571
-0.024553197 0.019323263 0.055334505 0.06051642 0.03687303 -0.14194459 -0.022822049 -0.023800248
-0.048954017 -0.0032414289 0.049919814 0.10079754 -0.028205179 0.008156828 0.032452177 0.15936357
0.08566813 -0.018623952 0.060048062 -0.050149105 0.03910102 -0.011790351 -0.046480663 -0.0743542
-0.017905813 0.049359787 0.04380699 -0.016273057 0.0025670745 0.007225947 -0.061331473 0.03149412
0.03359404 -0.054878302 0.04462047 -0.013285654 -0.124305464 -0.027055586 0.0069806464 0.004078103
-0.040783234 -0.07626995 -0.035889134 -0.07038183 -0.048944883 -0.06573682 -0.08513136 -0.067935325
-0.037864853 0.041420862 0.033647668 -0.020571034 0.018145822 -0.032075588 0.098834306 0.08251134
-0.019357238 -0.038669072 -0.02149518 -0.028575195 0.123319454 -0.0038809688 -0.07226587 -0.03240972
0.04467786 0.08681923 -0.06104863 0.066440515 0.01975276 -0.09478863 -0.0010617228 -0.012685036
0.0010374669 0.025835538 0.05261118 -0.063966885 0.03567634 0.033935558 -0.027737556 -0.05270835
-0.065392785 -0.07263371 -0.05495491 -0.013357341 0.006962333 -0.0044293897 -0.09237488 0.072143674
-0.020882554 0.042391155 0.054904927 0.020798475 -0.050967693 -0.043748017 0.024352375 0.059107326
0.019094814 -0.06674331 0.05795712 -0.00082372926 -0.07817006 -0.041608907 -0.06223072 -0.08606151
-0.040092215 0.07084086 0.013547625 0.05465629 -0.050149046 -0.049610093 -0.019111477 0.029082647
0.05364313 0.0003106687 0.05549553 -0.052241646 -0.119229876 -0.09581133 -0.020605996 0.10232177
0.05760864 -0.0059821093 0.09166025 0.001977653 -0.02064858 -0.06435525 0.01562621 -0.026641041
0.05684852 -0.0018804144 -0.0670821 0.0148649365 0.015000374 0.025128739 0.034366474 -0.06869808
0.09308955 0.017322533 -0.08857703 0.048980854 0.066158794 0.073694386 0.028292412 0.067524604
0.028838249 -0.026814641 -0.06170821 0.02805183 -0.14770232 -0.08733184 -0.086716674 0.07546971
-0.050272208 0.041510917 -0.054024063 -0.13976702 -0.008489288 -0.031304225 -0.12673423 -0.048003692
-0.02518325 -0.03796152 0.0013043996 0.1276408 0.0355439 0.008764203 0.00028551536 0.10526716

fc1.bias f4 [50]
00000000: 9d8e 32bd d040 a93c 5e60 8b3d 7d8a 9b3d
00000010: b9ca 0f3d e809 ae3d 437f 3e3c d4dc 293d
00000020: b338 cf3d dae9 13bd 8248 36bd 0868 9dbc
00000030: bb2e 073d 4eef c13b c962 403d 16e6 9f3c
00000040: db1d e73c 772c c3bc b1d3 35bd 7a86 2f3c
00000050: 031b b53d 7db1 efbc 06a8 f63c 9e3e 6d3d
00000060: eb03 983d 387f 3b3d b04f ab3b 27e8 9e3d
00000070: 4120 b03c 9f0b 70bb 16e5 063d beb5 efbc
00000080: 0c09 8f3d 46cd 14bd b804 d6bc 1a39 5abc
00000090: a93a 313d d415 cc3d 1b65 363c beba 95bb
000000a0: f56d 713c 639b e73d fbf9 2d3b 6078 a8bc
000000b0: f404 273c 2568 b33d 6387 073c b191 7c3d
000000c0: daae 8f3d 8578 ba3c
-0.043593038 0.020660788 0.0680549 0.07594774 0.03510544 0.08497983 0.011627021 0.041470364
0.101182364 -0.03611169 -0.044502743 -0.019214645 0.03300355 0.00591842 0.04696921 0.019518893
0.028212478 -0.023824913 -0.044391338 0.010713214 0.08843043 -0.029259438 0.030109417 0.057921045
0.07422622 0.045775622 0.0052280053 0.07759123 0.021499755 -0.003662802 0.032933317 -0.029261466
0.069841474 -0.036328577 -0.026125297 -0.013319278 0.043268833 0.09965101 0.011132504 -0.0045693805
0.014735688 0.113089345 0.0026546705 -0.020565212 0.010194052 0.08760098 0.008272025 0.06166238
0.07015772 0.022762546

fc2.weight f4 [10, 50]
00000000: b534 b2bd 9301 c73d 27b0 6dbe 1cb5 d1bd
00000010: 6dfd 26be 2f76 003e 6f4e 0d3e b860 59be
00000020: 1053 4bbe 3161 91bc 672d cabd 5dff e43d
00000030: 240d 8abc 4b0e 4fbe f163 bcbd 38e6 60bd
00000040: 18fa 953d b263 153e 7f45 0ebe d0db b23d
00000050: f9b7 813d 9b8f 0ebe 7281 f43d c60b f23c
00000060: f4f5 b03d e404 f3bb 95e4 b5bc 7f03 0c3e
00000070: f8b8 76be f78f 88be 8026 113e 2a65 2b3e
00000080: 79a8 3fbe f223 493e be5e 003e e415 e33d
00000090: c174 d3bd 196d de3d 159d a0bd 1f5b 03bd
000000a0: 98e0 223e 7c20 98be fa1f ab3d 5c62 9d3d
000000b0: 6e84 37be 3226 2ebe 49fa 10be 834c b73d
000000c0: 0d0d 87bd 6195 0bbd 14e7 84bc 711b ad3d
000000d0: 0380 173e c0d1 2e3e 0f8a 1e3e fdd5 dd3d
000000e0: 306a a93d ff11 a53d 4f3a afbd 8bad fa3d
000000f0: 15f1 68be 21a7 6abe c21c 3cbe dbbb 39bd
00000100: 8560 e23d 3933 393e 3423 32bd 326b cfbd
00000110: 3670 66be 5cbe 42be b71c 2b3e c3df 4abe
00000120: 61d1 343d a1b9 ffbd 466b 9cbe b7b1 e13d
00000130: 2152 07be da83 09be 5066 813d 56bf 163e
00000140: 5dcc 7dbd a318 8abd 719e 14be cfc6 42be
00000150: e90a 7f3d 4ed3 16be a35b 4c3d 38cf 2d3e
00000160: 413c 66be 62f4 38be 081e 60be 49de a23d
00000170: 24ef b03c 34b5 92be b31f 833d e6c7 3c3d
00000180: de62 e83d f2b9 0bbe c400 113e 97c4 f1bb
00000190: e065 1f3e fa7c efbd 83d0 54bd f9e7 0d3e
000001a0: 2251 b0bd da1f d83d bb46 3d3d 9138 e0bc
000001b0: d144 09be 2faf a4bc 7f56 fbbc c048 c1bd
000001c0: 46af f4bd b6b6 a6b8 702f 703d fd1f 72bd
000001d0: 2cc0 ec3d d742 f73d 2ec4 923c eeef e23d
000001e0: 55ae 1c3e fa2d 723d 8fc4 b4bd 496d df3d
000001f0: 7a1e 3abe 55ab 1abe be65 0b3e 6f45 39be
00000200: 75ff 6abe d7d9 cf3d d8ef 173e 9658 133e
00000210: 6457 043d de9e 7ebd aca0 03bd 4378 c63d
00000220: b489 5ebe 565a 0abe eb54 2fbe dfdb a83b
00000230: c06c b53d 6f66 7fbd 9553 dfbc 74d5 103d
00000240: dbec 0b3e 7257 d83d 7602 8fbb feea e1bd
00000250: fa28 143e 4f1a db3d fce1 8bbd ed9e 8dbd
00000260: 3a36 f0bd e62b 9bbd 3d63 adbd cf90 d3bb
00000270: c042 0b3e 14ca 63be ad0d 003e ceb7 0cbe
00000280: 269c c2bd a3e4 20be 688c 243e be4b 0a3e
00000290: d8ad c83d 9c60 043e db65 2ebd d090 0b3e
000002a0: 1dc8 0ebe cdf4 d93d 8065 183e 94c1 aebd
000002b0: 7acb 13bc 673a 823d 7e4d 40bc 8ac9 1e3e
000002c0: 2303 a83d d550 3abe b347 33bd ae9b 1b3e
000002d0: 9725 93bc 0757 c63d 085a 1a3e b0d7 c13c
000002e0: 793b 0cbe 0bd8 a73d f880 903c 2f7f 543d
000002f0: 4900 acbd a0cf 35be 33f9 0ebe f5c7 f23d
00000300: 8146 80be 827e 35be ebe5 f3bd 3b9c c53d
00000310: 87b3 06be 0d62 47be d8ca c9bd f048 0a3e
00000320: 01b6 0a3e 4800 ed3d dd33 c43d cff8 8bbd
00000330: 55f3 e63d 6de2 1ebe 1b93 2ebe d77f 8c3d
00000340: 3bae acbc bf8e 0c3e bb9b 1d3e d9db 8e3c
00000350: dd28 62bd b1c7 e73d 81cc 513d a524 b0bd
00000360: 431c e1bd 69bb 9bbe 840f 1e3e 0295 bf3d
00000370: a4d0 3fbe f492 9b3d 2640 fd3d 76aa 74be
00000380: 7b96 733c c6f5 3cbe ccfa f6bd 97ed 493d
00000390: 3b29 9d3d a33a bd3d 9f86 713c 807d 9abd
000003a0: c346 f4bc 7c2f 3ebe ac19 bbbd fa74 093e
000003b0: cb15 283d 7fac 31be d1c2 f23d e010 203d
000003c0: abfd a1bd 4d82 723c 7ff8 c93d 1783 f53c
000003d0: 6dc6 bfbc 59bf 23be 72ff c23d fa32 5cbe
000003e0: c70f b5bd 0c33 34be 8426 28be 9532 a23d
000003f0: 9a5c 10be 1efb 92bd 5b2b 95bd a958 1c3c
-0.08701459 0.09717097 -0.23211728 -0.10239622 -0.16307612 0.12545083 0.13799451 -0.21228302
-0.19855905 -0.01774654 -0.09871941 0.11181519 -0.016851969 -0.20220296 -0.0919875 -0.054907054
0.07323092 0.14588812 -0.13893698 0.08733332 0.06333918 -0.13921969 0.11938752 0.02954663
0.08640662 -0.0074163545 -0.022203723 0.13673209 -0.24093997 -0.26672336 0.14174843 0.1673781
-0.18716611 0.19642618 0.12536141 0.1108816 -0.103250034 0.108606525 -0.07842461 -0.03206932
0.15905988 -0.29712284 0.083557084 0.07684776 -0.17921612 -0.17006758 -0.14157976 0.0895014
-0.06594286 -0.034078006 -0.016223468 0.084525 0.14794926 0.17072201 0.15482353 0.10831831
0.08272207 0.08060073 -0.08556043 0.12240132 -0.22748215 -0.22915317 -0.18370345 -0.04534517
0.11053566 0.18085946 -0.043490604 -0.10127868 -0.22503743 -0.19017929 0.16710173 -0.19811921
0.04414499 -0.12486578 -0.30550593 0.110202245 -0.13214923 -0.13429204 0.06318343 0.14721426
-0.061962474 -0.0674298 -0.14513566 -0.19021152 0.062266264 -0.14729044 0.04989208 0.16973579
-0.22483923 -0.18061975 -0.21886456 0.07952554 0.021598406 -0.28653872 0.064025305 0.046089076
0.113469824 -0.13645151 0.14160448 -0.0073781717 0.15566206 -0.11693759 -0.051956665 0.13858022
-0.08609225 0.1055295 0.046210032 -0.027370723 -0.13405158 -0.020103065 -0.030680893 -0.09437704
-0.11947493 -7.9495294e-05 0.05863899 -0.059112538 0.115600914 0.120732956 0.017915811 0.11080919
0.15300877 0.059125878 -0.08826553 0.10909516 -0.18175688 -0.1510442 0.1361303 -0.18092893
-0.22949012 0.101489715 0.14837587 0.14389262 0.032309905 -0.062163226 -0.03213565 0.09690907
-0.21732217 -0.13511023 -0.17122237 0.005153164 0.08858633 -0.062353548 -0.027261535 0.035359815
0.13664572 0.10563554 -0.004364307 -0.11031149 0.14468756 0.10698377 -0.068302125 -0.06915078
-0.11729093 -0.07576732 -0.08466194 -0.0064564715 0.13599682 -0.22245055 0.12505217 -0.13741991
-0.09502439 -0.15712218 0.16069186 0.13505456 0.09798783 0.12927479 -0.042577606 0.1362946
-0.13943525 0.10642395 0.14882469 -0.08533016 -0.009020681 0.063587956 -0.011737226 0.15506569
0.08203723 -0.18194897 -0.04376955 0.15196106 -0.01796226 0.09684568 0.15073407 0.023662418
-0.13694562 0.08195504 0.017639622 0.051879104 -0.08398492 -0.17754984 -0.1396225 0.11854545
-0.2505379 -0.1772404 -0.11909088 0.09648939 -0.13154422 -0.19470997 -0.098531425 0.13504386
0.13545991 0.11572319 0.09580205 -0.06834566 0.11276881 -0.15516062 -0.17048304 0.06860321
-0.021079173 0.13726328 0.15391438 0.017438816 -0.05521475 0.11317385 0.05122042 -0.086007394
-0.109917186 -0.3041642 0.15435606 0.09354593 -0.18731934 0.075963885 0.12365751 -0.2389315
0.01486742 -0.1845313 -0.120595545 0.04929885 0.0767388 0.092397 0.014741569 -0.075434685
-0.029818898 -0.18572801 -0.09135756 0.1342353 0.04103641 -0.17350958 0.118535645 0.039078593
-0.079097115 0.014801574 0.0986185 0.029969735 -0.023410046 -0.15990962 0.095213786 -0.21503821
-0.088409 -0.17597598 -0.16420943 0.07919804 -0.14097825 -0.07176803 -0.0728366 0.009542623

fc2.bias f4 [10]
00000000: c528 07bd 6aad b33c 83bd 00be c7eb cf3d
00000010: dd9e 0bbe 46e8 a1bd 1460 52bc 07f3 9bbd
00000020: 0963 263e 2559 d93d
-0.032997865 0.021933276 -0.12572293 0.10152393 -0.1363482 -0.07905631 -0.01284029 -0.07614713
0.16248716 0.10612706

exp_avg f4 [10, 1, 5, 5]
00000000: f2c1 ce3b 20f5 2e39 906b bf3a 920d cd3b
00000010: e4ae 293c 1fa9 a33b 54a0 15ba f03a 98b9
00000020: 70ca dc3b aa5e 1f3c 1b3d a63b 68e7 293a
00000030: e50c 53bb 7b35 fb3a 1283 b33b c8a7 d53b
00000040: 4681 543b c24a d9ba aae6 fa3a a7ee 8d3b
00000050: 87b6 ff3b d6d7 a93b d0fe 7e39 285c d83a
00000060: fcdd f73a d6b0 d239 14e5 51bb 68f4 7ebb
00000070: 03a7 20bb 044b 4c3b f748 b1ba dad6 9abb
00000080: 90ee 0fbb d6fc b93a e8e0 e83b bbac 97bb
00000090: d9b2 7cbb 4c27 573a 9fa6 d33b e20e fc3b
000000a0: 5274 41bb fbe3 33bb ccb8 493a b9cd 883b
000000b0: c7a8 9f3b 8088 dcb9 00bf 3a39 a971 163b
000000c0: 133a 453b dce4 443b 8c23 0fba 3298 183b
000000d0: 22d7 3c3b b28b aa3a 1ca2 adb9 88d8 603a
000000e0: 89cf 3f3b 3472 a23a 0e95 ad3a c38b cb3a
000000f0: 75ea a83a 80fc 39b8 a2ac 85ba 1858 2dbb
00000100: 1bfe e0ba cd4f 80bb 29b4 b6bb 4571 e3bb
00000110: 4766 b1bb 04d9 5fba d30a 34bc 7fdd 44bc
00000120: a826 f5bb 275d e0ba 548d 9d3b a079 1f3b
00000130: f5f4 6f3b 07af e23a 36e3 1aba 1e6d 8d3b
00000140: bb0c c83a f3e4 203b c874 bf3a e347 6e3b
00000150: cbcf bd3b 3623 cc3a 864d 603b d82c b73b
00000160: 2420 963b dea6 c93b 27da 743b 5f9b 903b
00000170: e068 c63b 217d 903b be69 ea3b 269c 6d3b
00000180: 1b57 173b aaeb 5a3b b08d 4f3b e862 063c
00000190: 4a47 683b 257d 5d3b 71ac 4c3b b7cb c93b
000001a0: aaf1 1c3c 220e dcb9 d709 883a fe81 a73b
000001b0: 282b 253c 84cb 433c b945 a7bb 4085 b939
000001c0: a8b0 d83b 1909 1e3c b2b8 043c fe5c 94bb
000001d0: 2192 aa3b 188f 0e3c 64d5 e03b 7aeb 943b
000001e0: ac3f b0ba 19db 8b3b 3801 b33b e8e5 b33b
000001f0: 5ccf 893b 2c94 63bc 5c68 94bc 6fa8 8cbc
00000200: 801d 3abc cb74 0dbc fc6e 41bc 6869 64bc
00000210: 655e 7dbc 3448 59bc 0ef9 2abc 9bbd 10bc
00000220: 207f 5bbc 4ca2 7abc 451a 64bc d4cf 2ebc
00000230: 21ef 03bc 9321 27bc 9a7d 47bc 865e 1ebc
00000240: 3d4b f9bb 72cf babb 8933 02bc d2cb 17bc
00000250: 0843 0dbc a93c e5bb 8045 1438 1a9b 3e3b
00000260: fa60 253b 3475 a3bb 45df 2ebc 9461 fd3a
00000270: c160 593b 3628 4a3b 3390 6bbb 98cb 25bc
00000280: cacb b23b cebe c03b 980c 6bba 3012 a0b8
00000290: 1e4d 98bb e1ab d33b 2e9d 773b 1f4c 5fbb
000002a0: 0403 a2ba 80dd a7ba 3cca 6d3a 3241 f9ba
000002b0: 44c4 8fbb dedd bebb bad4 8abb 94e6 8a3b
000002c0: 4d4a 6b3b a388 923b 3616 4d3b 04cb 743a
000002d0: 2920 c03b ac41 503b 38a9 563b cebf 873b
000002e0: a22b 443b 93f8 db3b 740d ca3b 010d 8d3b
000002f0: 4336 da3b 4208 a33b fc84 243c 4f10 0d3c
00000300: 9899 e33b 4417 103c bda3 d83b 9889 9e3b
00000310: 774a c83b fe1a 5b3b 859c 9e3b 94c9 503b
00000320: 16ed 463a a62b a93b 624a ba3b e8c5 f43b
00000330: 9134 153c a0b6 e339 b289 c33a 5bcd 5b3b
00000340: 8b7a f43b f315 083c 4457 d03a 58c5 133b
00000350: 5e35 ac3b 3b84 f43b e9aa b53b 3654 cf3b
00000360: e4b9 e23b 312d a53b ac64 ba3b 9a38 493b
00000370: fdc8 303c bcd7 d43b 78e1 b13a 000f 5d37
00000380: d014 5db8 fad5 3f3b 1bbe f43a 651e 963a
00000390: ba53 32ba 8e86 bd3a 01f4 f0ba 261a b9ba
000003a0: 3c3c 9eba 1c06 583b 5ad8 e83b 54f1 79bb
000003b0: 1475 d2b9 ac20 a43b 162e 203c b0ac 063c
000003c0: aaab 5fba 06c1 4e3b 74d7 0f3c de08 183c
000003d0: cc55 ee3b 6f4a 023b 4c1a 8e3b 5a71 be3b
000003e0: ba09 8a3b ac8b 7f3b
0.006309741 0.0001668525 0.00146042 0.006257721 0.010356639 0.004994526 -0.00057077897 -0.0002903561
0.0067379996 0.0097271595 0.0050732023 0.00064813206 -0.003220373 0.0019165719 0.0054782713 0.006520245
0.0032425686 -0.0016578066 0.001914223 0.004331428 0.0078037414 0.0051832004 0.00024318253 0.0016506957
0.0018910761 0.00040186074 -0.003202741 -0.0038903002 -0.002451361 0.0031172642 -0.0013525774 -0.0047253193
-0.0021962263 0.0014189731 0.007106889 -0.0046287454 -0.003855875 0.0008207455 0.0064590718 0.007692204
-0.0029518795 -0.002744912 0.00076950784 0.0041749147 0.0048724147 -0.0004206337 0.00017809495 0.002295593
0.003009443 0.0030043637 -0.0005460314 0.0023284075 0.0028814753 0.0013011603 -0.00033117912 0.00085771875
0.0029267988 0.0012393654 0.0013243274 0.0015529323 0.0012887256 -4.4342596e-05 -0.0010198543 -0.0026450213
-0.0017165573 -0.003915763 -0.005575676 -0.006940993 -0.0054138037 -0.0008539113 -0.010988909 -0.012015699
-0.007481415 -0.0017117605 0.0048081074 0.0024333969 0.0036614512 0.0017294594 -0.0005908491 0.0043159863
0.0015262583 0.0024550527 0.0014606947 0.0036358766 0.005792593 0.0015574459 0.0034225895 0.0055900626
0.004581468 0.0061539253 0.0037361474 0.004413053 0.0060549825 0.004409448 0.0071537187 0.0036256402
0.002309269 0.0033404627 0.0031670146 0.008202292 0.0035442882 0.0033796516 0.0031230713 0.006158318
0.009579102 -0.000419722 0.0010378909 0.005111932 0.01008109 0.011950377 -0.005104747 0.0003538523
0.006612856 0.009645724 0.008100675 -0.004527687 0.005205408 0.008701108 0.0068613756 0.0045446726
-0.001344671 0.004268062 0.005462792 0.0054900534 0.0042056274 -0.013890307 -0.018116169 -0.01717016
-0.011359572 -0.008633803 -0.011806246 -0.013941146 -0.0154644 -0.0132618435 -0.010435356 -0.008834268
-0.013397008 -0.015297484 -0.013922279 -0.010669667 -0.008052618 -0.010200876 -0.012175942 -0.009666091
-0.007607846 -0.005700999 -0.007946857 -0.009264903 -0.0086219385 -0.0069957566 3.5350677e-05 0.0029084147
0.0025234804 -0.004988337 -0.010673349 0.0019331449 0.0033169242 0.0030846721 -0.0035944104 -0.010119341
0.0054564225 0.0058821207 -0.0008966415 -7.632782e-05 -0.004647865 0.0064596985 0.0037782895 -0.0034072471
-0.0012360518 -0.0012807101 0.0009070968 -0.0019016622 -0.0043874104 -0.0058247885 -0.0042367848 0.004238913
0.003590244 0.004471855 0.0031293756 0.0009338113 0.005863209 0.0031777425 0.003275467 0.004142738
0.0029933234 0.006712982 0.0061661545 0.0043045287 0.0066593005 0.0049753496 0.010041472 0.008609845
0.0069458 0.008794609 0.006611316 0.00483818 0.0061123925 0.0033432837 0.004840436 0.0031858431
0.0007588429 0.005162674 0.0056851367 0.0074698813 0.009106771 0.0004343288 0.0014918356 0.003353915
0.0074608973 0.008306014 0.0015895148 0.0022548046 0.0052553853 0.007462052 0.0055440557 0.0063271774
0.0069191325 0.0050407876 0.0056882706 0.0030703903 0.010790107 0.006495444 0.0013571223 1.3176119e-05
-5.270989e-05 0.0029271827 0.0018672379 0.001145315 -0.00068026374 0.0014459656 -0.0018383266 -0.0014122173
-0.0012072395 0.0032962626 0.0071058692 -0.0038138228 -0.0004014155 0.0050087776 0.009776613 0.008219883
-0.0008532355 0.0031548156 0.008779395 0.009279458 0.0072734114 0.0019880792 0.004336631 0.0058118524
0.0042125853 0.0038993163

exp_avg_sq f4 [10, 1, 5, 5]
00000000: cbaa ae39 05df 8739 c6a5 5d39 9911 4739
00000010: dce7 5b39 27cd 9a39 874b 5239 5a71 4e39
00000020: 82d2 2f39 03f4 4939 6fb7 8b39 1a18 2439
00000030: 44c3 6739 1a62 2539 a9d8 3b39 e29e 7a39
00000040: 7fe5 2f39 db14 7839 0124 2a39 9fe0 5939
00000050: c78d 8339 5575 4d39 771f 4b39 e0d7 3f39
00000060: 4eb5 7339 e511 8139 c857 6a39 4d71 7e39
00000070: ba0b 8739 d6f7 9539 350c 5639 44fd 6139
00000080: 5598 6a39 779a 7739 79fa 9139 2c9a 5239
00000090: cd5e 6c39 d50b 5039 a8ef 7439 4e72 8e39
000000a0: a050 5b39 a032 5e39 5b7c 6039 ce90 8439
000000b0: a688 8f39 4034 5e39 b610 6639 675e 7d39
000000c0: 8290 8439 9ebe 8e39 948a 2839 d323 1f39
000000d0: ba97 2239 1954 1839 3cdf 1439 ee31 0039
000000e0: 660f 0b39 631a 2639 284e 1039 6dfd 0039
000000f0: 1d76 1739 0215 2d39 1a50 0639 d397 f338
00000100: 0e10 f138 ae71 1b39 0d44 1039 2fd0 0539
00000110: f606 f938 a12f f138 1d2e 2339 7318 2539
00000120: 3742 1d39 0033 0239 f68c 0239 f56f 6339
00000130: 1018 6439 a40d 8439 84bf a939 ecda c039
00000140: 2d1b 5939 30b5 5b39 8e56 8339 4a5f c139
00000150: d0b6 da39 4377 7639 3b44 7c39 e008 9739
00000160: 9c56 e439 532c d339 a03b 8539 623b 9139
00000170: 9b4b b739 ffe9 e739 1f7d b439 b245 8939
00000180: e3cb 9a39 aec8 b939 317e b739 4a8d 9339
00000190: 5fa7 5639 4bef 9439 5be5 9939 56ad 9039
000001a0: 89d4 9939 fcff 5639 9922 8d39 84f3 5439
000001b0: 58d1 6239 4e89 8639 d635 5f39 4484 3839
000001c0: 27cd 3039 774d 7c39 14fe 8a39 d733 6439
000001d0: 9aa1 2d39 cef3 6839 fa49 8b39 08b3 9439
000001e0: d2e9 7439 9659 7639 46d2 8639 9f48 9139
000001f0: 9ad5 a239 ab8f 3039 ffd8 4039 d063 5039
00000200: fd4a 3b39 fe68 3039 0b86 3639 11bd 3e39
00000210: 98b3 3e39 a6b7 3039 e375 2f39 f8e2 3f39
00000220: 37ae 3d39 da44 3e39 e0c9 3439 2a3a 3439
00000230: 21a7 3539 6e21 3539 c3e1 3c39 ca0a 3539
00000240: 6880 3039 142b 3139 e48a 3b39 fffd 4039
00000250: d1a7 3539 966f 2b39 1e1c 543a 3124 573a
00000260: a55f 633a f48d 673a 17b5 653a 6b8a 6e3a
00000270: 2459 793a 8d17 713a 7233 663a d885 6a3a
00000280: 7917 6e3a 775a 523a 61c4 3d3a c82e 453a
00000290: 05ce 5f3a 6ca8 543a 1256 413a 173e 4f3a
000002a0: f3b3 503a 3c03 653a b0c6 553a 329e 5e3a
000002b0: af99 6e3a 5819 723a 3e1d 7e3a b9de 9839
000002c0: ec0a 9239 10b5 8839 5372 8c39 197f 9039
000002d0: 4b33 af39 66db a439 5c7a 9939 1733 9239
000002e0: 68e7 8839 fb2a a639 5c15 9f39 129a 9339
000002f0: bfbf 8c39 aba8 8639 2850 ad39 c62b ac39
00000300: ea1b a139 a57a 8b39 507a 8239 53c2 b039
00000310: abfd aa39 2751 a239 760d 8f39 c99b a139
00000320: 7a71 2b39 40e1 5439 562e 8939 a84c 7939
00000330: 42b2 7339 4b83 2239 1cb6 6839 0384 6b39
00000340: 729b 3639 01a6 4a39 36c7 1f39 761f 4d39
00000350: fc10 2339 3c9f 1f39 e6ca 4e39 3aed 1639
00000360: 9ccf 2739 5bbe 0e39 82a9 3c39 cb84 6839
00000370: 2209 3039 5998 3939 31db 6039 136e 8039
00000380: 11ba 8d39 bb38 f138 2cab e338 1e85 e238
00000390: 905d fb38 e2b6 1439 583c d238 5c81 c238
000003a0: f026 c238 c82b f138 f685 0f39 2e63 e738
000003b0: 9ab6 e138 60b1 cd38 3511 f538 2348 0539
000003c0: f9e3 0a39 0211 0839 a2d1 f538 7b43 ef38
000003d0: be52 0039 5a39 1a39 075b 1739 674f 0a39
000003e0: 8369 0239 4640 1039
0.00033315117 0.0002591537 0.00021137958 0.00018984675 0.00020971842 0.0002952602 0.00020055297 0.00019687918
0.00016767721 0.00019259755 0.00026648815 0.00015649237 0.00022102619 0.00015772172 0.00017914422 0.00023901046
0.00016774794 0.00023658892 0.00016225876 0.0002077841 0.000250919 0.00019594033 0.0001937131 0.00018295599
0.00023241827 0.0002461813 0.0002234868 0.00024265535 0.00025757944 0.00028604147 0.00020413178 0.00021552021
0.00022372727 0.00023613298 0.00027843172 0.00020084594 0.0002254203 0.00019840834 0.00023358932 0.00027169514
0.00020915503 0.00021190429 0.0002140863 0.0002528489 0.00027376896 0.00021191034 0.00021940735 0.00024163128
0.0002528467 0.00027226371 0.00016073353 0.00015176767 0.00015506046 0.00014527178 0.00014197541 0.00012225632
0.0001326181 0.00015840823 0.00013762026 0.0001230144 0.00014444483 0.00016506392 0.00012809076 0.000116154224
0.00011494766 0.00014824301 0.00013758261 0.00012761423 0.00011874542 0.00011500647 0.0001556207 0.00015744734
0.00014997354 0.00012416765 0.00012450278 0.00021690114 0.00021752738 0.00025187165 0.00032376882 0.00036784203
0.00020704856 0.00020952965 0.00025050755 0.00036882824 0.00041716406 0.00023504817 0.0002405801 0.00028807577
0.00043552078 0.0004027808 0.0002541216 0.000277008 0.0003496081 0.00044234094 0.00034425498 0.00026182603
0.00029525076 0.00035435468 0.000349985 0.00028143293 0.00020470981 0.00028407047 0.00029353317 0.00027594966
0.00029340785 0.00020503992 0.00026919393 0.00020308612 0.00021631026 0.00025660772 0.00021286993 0.0001759688
0.00016861093 0.0002406145 0.00026510714 0.00021763086 0.00016558767 0.00022216068 0.00026567263 0.00028362148
0.00023356758 0.00023493762 0.00025715138 0.00027710662 0.00031058193 0.00016838188 0.00018391384 0.00019873609
0.00017861645 0.0001682378 0.00017406807 0.00018190245 0.00018186716 0.00016853082 0.00016733217 0.00018299732
0.00018089345 0.00018145461 0.00017241342 0.00017187805 0.00017323765 0.00017273959 0.0001801318 0.00017265524
0.00016832503 0.00016896083 0.0001788545 0.00018405168 0.00017324022 0.000163494 0.0008091348 0.0008206992
0.0008673615 0.00088331033 0.0008762641 0.00090996054 0.0009511879 0.000919693 0.00087814697 0.0008946336
0.0009082477 0.00080243446 0.00072390406 0.00075219246 0.0008537474 0.0008112255 0.0007375191 0.00079056754
0.0007961385 0.00087361387 0.0008154912 0.0008492201 0.000910188 0.0009235344 0.00096936885 0.0002915764
0.00027855427 0.00026074843 0.0002678806 0.00027560515 0.00033416817 0.00031443982 0.000292736 0.00027885355
0.00026112352 0.0003169401 0.00030342757 0.00028152816 0.00026845743 0.0002568414 0.00033056852 0.0003283901
0.0003072911 0.00026603523 0.00024886662 0.0003371412 0.00032613924 0.0003095951 0.00027285115 0.00030824382
0.00016350104 0.00020301808 0.000261652 0.00023775047 0.00023240692 0.00015498434 0.00022193085 0.00022460525
0.0001741478 0.00019326062 0.00015237633 0.00019562044 0.00015551219 0.00015222741 0.00019721276 0.00014393489
0.00016003702 0.00013613088 0.00017992224 0.00022174713 0.0001678807 0.00017699729 0.0002144396 0.00024496074
0.00027032246 0.000115023424 0.00010856087 0.00010801315 0.0001198604 0.00014182509 0.0001002482 9.274736e-05
9.2578935e-05 0.000114999304 0.00013687447 0.00011033412 0.00010762848 9.8082004e-05 0.000116857154 0.00012710741
0.00013245632 0.00012976307 0.000117215575 0.00011408977 0.00012237855 0.0001470795 0.00014434393 0.00013190285
0.00012437072 0.00013756854

exp_avg f4 [10]
00000000: 049e 12bb 78e7 0fbb c966 1abb 0a4b d3ba
00000010: 18a6 0abb 3280 323c b1a3 b63b fc74 9bba
00000020: bef9 e23a ec5b b1bb
-0.0022372017 -0.0021958034 -0.00235598 -0.0016120386 -0.0021156128 0.010894822 0.0055737128 -0.0011860426
0.0017316861 -0.0054125693

exp_avg_sq f4 [10]
00000000: 8665 c439 e18f 9e39 404f 8039 5298 4039
00000010: 0ee7 ad39 662e 4639 71c4 953a b2d5 ce39
00000020: a436 6039 4be4 fc38
0.00037459674 0.00030243307 0.00024473108 0.0001836729 0.0003316928 0.00018900036 0.0011426342 0.00039450597
0.0002138266 0.00012058819

exp_avg f4 [20, 10, 5, 5]
00000000: e3f3 3d3a cda3 c5ba ffe8 6ebb be05 c8ba
00000010: 0042 6639 e4ee 6cba b3a7 a7ba 5e65 3ebb
00000020: 1b00 92ba 02ba 9439 e79c 01bb bccb 90ba
00000030: 8e98 27bb 37c6 14ba 7229 ef38 4034 5fba
00000040: 3d77 8f39 71df d4ba 68a4 c3b9 f9c3 8bba
00000050: 2477 8bba 9fbb bc3a f8a9 4739 cda5 84ba
00000060: 770b 85ba 2e2b 0dba 8a36 caba 2208 5bbb
00000070: 8e24 81bb 9733 15bb e013 1238 1045 12bb
00000080: b687 68bb 7205 92bb 4867 9fba d634 67ba
00000090: 2996 03bb 3ceb 28bb 5756 53bb a9f0 e039
000000a0: 7e6a f6ba 4444 01bb 27a6 7fba 9030 79ba
000000b0: a258 a539 a74d f9ba 000f 1cbb 08cd 0cba
000000c0: 3858 4e38 5433 0cbb d027 62ba a0c1 5bba
000000d0: f686 b9ba 0b7e 02b9 e838 5fb9 23f2 1bba
000000e0: 923b 37ba 94c8 dfb9 73e4 f639 061a ad39
000000f0: 0323 e8b9 cf71 0f39 3263 19b9 1a83 72b9
00000100: a127 063a 24e8 2cba 87f1 51ba ad1e 96b9
00000110: be5d e3b8 271a 02b9 63a7 d539 b184 e9b9
00000120: 6ab8 8fba 4d36 aeba 965d 9cb9 16dd 90ba
00000130: 3e59 a0bb a92f 84bb 9fb6 033a 0b39 a83a
00000140: b044 f1ba f201 92bb c07e 72bb e53d 5c39
00000150: 5688 25ba eef7 f9b9 4839 27bb d2c1 15bb
00000160: 39e9 3a3a 4565 1abb 9f5d 8f3a 40d3 ceba
00000170: e8de a1ba 4f81 96ba 5e27 2fbb 4e62 a53a
00000180: 1f29 4eba af8a 53bb 28f7 21bb eef9 24ba
00000190: 88ed 20ba 56ef a3b9 c550 dcba a602 82bb
000001a0: a44f 6cbb 3c01 7339 dacb d7ba b977 49bb
000001b0: e273 86bb 353e 16bb 41fb 9139 3344 31bb
000001c0: 02f7 13bb 54f3 64bb e682 a4b9 209e a4ba
000001d0: 3222 17bb 8864 e7b9 52e7 acba 4154 7139
000001e0: bbcf 95ba bdc3 dfba a837 a8b9 7c60 9839
000001f0: 8ca5 46ba 95ba 96ba 7469 6aba e6f9 b0ba
00000200: 9edc f4ba 6242 14bb 72b9 63ba 8dc9 37ba
00000210: 800b 0ebb 9643 31bb 17bf e4ba 905e ceba
00000220: 9e5c 1bba 06ea ffba 22b8 02bb d273 4cba
00000230: f45f 17bb 8621 63ba 7b34 09bb 3e70 04bb
00000240: da47 30ba 5c0b 18bb a1c8 bbba eb55 2fbb
00000250: f799 afba bce1 f3ba 9d3b 00bb 7cad ebba
00000260: 8190 13ba 72dd 12bb 13f1 a5bb 0cbd 2d3a
00000270: 755a 283a bc39 84ba 09a3 da39 1aec 983a
00000280: 25aa 0ebb 80fd 4ebb 9516 08bb 8026 07b9
00000290: a117 073b 835f 6fbb baaa cdbb 4a97 acbb
000002a0: 3a8f 4bbb b00e cc38 4299 2bba 1616 e1ba
000002b0: d09d 71bb 2c7d 05bb 2892 c6ba 68ba b2ba
000002c0: c309 a9ba 8167 59ba 9bf9 50ba 7684 3fbb
000002d0: 7a81 9039 2014 f238 c294 b4b9 a8e8 0039
000002e0: 9f36 783a aa23 a6ba 2a78 f7ba 550f 03bb
000002f0: 99c4 59ba a493 4c3a 2645 e1ba 82e0 75bb
00000300: 371d 8cbb 2e82 17bb 8ed4 14b9 f9a5 a539
00000310: 8881 4fba ead1 48bb 8012 2bbb d085 9aba
00000320: dca1 76ba a73f 8e38 8661 bbb9 caa4 10bb
00000330: a11a 1eba 3a61 b2ba 03ea b0ba 6fce 32bb
00000340: 3851 27bb 8737 edb9 8042 70ba def5 edba
00000350: 69c1 26bb 26ae fdba be36 96b8 0479 d5ba
00000360: 24c5 c938 f0e4 77b8 bf51 aeb9 ebca dab9
00000370: 96eb 12bb 4128 94ba a8df 0d3a 80c9 fcb8
00000380: 13d2 6fba 19d2 99ba 58f6 1dba 3c15 12bb
00000390: f811 87bb d48f 58bb ce17 ff39 ced5 b5ba
000003a0: ee48 62bb f3cc 47bb 7a85 85b9 9ac8 97ba
000003b0: ef44 2dbb eb37 26bb 6ddb ffba 4d71 783a
000003c0: 85da 17bb 0934 f7ba d4f9 8bba 2e7a 14ba
000003d0: e852 0a38 9147 2abb a2d3 dcba b39e 1bbb
000003e0: 38bf 1cb8 f8f7 e2ba 229a a0ba 6021 8bb8
000003f0: 68f8 df38 16fc 18bb 16d1 1bbb ee61 1dba
0.000724612 -0.0015078724 -0.0036454794 -0.00152605 0.00021959096 -0.0009038283 -0.0012791067 -0.0029052119
-0.0011138947 0.00028367346 -0.001977736 -0.0011047046 -0.0025573107 -0.0005675288 0.00011404128 -0.0008514561
0.00027363925 -0.0016240907 -0.0003731579 -0.0010663263 -0.0010640365 0.0014399177 0.00019041437 -0.0010120213
-0.0010150512 -0.00053851574 -0.0015427631 -0.0033421596 -0.0039411252 -0.0022766346 3.4827623e-05 -0.0022318996
-0.003548128 -0.0044562155 -0.0012161518 -0.0008819824 -0.0020078516 -0.0025774976 -0.0032247507 0.00042903915
-0.0018800048 -0.0019724527 -0.00097522367 -0.00095058326 0.0003153729 -0.0019020335 -0.0023812652 -0.0005371128
4.9196387e-05 -0.0021392899 -0.00086271483 -0.00083830394 -0.0014154601 -0.00012444721 -0.00021288136 -0.0005948862
-0.00069897727 -0.00042683317 0.00047090984 0.0003301652 -0.00044276574 0.0001367994 -0.0001462817 -0.00023127758
0.00051175995 -0.0006595871 -0.00080087077 -0.00028633085 -0.00010841664 -0.00012407509 0.0004075124 -0.00044540086
-0.0010964994 -0.0013291329 -0.00029824366 -0.0011052217 -0.004893451 -0.004034002 0.0005024466 0.0012834383
-0.0018407311 -0.0044557983 -0.0037001818 0.00021003892 -0.0006314566 -0.00047677703 -0.002551632 -0.0022851122
0.000713009 -0.0023558897 0.0010937935 -0.001577951 -0.0012349756 -0.0011482629 -0.0026726346 0.0012617798
-0.0007864404 -0.0032278707 -0.0024713967 -0.0006293346 -0.00061389105 -0.00031268102 -0.0016808739 -0.003967601
-0.0036058212 0.00023174746 -0.0016463951 -0.0030741526 -0.00410317 -0.0022925262 0.00027843754 -0.0027048707
-0.0022577648 -0.0034935074 -0.00031378045 -0.0012559332 -0.0023061153 -0.00044134655 -0.0013191497 0.00023014938
-0.0011429706 -0.0017071884 -0.00032084924 0.00029063586 -0.0007577769 -0.0011499698 -0.00089421053 -0.001350221
-0.0018681472 -0.0022622575 -0.00086869963 -0.00070109294 -0.0021674335 -0.002704834 -0.0017451969 -0.0015744735
-0.0005926582 -0.00195247 -0.0019946177 -0.0007799241 -0.0023097964 -0.0008664358 -0.0020935822 -0.0020208503
-0.0006724574 -0.002320013 -0.001432676 -0.0026754092 -0.0013397326 -0.0018606703 -0.0019566782 -0.001798078
-0.0005629138 -0.0022409824 -0.0050641387 0.00066275964 0.00064221706 -0.0010088007 0.0004170167 0.0011667043
-0.0021768895 -0.0031584203 -0.0020765413 -0.00012888946 0.002061345 -0.0036525435 -0.0062764557 -0.0052670585
-0.0031060711 9.730214e-05 -0.00065459695 -0.001717272 -0.0036867745 -0.0020368798 -0.0015149759 -0.0013635876
-0.0012896586 -0.00082933164 -0.00079717644 -0.002922324 0.00027562288 0.00011543208 -0.0003444311 0.00012293702
0.00094685884 -0.0012675424 -0.0018880416 -0.0019998152 -0.00083071884 0.00078039826 -0.0017186746 -0.003751785
-0.0042759436 -0.0023118365 -0.00014193563 0.00031594912 -0.0007915725 -0.0030642697 -0.0026103556 -0.0011789147
-0.0009408274 6.782944e-05 -0.0003574008 -0.0022070878 -0.00060311897 -0.0013609298 -0.0013497475 -0.0027283689
-0.0025530588 -0.00045245534 -0.0009165183 -0.0018154939 -0.0025444871 -0.0019354268 -7.162754e-05 -0.0016286676
9.621147e-05 -5.9102604e-05 -0.00033248772 -0.00041731386 -0.0022418252 -0.00113035 0.00054120505 -0.00012053829
-0.000914843 -0.0011735588 -0.0006025783 -0.0022290489 -0.004122015 -0.0033044713 0.00048655126 -0.0013872923
-0.0034528333 -0.003048715 -0.00025467185 -0.001158017 -0.0026438793 -0.002536292 -0.001952035 0.00094773324
-0.002317102 -0.0018860112 -0.0010679313 -0.0005663958 3.2978976e-05 -0.0025982598 -0.001684774 -0.0023745715
-3.7371385e-05 -0.0017316332 -0.0012252966 -6.634253e-05 0.00010679738 -0.0023343614 -0.0023775748 -0.00060036674
