MNIST_/checkpoint/model_epoch2.pth (torch, 268573 bytes, 24 tensors)

conv1.weight f4 [10, 1, 5, 5]
000000 e5 15 41 bd 58 e9 77 3e 33 e9 cb 3e 4e 79 b3 3d
       -0.04714002 0.24210107 0.39826354 0.087633714
000010 af f8 8c bd fc e2 0e be 05 d9 99 3d b5 ba 57 3e
       -0.0688337 -0.13953775 0.07512096 0.21067317
000020 f7 60 78 3e 74 ad 1d bd 93 c1 b4 be d3 9d 4d 3e
       0.24255739 -0.038495496 -0.35303935 0.20079736
000030 d7 93 d9 3e af b9 d3 3d 7f 4c 41 be b9 d6 9d be
       0.42495605 0.10338151 -0.18876837 -0.30827883
000040 db a9 6c 3d e7 9f a7 3e 4e 86 3b 3e b2 67 14 3b
       0.057779174 0.32739183 0.18312952 0.0022644815
000050 22 b3 75 be d0 3d 34 3e 7d 69 a8 3e 75 3c 43 3e
       -0.23994115 0.17601705 0.3289298 0.19066031
000060 58 17 bb bc 15 84 96 3d 6e 0b 41 3e 9b 57 3c 3e
       -0.02283828 0.073494114 0.18852016 0.18392794
000070 45 09 e1 3c 55 be 5c bc cf 6a 41 bd d4 6b ab 3e
       0.02747024 -0.013473113 -0.047221 0.33480704
000080 a7 ec 0e 3e 9f f4 b6 bd ac 67 81 be a6 ce c7 3d
       0.13957463 -0.089333765 -0.25274408 0.09756212
000090 41 9f 55 3e a4 76 55 3e 73 45 45 bd a5 50 67 be
       0.20861532 0.20846039 -0.048161935 -0.22589357
0000a0 d4 48 86 3e b0 2c aa 3d 48 56 1a bb 72 61 49 be
       0.26227438 0.08309305 -0.0023549963 -0.19666079
0000b0 f5 12 50 be bd b4 3a 3e 02 15 7d 3e 89 85 f9 bb
       -0.20319732 0.18233009 0.24715045 -0.0076147956
0000c0 bf 91 84 be d7 65 30 be 52 4f bf 3e 5a b2 f2 3e
       -0.25892445 -0.17226349 0.37365204 0.47401696
0000d0 a4 2a 1c 3e 20 b7 18 3e 89 19 76 be 2e 74 11 bd
       0.15250641 0.14913607 -0.24033178 -0.03551119
0000e0 26 69 1f be d3 f6 89 bd 54 ec 1c 3e ed b2 e2 3d
       -0.15567455 -0.06736531 0.15324527 0.11069284
0000f0 03 98 17 be b5 eb c3 be 44 7d 5d 38 dc 4f 87 3c
       -0.14804082 -0.38265768 5.280717e-05 0.016517572
000100 ce 8c 94 3e da e1 fe bb a7 8a 89 be 01 0f 4b bd
       0.29013675 -0.0077783884 -0.26863596 -0.049574856
000110 3b 25 44 3e aa f5 6e bd 94 4a 82 3e d2 4c c0 3e
       0.19154827 -0.058339752 0.25447524 0.3755861
000120 90 36 86 3d c8 7f f2 bd 45 a6 c6 3d 42 41 24 be
       0.06553376 -0.118407786 0.09699682 -0.16040519
000130 08 77 95 bd f5 64 da 3d b5 cf 6a 3d 6a d7 ab bd
       -0.07298094 0.10663787 0.05732699 -0.08390696
000140 66 23 bc be 9e a5 32 be c9 ac 68 be 4e bf e7 3d
       -0.36745757 -0.1744599 -0.22722162 0.11315785
000150 81 e4 4f 3e 8a 47 91 bd b0 cd 94 be bd 64 86 be
       0.20302011 -0.07093723 -0.29063177 -0.26248732
000160 e0 08 60 3e 61 4e 22 3e 61 ce b3 be fe ef 5a be
       0.21878386 0.15850212 -0.35118392 -0.21380612
000170 40 38 63 3d da 57 b9 3e 65 1b 83 3e b0 68 26 be
       0.055473566 0.36199838 0.25606838 -0.16250873
000180 f6 83 08 3c 38 93 93 3e 11 c6 a6 3e 58 24 b4 3e
       0.008332243 0.28823256 0.32572988 0.35183978
000190 c7 81 cb 3d 37 20 d0 3d fe 1e 79 3e 67 10 7b 3c
       0.099368624 0.101623945 0.24328229 0.015323735
0001a0 d8 ef 37 3d 4b 17 82 3e f5 01 2a 3e c0 49 f4 3c
       0.044906467 0.25408396 0.16602309 0.029820323
0001b0 2d 12 7d bd 6a 1e 65 be c8 9f f2 3e 80 82 a0 3d
       -0.061784912 -0.22374883 0.47387528 0.07837391
0001c0 9d 0a 7a be 20 fe 0e be b4 43 60 bc 54 cc ad 3e
       -0.24418111 -0.13964128 -0.013688017 0.33944952
0001d0 92 78 a6 3b ed 61 6e be 81 46 60 be 45 55 11 be
       0.005080291 -0.23279543 -0.21901895 -0.14192684
0001e0 be 28 8e 3e 4d af f0 bd 2b d4 d6 bd 8f 51 94 bc
       0.2776546 -0.11752186 -0.104896866 -0.018105296
0001f0 79 c8 67 bd e3 0a 79 bd 0b a8 b7 3d ba 53 44 3e
       -0.05658767 -0.060801398 0.089675985 0.19172564
000200 36 74 32 3c 7d 0c 61 be bb b1 06 be bc 87 46 3e
       0.010891965 -0.2197742 -0.13153736 0.19387716
000210 68 77 13 3e 02 b8 31 be d7 f9 08 be 17 7a 84 bd
       0.14401019 -0.1735535 -0.13376556 -0.06468599
000220 38 2c 13 bd 3f 5c 74 bc 4e 8b ac bc 66 9d 6a be
       -0.035930842 -0.014914571 -0.02106252 -0.22911605
000230 78 29 36 bd af 09 62 bd 92 08 a8 3c 68 79 31 3b
       -0.04447314 -0.055185016 0.0205119 0.002708042
000240 27 a2 50 be 1b 58 e4 3c 9f 8f 0d be 68 d1 dd 3d
       -0.20374356 0.027874043 -0.13824318 0.10830957
000250 af 96 87 be 18 44 ba bd 43 b6 37 3e c0 b2 75 3e
       -0.2648215 -0.09095019 0.17940621 0.23993969
000260 4b dc 8d 3e 95 cd ab 3e 8e 4c 91 3e af 40 a8 3e
       0.27707133 0.33555284 0.2837872 0.3286185
000270 fe 03 46 3e 06 ad 96 3e 6b 25 d4 3d 4a fd b0 3e
       0.1933746 0.2942888 0.103586994 0.34568244
000280 75 ed 12 3d af d3 1f 3e 62 a7 02 be 47 ab 19 3d
       0.035870988 0.15608095 -0.12759164 0.03751686
000290 00 8d cd 3d 4a 75 89 be 7d b6 a3 bd b7 e8 8e be
       0.10036659 -0.26847297 -0.07993791 -0.27911922
0002a0 a4 b3 56 bd d7 3c e2 bc be 8f ce be ce 6b ee be
       -0.052417412 -0.027616901 -0.40344042 -0.46566623
0002b0 4e 10 c5 be 67 6b d6 be 22 1b a3 bd 3d 05 b7 3d
       -0.38489002 -0.41878816 -0.079641595 0.08936546
0002c0 5e 84 b3 3e 17 35 3e 3e 51 bf e6 3d 70 f8 8f bd
       0.35061926 0.1857494 0.112669595 -0.070298076
0002d0 94 3a 6d 3e d7 28 33 3e 4f 80 ee 3d 25 8f 26 3e
       0.23166877 0.17496048 0.11645567 0.16265543
0002e0 4e d2 97 bd 0c d8 88 be 03 a8 d7 bd e8 e8 80 3d
       -0.07413159 -0.2672733 -0.105300926 0.06294423
0002f0 49 59 a3 3e 59 29 04 3e dc ee 8a bd 9a 53 df bd
       0.31904057 0.12906398 -0.0678384 -0.109046176
000300 11 57 95 be c0 bd 30 3c 33 12 a7 3d f6 d9 c4 be
       -0.2916799 0.010787427 0.08157768 -0.3844754
000310 61 ab 08 bd 77 eb 86 be bd f8 bf bd 4f 25 01 3d
       -0.033366565 -0.2635152 -0.09373615 0.03152972
000320 0f 07 db bc 17 ec 1d 3c 37 ea 92 3e b6 40 df 3d
       -0.026736764 0.009638808 0.28694317 0.109010145
000330 dc 2d 59 3d 52 1e e8 bd 0b 85 1b 3e a8 dc 84 3d
       0.05302225 -0.11333908 0.1518747 0.06487399
000340 fb ee 0f be 6e e6 9b be 2a be 29 3e b9 40 73 3e
       -0.14056008 -0.3044924 0.16576448 0.23755158
000350 0c b2 c5 bd 63 af a7 be 73 c0 b6 be 30 e5 17 be
       -0.096531 -0.32750997 -0.35693702 -0.14833522
000360 b5 34 ae 3e 1d bc 7a 3e 7e 6c 6b be cf d4 14 3d
       0.34024587 0.24485822 -0.22990605 0.036335763
000370 4b 32 aa bd 40 47 5f 3e 93 20 be 3e cf da b6 3d
       -0.08310374 0.21804523 0.37134227 0.08928453
000380 e4 60 61 3e f4 9d 88 be bb 51 7b 3e 90 86 a2 3e
       0.22009617 -0.2668301 0.24542896 0.31743288
000390 a8 04 86 3e 1f d9 7b 3d 7d a5 71 3e 73 d7 ce 3e
       0.26175427 0.06148636 0.23598285 0.4039875
0003a0 51 3d c6 3e d4 b6 7e bb cb 10 53 3c 33 ac a6 3c
       0.38718656 -0.0038866298 0.012882422 0.020345783
0003b0 45 b8 04 3e 24 0e 8f bd 2e ea 87 be 7c cf b7 be
       0.12960918 -0.06985119 -0.26545852 -0.35900486
0003c0 cf 74 75 3e 1e 1b 9a 3d 05 6d 6e bc a3 2b 59 be
       0.2397034 0.075247034 -0.0145523595 -0.21208052
0003d0 0e e3 01 be f4 93 20 3e 92 f5 98 bd 41 17 c7 3d
       -0.1268427 0.1568144 -0.07468714 0.09721232
0003e0 4a 02 23 be 50 0f 0e 3e
       -0.15918842 0.13873029

conv1.bias f4 [10]
000000 5b 9a 03 bd fa a0 2e bd c0 c1 7f 3e 04 84 70 3d
       -0.032129627 -0.042633988 0.24976254 0.05871965
000010 64 a9 48 be 6e f4 a6 be 65 70 99 3e 94 34 ac 3e
       -0.19595867 -0.3260836 0.29968563 0.33633864
000020 71 8f c1 3d 2c b2 99 3e
       0.094511874 0.30018747

conv2.weight f4 [20, 10, 5, 5]
000000 63 41 89 bd c6 42 cc 3d e6 da 02 3e fa c9 42 3d
       -0.06701925 0.099736735 0.12778816 0.0475559
000010 c0 f6 55 3c 2e e3 44 bd 2c 36 17 3e 52 2e 26 3e
       0.013059318 -0.048068218 0.14766759 0.16228607
000020 b6 92 2b 3d 37 31 e7 bb a2 84 90 bd 85 ef 8c bb
       0.04188796 -0.0070554274 -0.07056548 -0.004301014
000030 be dd eb 3d c6 aa d9 bd 01 a1 d1 bd 3c 53 b6 bd
       0.11516903 -0.106282756 -0.10235787 -0.089025944
000040 32 9f 47 bc fc 3a fa 3c 0f 72 d5 bd ae 4b ad bd
       -0.012183951 0.030545704 -0.104221456 -0.084617004
000050 1c fd 81 bd 7c 98 b0 bd 8b 3f eb 3c c2 b9 28 bd
       -0.06347105 -0.08622834 0.028716823 -0.041192777
000060 f8 82 c2 bd 9e 81 85 bd 92 d1 94 bd 8e df 3e 3d
       -0.094976366 -0.06518863 -0.07266535 0.046599917
000070 03 11 c9 3d 23 98 cb bb 87 0a 34 be d2 9c 2c 3d
       0.09817698 -0.0062132045 -0.17582141 0.042141743
000080 6a f4 b0 3d a2 c9 38 3d 6c 03 ba 3c 7f 6c cb bd
       0.08640368 0.045114167 0.02270671 -0.09932803
000090 2f 66 bd 3c 55 0e 9e 3d e7 06 90 3d 75 6f 37 bd
       0.023120014 0.07717577 0.070325665 -0.044784028
0000a0 c0 0e 0f 3d bb 3c 1e bc fc 97 15 3d 7b a2 59 bd
       0.034926176 -0.009658034 0.036521897 -0.05313347
0000b0 cb 2e a7 3c 62 94 ca bc f3 c5 13 bc 48 31 0b 3d
       0.020408055 -0.024728958 -0.009019363 0.033982545
0000c0 2e a3 fe bb 80 7d 35 3d de 95 7b bd ca da 0b bc
       -0.0077709174 0.04430914 -0.06142222 -0.00853605
0000d0 81 93 80 bd 0e 47 ce bd 55 be fe bd 7a bf b6 bc
       -0.06278134 -0.10072146 -0.12438647 -0.0223081
0000e0 04 44 22 3c 41 0e 0f 3c 73 40 41 be dd 56 c7 bc
       0.0099039115 0.008731426 -0.18872242 -0.024333412
0000f0 55 b5 3c 3d 7a 3b 38 bd fa 55 48 be 40 a7 13 be
       0.04607137 -0.044978596 -0.19564047 -0.1441927
000100 85 4b c9 bd 33 30 77 bd fd ac 2c be 17 48 ab bd
       -0.09828857 -0.0603487 -0.16862865 -0.083633594
000110 54 82 18 be e4 f3 ea bd 17 ef a1 bd 07 5e 33 bd
       -0.14893466 -0.114723 -0.07906931 -0.043790843
000120 b6 81 c9 bd 82 25 85 bd 81 82 ed bc 20 cb 7d 3d
       -0.098391935 -0.06501295 -0.028992893 0.061961293
000130 79 a5 00 3e 02 b3 8c 3d 67 ac ee bd 60 2b 07 be
       0.12563123 0.068700805 -0.11653977 -0.1320014
000140 a6 ea 83 3d b5 6e 9a 3d 1d 1a 86 3c f2 d1 16 be
       0.0644124 0.07540647 0.016369874 -0.14728525
000150 08 0a 2b be 97 47 90 3d 14 27 f4 3d 92 92 8c 3d
       -0.16703045 0.07044905 0.11921516 0.068638936
000160 00 09 31 be 90 b6 e3 bc bf 5f 26 3d a7 a2 67 3d
       -0.1728859 -0.027797014 0.040618654 0.0565516
000170 c0 a2 41 bd e5 29 47 be 86 73 82 bd 0c e9 d1 3a
       -0.04727435 -0.19449575 -0.063696906 0.0016014888
000180 53 02 7e 3d fa 5e 95 3c 9d 56 47 bc 6f 9d 7a bd
       0.062013935 0.018233765 -0.012166646 -0.061185297
000190 f7 d0 ff bc 68 88 4a be fc 8f af 3d 38 fe cb 3d
       -0.031227572 -0.19778597 0.08572385 0.09960598
0001a0 ef 5b f1 bc 0f 06 72 be 72 b4 5d 3c f2 b3 b1 3d
       -0.029462783 -0.23635124 0.013531791 0.086769
0001b0 22 66 20 3e c8 d7 f3 3b 59 1d 2b be 46 d2 5a 3d
       0.1566396 0.0074414946 -0.16710414 0.05342319
0001c0 48 9c 06 3e 25 12 07 3e b2 16 c4 bd 85 13 de bc
       0.13145554 0.13190515 -0.09574641 -0.027108917
0001d0 40 c4 5e 3d 70 1a 22 bd 2e 5d 8b bd 88 f4 d6 bd
       0.054386377 -0.039575994 -0.06804882 -0.104958594
0001e0 5a fd 91 3d d6 1e 6e bc 6a d2 05 be f7 bb f7 bc
       0.07128401 -0.014533719 -0.13068548 -0.030240996
0001f0 ae cc cf bc 60 65 b7 3b da 67 2e bc 0f 3c 51 3d
       -0.025366154 0.0055968016 -0.010644877 0.051082667
000200 ca c6 8a bd 20 be 84 bd c6 9b 4d bd 31 a6 a9 3d
       -0.06776197 -0.06481576 -0.050197385 0.082836516
000210 ac cb 3e bb 92 39 1d 3d a1 a9 ed bc cb 0d 37 3c
       -0.0029113097 0.03838498 -0.02901155 0.011172722
000220 ef e4 0f 3c 58 15 4e 3c 27 99 24 bd 19 5d 19 bd
       0.008782609 0.012578331 -0.04018512 -0.0374423
000230 a3 13 35 3b 12 13 74 3d 5d 1a a1 3d 6c 60 4b bd
       0.0027630113 0.0595885 0.078663565 -0.049652502
000240 e8 66 fc bc 23 d6 bd bb 86 13 05 bc e0 de a6 3c
       -0.030810788 -0.0057933494 -0.0081223305 0.020369947
000250 0d 36 0a 3d d9 d5 0a bd a1 55 a9 bd 36 4e ae bd
       0.033742953 -0.033895347 -0.082682855 -0.08511011
000260 22 bf ca bd e0 c8 ce 3c 9d b5 7c 3d e8 9e 41 3d
       -0.09899737 0.025242269 0.061696637 0.047270685
000270 1e 61 ec bc 9a 8c 94 bd 96 ad ef 3c 84 b1 1c 3d
       -0.028854903 -0.0725338 0.029257577 0.03825523
000280 bf 22 09 3d f5 cc 4b bd ec 52 98 3c 45 ef ff bd
       0.033480402 -0.04975601 0.018594228 -0.12496809
000290 3f 3d 1f bd 30 77 40 bd 2f 78 1a bd bb 6a 3f bd
       -0.03887677 -0.046988666 -0.037712272 -0.046732645
0002a0 9a 45 b3 bd 77 0d b0 bd 70 56 d4 bd d8 0a 94 bc
       -0.0875351 -0.08596318 -0.10368049 -0.018071577
0002b0 9a cb 19 bd 7c b4 c3 bd 3d 43 12 be 53 42 15 be
       -0.037547685 -0.09555909 -0.14283462 -0.14576082
0002c0 00 80 0f be da 13 ae bd 05 6d f7 bc b8 86 2e bd
       -0.14013672 -0.0849988 -0.030203352 -0.042608947
0002d0 a0 99 ac bc ff f2 ae bc f3 5c a7 3c bd 0e 87 bc
       -0.021069348 -0.021356104 0.020430064 -0.01648652
0002e0 a9 c5 13 3d 31 c3 06 be b6 09 0e 3d 4e 54 31 3d
       0.036077175 -0.13160397 0.03467723 0.04329329
0002f0 e8 71 63 bd d7 47 48 bd 1c 63 1c be 44 85 af bc
       -0.05552855 -0.048896637 -0.15272182 -0.02142585
000300 8a 0d 9e 3d fb 40 bf b9 2c 52 a1 bd 92 47 45 bd
       0.07717426 -0.00036478773 -0.07877001 -0.048163958
000310 14 1b 04 bd 91 73 8b bd 13 73 c2 bc 7f de 00 be
       -0.032252386 -0.06809152 -0.023736512 -0.12584876
000320 cf 9a 02 be ed c7 d5 bd e1 60 48 3c 1e d3 ae 3d
       -0.12754367 -0.104385234 0.012230129 0.08536361
000330 bc fd 91 bd 88 f4 a0 be 34 33 8c bc 4a cb c7 3b
       -0.07128474 -0.31436563 -0.01711426 0.006097232
000340 71 d9 f0 3d 5e 78 0e bd 8c 72 43 be c1 03 e9 3c
       0.11760224 -0.03478276 -0.19086665 0.028444173
000350 55 bf fe 3c c2 4b 07 3d 95 c3 88 bd 2d 6e 05 bd
       0.031097094 0.033031233 -0.06677929 -0.032575775
000360 0a 43 a0 bc 02 e6 b5 bc bd a5 94 bd a7 64 0e bd
       -0.019563217 -0.022204403 -0.072581746 -0.03476396
000370 1f 59 1c 3d f5 9f 06 bd 16 e7 28 bd 6a 36 25 3b
       0.03817093 -0.03286739 -0.041236006 0.0025209435
000380 e8 2b 51 bd 4d 4c 1b be fc 47 bd bd e8 2b bb bc
       -0.051067263 -0.15165825 -0.092422456 -0.022848085
000390 93 9d 53 bc d4 c0 79 bc d5 f4 8f bd e5 d1 6c 3d
       -0.012915987 -0.015243728 -0.0702912 0.05781736
0003a0 f1 93 07 3e 9a 4e 4c 3d 20 06 38 3d 6d c6 5f bd
       0.13240029 0.049879648 0.044927716 -0.054632593
0003b0 98 4a f9 3c b2 2f c9 3d 8d 55 b0 3d 12 56 a4 bd
       0.030431077 0.0982355 0.086100675 -0.08024229
0003c0 49 37 86 bd bf 54 19 3d c9 2f 95 bc 4b c8 b2 bd
       -0.065535136 0.037434336 -0.018211262 -0.08729609
0003d0 7e 0b 32 be d7 e8 81 3c 70 bb e9 bd 09 3c 9e bd
       -0.17387196 0.015858097 -0.11412704 -0.077262945
0003e0 02 3b 21 bd 95 b0 65 bd 40 b6 9a bd 71 01 91 bc
       -0.039362915 -0.056076605 -0.07554293 -0.017700883
0003f0 f1 32 04 be b6 16 3d 3d 47 8c 5a 3d 03 38 05 be
       -0.12910058 0.046164237 0.053356435 -0.13009648

conv2.bias f4 [20]
000000 c0 2f a3 3b 7d eb a6 3c 61 fc 99 3d cf 76 70 bc
       0.0049800575 0.020375961 0.075188406 -0.014676764
000010 09 0f 89 bc cb a2 a1 bc 57 79 a5 bd 62 33 9c bc
       -0.016730802 -0.019730946 -0.08079784 -0.01906747
000020 e2 f6 89 3d b0 64 5a bd bf fb 27 3d 27 33 1c bd
       0.06736542 -0.05331868 0.04101157 -0.03813472
000030 75 57 83 bd 74 41 08 3d ad f7 51 3d c5 9e 99 bb
       -0.064131655 0.033265546 0.051261593 -0.0046881163
000040 31 87 62 bd 05 63 b7 bc be 7d 3d bd 2b 28 01 3d
       -0.05530471 -0.022386083 -0.046262495 0.031532448

fc1.weight f4 [50, 320]
000000 f9 6f 8c 3d 6a 61 a9 3d de be fb 3c 7a aa 57 3d
       0.068572946 0.082705334 0.030730661 0.052652813
000010 ef 27 44 bb 1b 0f c6 ba 40 a9 44 bd 0c be 55 3d
       -0.002993103 -0.0015110703 -0.048012972 0.052183196
000020 c5 ef 9d 3b 26 ae d9 bd 11 09 61 3c 0c 3a e4 3d
       0.0048198425 -0.10628919 0.013735072 0.11143884
000030 df c6 53 3e 20 7e 6a bd 44 ae 9e bd 93 b8 b7 39
       0.20681332 -0.05724919 -0.07748082 0.00035041998
000040 28 04 36 bd ec 83 15 bd a0 d8 5c 3d 3e 34 29 3c
       -0.044437557 -0.036502764 0.053917527 0.010327397
000050 8e d8 f8 3c 3a cd 3e 3d 2e d1 a1 3d b1 6c 15 bd
       0.030376699 0.046582438 0.07901226 -0.03648061
000060 e7 00 93 3d fd ff 92 bc 10 be 22 3d 6d a7 20 3d
       0.071779065 -0.01794433 0.03973204 0.03922217
000070 69 62 8d bd 2a 10 1b bd 19 40 b1 bd f8 73 13 bd
       -0.06903536 -0.037857212 -0.08654804 -0.03599927
000080 82 f2 67 bd cc 4d 07 bd f1 9d 3b bc aa 2c e1 bd
       -0.056627758 -0.033033177 -0.01145123 -0.10994847
000090 b4 90 3e 3c 99 9b 3e bc cd e2 75 bc 36 44 21 be
       0.01163118 -0.011633777 -0.015007687 -0.15748677
0000a0 ca 25 cf 3d dd e5 2b 3d be ea b3 3c 25 98 2a bd
       0.101146296 0.04196726 0.02196252 -0.041649003
0000b0 08 cf 98 3d eb ac 11 3d ac ef 2f bc 6b 14 09 3e
       0.07461363 0.035565298 -0.010738295 0.13386695
0000c0 75 c6 d3 bd 93 cc ec bd 7b 03 72 bd 22 8e 9f bd
       -0.10340587 -0.11562457 -0.05908535 -0.077907816
0000d0 a8 bc ae 3d fb d0 3f 3d 42 76 22 bd 4b 93 0d be
       0.08532077 0.04683016 -0.03966356 -0.13825719
0000e0 c7 f1 1c 3e 09 22 a7 3d 9f a8 b5 3c 5b 0e c3 3c
       0.15326606 0.081607886 0.022175131 0.023810556
0000f0 9a 3e 29 3d 58 5e 76 3c 98 07 d5 bd 77 62 7d 3d
       0.041319467 0.015037142 -0.10401839 0.06186148
000100 57 b4 35 bd 76 74 77 bd a1 b6 1a bd 9d 6f 5a 3c
       -0.04436144 -0.0604138 -0.037771825 0.013332275
000110 95 6e 48 3d b0 39 bf bd 7d a1 81 3d 01 a1 d5 bb
       0.048933584 -0.09337175 0.063296296 -0.0065194373
000120 96 fb b1 3d 66 b0 32 3c 02 2c 93 3d 5e 8e 91 bd
       0.08690564 0.0109063145 0.07186128 -0.071072325
000130 57 ac 7b bd 12 5f 74 3b 67 7a 0c bd f4 c6 cb bd
       -0.061443653 0.0037288112 -0.03429642 -0.09950057
000140 25 15 0e 3c af 3f 1d bd b7 c0 69 bd 57 ed a9 bc
       0.008672033 -0.03839081 -0.057068553 -0.020743055
000150 5b 72 bc 3d 7b cc 8e 3d 76 e5 66 3d ec 00 75 3c
       0.09201499 0.06972595 0.056371175 0.014953833
000160 68 6b b1 bc a6 a0 d0 3c 70 7b 82 3d fe 74 86 3d
       -0.02165766 0.025467228 0.063712 0.06565283
000170 f2 f0 3b 3d 32 82 12 be 9d f2 da bb 10 e4 5d bd
       0.04588408 -0.14307478 -0.006681754 -0.054172575
000180 ee 0a 00 bd a8 dc 04 bd 55 6a 81 3d 8b 5e de 3d
       -0.031260423 -0.032436997 0.06319109 0.108578764
000190 0b a3 15 bd 06 85 10 bd a6 65 46 3d 9e 05 f9 3d
       -0.036532443 -0.03528311 0.048436783 0.121592745
0001a0 13 41 99 3d 3a f0 51 bd ba 3a 77 3d 2f 5c b2 bd
       0.07483115 -0.05125449 0.06035874 -0.08708989
0001b0 fb 54 b9 3c b5 bb f3 39 88 97 a1 bd 07 eb 1a be
       0.02262353 0.00046488424 -0.078902304 -0.15128718
0001c0 16 6e 37 bc 26 f0 9b 3d 32 26 63 3d ce a2 d3 bc
       -0.01119568 0.07614164 0.055456348 -0.025834467
0001d0 d9 21 0b bd c6 ba 29 39 74 5b 9b bd 84 46 80 3c
       -0.033967827 0.00016186674 -0.07585803 0.015658624
0001e0 dd 8d b9 3b 97 d3 be bd ea a9 52 3d 03 58 18 bd
       0.0056626634 -0.09317701 0.051431574 -0.03719331
0001f0 b0 3e 37 be bf b9 88 bd 0e f2 71 bc f2 5b 0e bd
       -0.17895007 -0.06676053 -0.014767183 -0.034755655
000200 fb 62 a1 bd e0 79 e0 bd a6 79 85 bd 63 bb c1 bd
       -0.07880207 -0.10960746 -0.06517343 -0.09459569
000210 69 97 a7 bc 3c 73 52 bc d8 b7 67 bd c6 c3 b4 bd
       -0.02045794 -0.012844857 -0.05657181 -0.08826403
000220 36 6b df bb 00 74 8d 3d 47 19 1b 3d e0 24 67 bb
       -0.0068182005 0.06906891 0.037865903 -0.0035269782
000230 05 bf 4c 3c ec ac 11 bd 8b 86 f6 3d 9c f4 1c 3e
       0.0124967145 -0.0355653 0.12037381 0.15327686
000240 63 6d 81 bd 09 33 56 bd 4e fe 59 bd b0 87 01 bd
       -0.06319692 -0.052294765 -0.05322104 -0.031623542
000250 a5 3a 50 3e 4b 0b 30 bd 04 bd 0a be d4 98 cb bd
       0.20334871 -0.04297952 -0.13548666 -0.09941259
000260 81 72 81 3d ae 68 ce 3d d3 8b 1e 3d 76 83 1e 3d
       0.06320668 0.1007856 0.038707566 0.03869959
000270 cd 7a 8b 3d 27 b5 09 be ff 92 93 bd a9 39 46 be
       0.06810532 -0.1344801 -0.07205772 -0.19357933
000280 15 a3 10 3d c2 09 31 3d 6e ae d2 3d 6a 6f 84 bd
       0.035311777 0.043222196 0.10287176 -0.06466563
000290 45 c6 23 3d ed 2f 52 3d 42 bf be ba 73 ac 3a bd
       0.039984006 0.051315237 -0.0014552849 -0.045574617
0002a0 99 4f 42 bd 7c 2e 63 bd 8b 7b ac bd 74 11 8b bd
       -0.04743919 -0.055464253 -0.084220015 -0.06790438
0002b0 00 9e bc 3c 03 83 56 3c d5 dd 77 bd 0b 04 9b 3d
       0.023024559 0.013092759 -0.06051429 0.075691305
0002c0 d4 f7 53 3c b1 9e aa 3d cb f1 bb 3d 12 55 98 3c
       0.012937505 0.08331049 0.09176978 0.018595252
0002d0 b8 e5 9a bc d9 bb 97 bc 6f e0 ac 3c b3 f8 62 3d
       -0.018908367 -0.01852219 0.021103112 0.05541296
0002e0 74 b7 20 3d 65 25 d2 bd 80 99 79 3c a8 6a 3d bc
       0.039237455 -0.10261039 0.015234351 -0.011561073
0002f0 a8 97 9a bc 11 e8 bf bd 44 27 f0 bd fe 6e 01 be
       -0.018871143 -0.09370435 -0.11726239 -0.12639996
000300 32 39 48 bc 71 6e 8f 3d d5 11 5a bb 01 2c 00 3d
       -0.012220668 0.07003487 -0.003327479 0.031291965
000310 e4 52 0b bd dd 70 89 bd 8b 83 7f bc d8 2e 72 3d
       -0.034014598 -0.0671098 -0.015595327 0.059126705
000320 92 26 1a 3d 99 af a1 bb 7a 96 e6 3d b0 87 8e bd
       0.03763444 -0.004934263 0.1125917 -0.06959474
000330 b8 55 15 be 3c 7b 00 be ed 87 65 bc ec 2d b9 3d
       -0.1458348 -0.1254701 -0.014009458 0.09041962
000340 dd 7c de 3d 7a 55 a5 3c 9e 1b b8 3d ba f9 f9 bb
       0.108636595 0.02018236 0.089896426 -0.0076286467
000350 2c ed 4c bd 3c 39 84 bd 0a 29 bd 3b 99 88 ba bc
       -0.050030872 -0.06456229 0.0057727145 -0.022770213
000360 95 a9 98 3d b4 07 41 3d 85 b1 a1 bd b2 a3 75 bc
       0.0745422 0.047126487 -0.07895187 -0.014992641
000370 4d d7 a0 3d 2f 40 65 3d 34 39 db 3c 15 45 94 bd
       0.07853565 0.055969413 0.026760675 -0.07239739
000380 e4 0c c6 3d f4 00 d7 3c 27 b7 df bd 44 74 b9 3b
       0.096704274 0.026245572 -0.109236054 0.005659612
000390 29 4d 90 3d 65 52 8c 3d ae 66 ba 3c c5 01 71 3d
       0.07045967 0.06851653 0.02275404 0.05883958
0003a0 33 fa 27 bc e5 80 5d bd 18 ee 50 bd f3 b7 d0 bb
       -0.010252523 -0.054078 -0.051008314 -0.0063695847
0003b0 bd 0f f9 bd ce 9c dc bd f6 6f ea bd e0 16 59 3d
       -0.12161205 -0.107720956 -0.11447136 0.05300033
0003c0 9e 72 e8 bc 05 26 0d 3d b3 cb 84 bd 57 91 5d be
       -0.028374966 0.034460086 -0.06484165 -0.21637474
0003d0 16 b0 ed 3c 19 34 2e bc ad 16 23 be 4a 08 1d bd
       0.029014628 -0.010632538 -0.15926619 -0.038337983
0003e0 03 60 b0 bc 71 74 5f bd 9e 02 b4 3c 41 54 45 3e
       -0.021530157 -0.054554407 0.021973904 0.19270422
0003f0 c6 6b 4f 3d 3f 34 47 bc ce 84 e7 bc f7 21 14 3e
       0.05063989 -0.0121584525 -0.028261568 0.14466082

fc1.bias f4 [50]
000000 84 ed 0f bd 03 fb d9 3c c5 ca 9f 3d 11 34 fb 3d
       -0.035138622 0.02660895 0.07802347 0.1226579
000010 2a 34 8a 3d d3 44 e2 3d a3 b7 24 3d e9 24 91 3d
       0.06748231 0.110482834 0.040214192 0.07087118
000020 e7 80 c2 3d 67 9c db bc d6 5e 5e bd c8 59 f6 b9
       0.094972424 -0.026807977 -0.05428966 -0.0004698767
000030 49 3e 1f 3d 31 b9 7d 3c e2 58 87 3d 02 97 8d 3d
       0.03887776 0.015486048 0.0660875 0.06913568
000040 00 b6 5e 3d 01 31 20 3c b7 cd 60 bd 6b 3a 17 3d
       0.054372787 0.009777308 -0.054883685 0.036920946
000050 b7 aa f1 3d fb c4 ab bc 65 f0 56 3d 13 df 9d 3d
       0.118001394 -0.020967951 0.05247535 0.07708564
000060 38 53 b3 3d 54 1c 8b 3d 02 0d dd 3c 2c 0e a7 3d
       0.08756107 0.067925125 0.026983742 0.08157
000070 26 b5 3a 3d a7 98 ee 3c 7a 80 fb 3c 23 e7 9e 3b
       0.045582913 0.029125525 0.03070091 0.004849331
000080 ba 74 ce 3d 5d 76 7d bc 6c d6 d5 bc be 38 5b 3c
       0.100808576 -0.015470115 -0.02610322 0.013380228
000090 c1 f8 28 3d 91 81 ff 3d 33 e6 54 3c 33 10 d0 bb
       0.041252855 0.12475885 0.012994337 -0.0063495873
0000a0 e0 d3 e5 3c 49 f4 06 3e a6 8f fb 3c a5 13 d4 ba
       0.028055131 0.13179125 0.030708145 -0.0016180171
0000b0 b2 ec c9 3c 21 dc e2 3d 85 37 0e 3d 65 e7 ab 3d
       0.024648998 0.110771425 0.034720916 0.083937444
0000c0 16 3c c8 3d 31 26 0e 3d
       0.097770855 0.03470439

fc2.weight f4 [10, 50]
000000 0f 49 bb bd 29 e8 cc 3d b1 d2 95 be 8a 67 01 be
       -0.09144794 0.100052185 -0.29262307 -0.12637153
000010 8d 94 10 be aa 12 fe 3d 88 ee f1 3d bf bf 58 be
       -0.14119168 0.12405904 0.11813074 -0.21166895
000020 8d 7c 4a be b5 ae 65 bc 51 80 76 bd 92 c5 12 3e
       -0.19774075 -0.014018704 -0.060180966 0.1433318
000030 d0 20 1a bd 74 34 5f be 52 4b d0 bd 86 89 f7 bd
       -0.03762895 -0.21797353 -0.10170616 -0.120867774
000040 31 1d 26 3d 5e 96 f5 3d d7 85 f2 bd 7a ed d2 3d
       0.040555183 0.11991571 -0.11841934 0.10299201
000050 39 42 1d 3d 6f 8a 34 be b5 be cf 3d 7e ec 96 3d
       0.038393233 -0.17630933 0.10143796 0.07369326
000060 7c 83 9e 3d 05 c2 5d bd 72 eb 90 bd 85 1b 10 3e
       0.077399224 -0.05414011 -0.07076158 0.14072998
000070 01 14 95 be 1b 3c 98 be f2 e7 0b 3e c2 62 28 3e
       -0.29116824 -0.29733357 0.13662699 0.16443923
000080 8c 83 7d be 0a e9 37 3e 1c 50 04 3e b6 6e ea 3d
       -0.24757212 0.17959991 0.12921184 0.11446898
000090 e0 4e 01 be 16 f4 e6 3d 26 76 93 bd 7a 2b 5a bd
       -0.12627745 0.112770244 -0.072002694 -0.05326412
0000a0 22 bf 1f 3e 28 0c a5 be e3 ca f3 3d 70 b6 a6 3d
       0.15600255 -0.32235837 0.11903932 0.08140266
0000b0 91 5e 4f be 4e 91 3c be 11 8f 0c be af a9 a7 3d
       -0.20250918 -0.18414804 -0.1372645 0.081866615
0000c0 fd 6d b5 bd 3c 10 95 bd b4 5a 09 3c e1 b9 f9 3d
       -0.08858869 -0.07278487 0.008383442 0.12193657
0000d0 aa 76 00 3e ec fb 24 3e 99 23 00 3e a2 84 e9 3d
       0.12545267 0.16111726 0.1251358 0.11402251
0000e0 c8 5a ba 3d 17 b5 d1 3d 0b 89 23 be 24 c0 ee 3d
       0.090993464 0.10239618 -0.15970246 0.11657742
0000f0 61 da 89 be e9 09 93 be eb e4 5c be bb 8c cf bd
       -0.26924422 -0.28718498 -0.215717 -0.10134264
000100 fb 65 96 3d 49 3e 30 3e 1e 1a 46 bd fd ed e9 bd
       0.0734367 0.1721126 -0.04836475 -0.11422346
000110 26 ed 7e be dc 9f 59 be ff e2 2f 3e 73 b2 70 be
       -0.24895152 -0.21252388 0.17176436 -0.23505573
000120 74 7f 87 ba 47 d5 b0 bd 9a 89 b8 be 6c 2c b4 3d
       -0.0010337667 -0.086344294 -0.36042482 0.08797535
000130 d0 9e 09 be 14 b3 10 be a1 17 aa 3d dd 65 0c 3e
       -0.13439488 -0.14130813 0.08305288 0.13710733
000140 be a6 8c bd c4 d8 5e bd e2 f7 4d be 08 09 33 be
       -0.06867741 -0.054405943 -0.20114091 -0.17483914
000150 ce 3b 19 3d 30 21 3d be 5f 34 27 3d 50 96 2c 3e
       0.03741055 -0.18469691 0.04082143 0.16854215
000160 c1 06 87 be 63 fd 3f be bf 1c 61 be 21 f2 9e 3d
       -0.2637234 -0.18749003 -0.21983622 0.07761026
000170 b3 7b 3b 3d 5d 9a 95 be ed 6f e4 3d c1 b9 fc 3c
       0.045772266 -0.29219332 0.11154161 0.030850293
000180 12 48 eb 3d 31 80 57 be 63 51 10 3e fe e5 f8 bc
       0.11488356 -0.21044995 0.14093547 -0.030383106
000190 2e 26 0f 3e 8b 84 e2 bd c4 83 5c bd a5 7d 1d 3e
       0.13979408 -0.11060437 -0.0538366 0.15379961
0001a0 33 05 a6 bd c5 ba c4 3d 48 97 90 3d 34 37 2c bd
       -0.081064604 0.09605936 0.070601046 -0.042044833
0001b0 8d a9 09 be e0 97 d9 bc a4 0d 7d bd 29 f2 15 be
       -0.13443585 -0.026561677 -0.061780587 -0.14643158
0001c0 46 1c fa bd 55 ed 51 bc 41 10 34 3d 71 98 5d bd
       -0.12212424 -0.012812932 0.043960813 -0.054100458
0001d0 bd 3a 0b 3e 8a 83 12 3e 86 68 3d bc 8a 52 ce 3d
       0.13596626 0.1430799 -0.011560565 0.10074337
0001e0 ed 0e 2c 3e 89 7b 81 3d bc 6d a4 bd d3 ba b4 3d
       0.16802569 0.063223906 -0.08028743 0.088246964
0001f0 b4 d5 4f be 3d d5 16 be fe d2 0f 3e 67 86 66 be
       -0.20296365 -0.14729781 0.14045331 -0.22512208
000200 e2 b4 6b be 7f 4f e9 3d 47 07 3a 3e a5 ef 13 3e
       -0.2301822 0.11392116 0.18166839 0.14446886
000210 47 08 09 3d f4 37 89 bd f5 60 94 bb 34 4f f7 3d
       0.03345516 -0.06700125 -0.0045281597 0.12075654
000220 35 ca 77 be b3 1c 20 be be 12 49 be 88 bc 67 bc
       -0.2419823 -0.15635948 -0.19636056 -0.01414407
000230 85 a1 98 3d aa 0c 0d be 32 a7 31 bd f7 61 7a 3d
       0.074526824 -0.13774362 -0.04337234 0.061128583
000240 e6 85 05 3e f0 51 d6 3d 45 0c 64 bc 12 60 f7 bd
       0.1303936 0.10464847 -0.013918941 -0.12078871
000250 99 b9 25 3e 6f d7 f6 3d 9a c5 95 bd fb d1 9c bd
       0.16184081 0.120528094 -0.0731308 -0.07657238
000260 24 ee 07 be b1 df 85 bd c6 0e 24 be 8a 9c 13 bd
       -0.13274437 -0.065368064 -0.1602126 -0.03603796
000270 1d 8d 0f 3e 10 bf 8a be 28 7c 14 3e a9 c7 2a be
       0.14018674 -0.27098894 0.14500487 -0.16677727
000280 1a fe c6 bd 2d e1 29 be e9 61 3b 3e fe f4 14 3e
       -0.09716435 -0.16589804 0.18299069 0.14546582
000290 43 50 ae 3d 2c b4 1f 3e e0 45 53 bd 60 53 14 3e
       0.085114025 0.15596074 -0.05158031 0.1448493
0002a0 fe dc 12 be bd e1 e1 3d 01 fa 0b 3e 57 6c a1 bd
       -0.14342114 0.11029384 0.13669588 -0.07881992
0002b0 27 4b c3 bc 4e 11 99 3d 3c 89 9b 3c 61 84 25 3e
       -0.023839546 0.07474004 0.018986337 0.1616378
0002c0 4f de 8a 3d 73 0b 47 be 9f 51 a3 bc 2a b8 06 3e
       0.06780683 -0.19437961 -0.01993638 0.1315619
0002d0 55 52 00 bd aa cf e2 3d d9 99 2b 3e 78 9e b2 bb
       -0.031328518 0.11074765 0.16757907 -0.00545102
0002e0 a5 bf 39 be fd bc 47 3d bb 4e 6f bb ee 7a 84 3d
       -0.18139513 0.048764218 -0.0036515433 0.064687595
0002f0 57 cc be bd 18 c9 45 be 00 f4 23 be 80 3a fe 3d
       -0.093163185 -0.19314992 -0.16011047 0.12413502
000300 f4 05 7f be 06 4c 3f be 18 95 da bd e9 fe e3 3d
       -0.24904615 -0.18681344 -0.106729686 0.11132605
000310 7a 1f 2c be f1 d7 42 be 51 85 09 be b1 b5 0c 3e
       -0.16808882 -0.19027688 -0.13429762 0.13741185
000320 5c 05 3c 3e 36 61 0c 3e 3a d1 c9 3d 94 5c c7 bd
       0.1836142 0.13708958 0.0985436 -0.09734455
000330 0e da 05 3e 6c a1 0a be 1e f3 5c be e3 ee 58 3d
       0.13071463 -0.1353814 -0.21577117 0.052962195
000340 15 f2 2e bd 95 16 05 3e 35 5b 29 3e c8 56 53 3c
       -0.042711336 0.12996896 0.16538699 0.012899108
000350 b6 f2 a7 bd 42 e9 e3 3d 42 02 90 3d 87 45 b5 bd
       -0.0820059 0.11128475 0.07031681 -0.08851152
000360 c7 bc 0f be 89 e9 b9 be 51 52 2d 3e 86 89 df 3d
       -0.14036857 -0.36310986 0.16925932 0.109149024
000370 42 9b 48 be e6 02 b0 3d f4 f9 a8 3d 5b 0c 68 be
       -0.19590476 0.08594303 0.082508 -0.22660963
000380 94 73 65 bc 12 3d 47 be 80 12 23 be b6 f2 38 3d
       -0.014004607 -0.1945689 -0.15925026 0.045153342
000390 b7 63 9e 3d ec d4 f1 3d 45 7a b5 3c 66 44 8c bd
       0.07733863 0.1180819 0.02215303 -0.068489835
0003a0 31 6f 0e bd bf 3f 62 be c0 cb b0 bd d4 66 fa 3d
       -0.03477401 -0.2209463 -0.08632612 0.12226644
0003b0 c8 7c 2c 3d fc 18 51 be 5f 36 df 3d 6e 6c 88 3d
       0.04211119 -0.20419687 0.10899042 0.06661306
0003c0 ad e3 d7 bd 60 2f fe 3b cb 7f d8 3d 65 6d b7 3c
       -0.105414726 0.0077571124 0.105712496 0.02239103
0003d0 85 c4 28 bd da e6 45 be c3 9e db 3d 6d c0 79 be
       -0.04120304 -0.19326344 0.10723641 -0.24389811
0003e0 e7 2b 8d bd 31 77 60 be c0 d7 47 be cb 11 76 3d
       -0.06893139 -0.21920468 -0.19515896 0.060075562
0003f0 c9 e6 11 be 7c 50 db bd cf b0 5c bd 85 f8 35 3c
       -0.14248194 -0.107087106 -0.053879555 0.011106615

fc2.bias f4 [10]
000000 df 2a 4d bb ed f7 98 3d 2b d8 06 be 64 d6 dc 3d
       -0.003130607 0.07469163 -0.13168399 0.10783079
000010 0f 48 4b be f1 45 cf bd f8 c8 3f bd 28 bb b5 bd
       -0.19851707 -0.10120762 -0.046822518 -0.08873588
000020 2e e8 45 3e 72 71 f8 3d
       0.19326851 0.12131013

exp_avg f4 [10, 1, 5, 5]
000000 5d 63 51 3b 99 f8 e3 3a 7a 16 12 bb cb 2f 10 bc
       0.0031950094 0.0017392813 -0.002229123 -0.008800457
000010 4b c3 0e bc 02 f7 31 3b a9 46 8b 3a 28 f8 cd ba
       -0.008713554 0.0027155285 0.0010625917 -0.0015714215
000020 fc 5b f0 bb 65 6f ca bb 4c 4a 12 3b 47 43 c9 b9
       -0.007335184 -0.00617783 0.0022322116 -0.00038387833
000030 a3 fa b5 ba 57 4a 58 bb 6e 21 94 ba 00 46 c1 b6
       -0.00138839 -0.0033003294 -0.0011301467 -5.7599973e-06
000040 1c 72 d8 ba 9d 30 38 bb 2f ac 1d bb d0 ae ba 3a
       -0.00165135 -0.0028105148 -0.0024058928 0.0014242772
000050 10 4e 58 bb 8d f9 c2 bb 74 f5 d3 bb 5c 46 0e bb
       -0.0033005513 -0.005950159 -0.0064684693 -0.0021709418
000060 63 af 9f 3b 63 6b 59 3b 52 10 11 bb cf f7 14 bc
       0.0048732026 0.003317558 -0.0022134972 -0.009092285
000070 34 75 2a bc cb 74 08 bc 8d 1d 4c 3b 58 8d d9 ba
       -0.01040392 -0.008328627 0.0031145543 -0.001659791
000080 9e 09 04 bc 6e a1 f3 bb ba af 6d bb 3b 44 06 ba
       -0.008058934 -0.0074350154 -0.0036268071 -0.00051218615
000090 1a 9c a3 bb 7c dc d7 bb 70 9e 61 bb 1a b1 2c bb
       -0.004992974 -0.006587563 -0.0034426711 -0.0026350678
0000a0 b0 f3 0b ba a4 17 42 bb bb 56 29 bb 30 b9 bd 38
       -0.00053387415 -0.0029616142 -0.002583905 9.046716e-05
0000b0 80 a7 44 b9 5c 51 15 bb 1b be d2 3a 33 03 50 3b
       -0.00018754415 -0.002278409 0.0016078384 0.0031740188
0000c0 0d 03 5e 3b 10 6c 10 3b 26 7b 87 bb b9 56 01 bb
       0.003387633 0.0022037067 -0.0041345535 -0.0019735529
0000d0 cd 55 22 bb c0 83 6d b8 8c b1 c5 3a cf 39 2b bb
       -0.002477038 -5.6627905e-05 0.001508282 -0.0026126986
0000e0 48 9d 12 bb ba 8d e6 ba cf 07 51 3b 38 0c 7b 3b
       -0.002237158 -0.0017589845 0.0031895523 0.0038306843
0000f0 e4 a1 8c bb fe e5 7b bb 46 de 4c ba b8 2d 8a 3b
       -0.00429176 -0.0038436647 -0.0007815104 0.004216876
000100 84 c6 6c 3b b7 0d cb bb 15 ef cc bb 28 9b 8a bb
       0.0036129067 -0.0061967033 -0.0062540867 -0.004229922
000110 8d 41 f0 ba 2c 80 db b9 a1 42 11 bc a1 17 13 bc
       -0.0018330083 -0.0004186643 -0.008865983 -0.008977802
000120 40 ff fd bb 5d 79 8a bb 8d 92 3d bb 3c ae f9 39
       -0.0077513754 -0.0042258934 -0.0028926462 0.00047622796
000130 08 3f 15 3b 1c f5 27 3b df 85 09 3a 19 e3 1c bb
       0.0022773165 0.0025628274 0.00052460836 -0.0023939072
000140 86 67 39 3a 18 b3 2d 39 dd 61 a3 3a 9e 42 c4 39
       0.0007072616 0.00016565283 0.0012465079 0.00037433667
000150 72 4f 51 ba 9c f5 31 b9 f8 18 39 3a 20 57 c0 38
       -0.00079845556 -0.00016971532 0.00070609106 9.171502e-05
000160 d0 81 be ba 34 3b a6 ba 4b ea c1 3a 46 98 f9 3a
       -0.0014534537 -0.0012682439 0.0014794556 0.0019042573
000170 3a dd 1e ba 72 4d 51 bb 9f 45 23 ba 0d 57 2a 3a
       -0.0006060187 -0.003193703 -0.0006228331 0.0006497957
000180 64 ea bd 38 0c b2 6d bb 97 0d 9f bb ce cb 89 39
       9.055881e-05 -0.0036269454 -0.004853915 0.00026282523
000190 4c 26 bc bb 66 17 2c bc 4b 70 46 bc b0 e9 ec bb
       -0.00574187 -0.0105036255 -0.012111734 -0.007230006
0001a0 da 3b 30 bb da 87 9b bb aa 77 05 bc 61 fb c2 bb
       -0.0026891143 -0.0047464194 -0.008146206 -0.005950377
0001b0 99 11 38 ba e1 54 ff 39 2b 45 4d bb 2b db 75 bb
       -0.0007021665 0.0004870063 -0.0031321745 -0.0037514667
0001c0 fc 32 12 bb 1a 14 93 38 20 70 78 b7 7e 9c aa b9
       -0.002230822 7.0132504e-05 -1.4808058e-05 -0.00032541523
0001d0 d2 d9 7b 3b 7b 63 42 3a be b7 38 3a 94 aa 02 3a
       0.0038429392 0.00074153364 0.00070464227 0.00049845246
0001e0 20 37 d5 3a 3a 74 c5 3b fb 53 a4 3b 1d ce 51 3b
       0.0016267039 0.006025818 0.005014894 0.0032013722
0001f0 16 cb 07 3b f2 76 d7 3a a7 ae 18 3a cc 2f 2e bb
       0.0020720414 0.0016438647 0.0005824365 -0.0026578782
000200 4e 53 83 bb 92 4b a7 ba 3d d5 df 3a 09 dc 9e 3a
       -0.0040077334 -0.001276361 0.00170771 0.0012120019
000210 e3 bd 0b bb 24 55 0a bb fa d3 17 ba 30 62 dc b8
       -0.0021322898 -0.0021107877 -0.000579178 -0.00010508706
000220 14 be 86 b9 58 6e a7 b9 e0 d6 8a b8 98 7b 2d ba
       -0.0002570009 -0.00031934935 -6.6203764e-05 -0.0006617843
000230 87 d0 a0 ba 79 6b f8 ba 64 3b 73 ba 60 5d 4f 39
       -0.0012269177 -0.0018952928 -0.0009278564 0.00019775843
000240 ec c9 4b ba 16 eb 2e bb 97 5a a7 ba 18 7b cf b9
       -0.0007773924 -0.0026690415 -0.0012768087 -0.0003957383
000250 1a db 88 ba e8 fd 0d bb 3f e7 90 3a cc ea f0 39
       -0.0010441274 -0.0021666232 0.0011055245 0.00045951304
000260 88 48 03 3b 32 3b 86 3a 1e 91 58 3b 0f c9 8f 3b
       0.0020032246 0.001024103 0.003304548 0.0043879817
000270 40 24 75 3b be b4 b1 b9 18 37 a3 bb 54 1e c0 ba
       0.003740564 -0.00033894734 -0.004980933 -0.0014657476
000280 a9 76 aa 3b eb e9 db 3a 36 4f 0c bb ef c4 43 bb
       0.0052021337 0.0016778087 -0.0021409518 -0.002987202
000290 50 0e 09 39 e8 bf 64 3b 16 85 7f ba 37 75 b2 ba
       0.0001307067 0.0034904424 -0.00097473094 -0.0013615255
0002a0 4c 12 f5 ba 56 71 8f 3a e3 7e 55 3b d0 fe 7f b9
       -0.001869747 0.0010943811 0.003257685 -0.0002441362
0002b0 1c 02 b7 ba 08 ea 50 ba 1b 24 db 39 f3 f3 e8 ba
       -0.0013962421 -0.00079694437 0.00041797836 -0.0017772898
0002c0 8e 75 99 ba 28 47 d2 b9 c4 1d a0 ba b0 96 b7 b9
       -0.0011708008 -0.00040107337 -0.0012215902 -0.0003501675
0002d0 dc 7d a7 b9 c2 d6 e0 ba 34 4c 83 bb 06 eb 70 bb
       -0.00031946495 -0.0017153847 -0.004006887 -0.0036761179
0002e0 80 5d 8f 39 77 76 0a bb 24 84 22 bb 9a ba b1 bb
       0.00027344748 -0.002112774 -0.0024798 -0.005423856
0002f0 00 45 1e 38 62 f6 9e 3b 8e 14 21 bb 4f 80 18 bb
       3.7734397e-05 0.0048511485 -0.0024578902 -0.0023269837
000300 a0 dc 34 bb 47 20 0c 3b 67 89 bf 3b 7b 82 8d bb
       -0.0027597323 0.0021381543 0.005845237 -0.004318533
000310 cc 53 69 bb 6c 6a 31 bb 8e f1 5a 3b 0c 13 cf 3b
       -0.0035602925 -0.002707149 0.0033408138 0.0063194092
000320 5c 2d 85 3b 5e 14 de 3a 38 8e 76 39 2c db 94 39
       0.004064245 0.0016943326 0.00023513369 0.00028392056
000330 81 1d 6b 39 9f 2f 38 3b c0 87 c2 b7 44 e0 55 b9
       0.00022422337 0.0028104556 -2.3189816e-05 -0.00020396808
000340 5b d6 1c 3b c5 86 62 3b 30 6d 80 3b c8 3f db 3a
       0.0023931477 0.0034565192 0.003919266 0.0016727382
000350 d9 81 24 3b 6f 3d 94 3b 75 73 85 3b 3a 63 05 3b
       0.002510181 0.004523925 0.0040726014 0.0020353333
000360 70 75 3b 39 08 aa c6 3a 5e 93 22 3b 41 26 4b 3b
       0.00017877459 0.0015156874 0.0024807076 0.0030998143
000370 a7 ba ad 3a a0 99 98 38 b2 ba cc b9 c7 26 5d ba
       0.0013254479 7.27654e-05 -0.0003904901 -0.0008436259
000380 c1 47 77 ba d9 03 b2 ba ed fb 88 bb 69 18 99 bb
       -0.00094329944 -0.0013581469 -0.0041804225 -0.0046720994
000390 ec 04 23 bb bc 22 1f ba 32 36 36 ba a7 75 3c bb
       -0.002487476 -0.00060705445 -0.0006950825 -0.002875665
0003a0 34 74 e7 ba 49 a3 3b 3b 06 e8 53 3b bb 6b a1 ba
       -0.0017658533 0.002863126 0.0032334342 -0.0012315431
0003b0 2b c9 8f ba 29 14 b5 ba 7d 94 a5 3a 32 10 cd 39
       -0.0010969987 -0.0013815212 0.0012632754 0.00039112713
0003c0 8e 8e 2c bb ac 91 ef ba e2 48 f0 ba f6 ca c4 ba
       -0.0026330086 -0.0018277667 -0.0018332268 -0.00150141
0003d0 c8 a0 7c ba dc 62 66 bb 6b 1a 0b bb 87 19 09 bb
       -0.00096369954 -0.003515414 -0.0021225463 -0.0020919756
0003e0 d2 4b 41 bb c6 63 8c ba
       -0.0029494655 -0.0010710887

exp_avg_sq f4 [10, 1, 5, 5]
000000 31 88 01 3a df 78 b1 39 c6 94 a8 39 14 d6 a8 39
       0.00049412536 0.00033850127 0.00032154302 0.00032202958
000010 b2 00 b6 39 37 41 e7 39 26 0d 8a 39 f8 71 a0 39
       0.00034714263 0.00044108342 0.00026331207 0.00030602491
000020 e5 6b 9c 39 fe 24 a0 39 6f 04 d9 39 e8 73 6b 39
       0.00029835026 0.0003054514 0.0004139277 0.00022454525
000030 95 75 bc 39 08 69 95 39 f4 12 9c 39 da 45 c5 39
       0.0003594576 0.0002849775 0.0002976876 0.00037626812
000040 58 07 8b 39 e0 27 cb 39 2f 54 9a 39 fc d4 a9 39
       0.00026517618 0.00038748886 0.0002943589 0.00032392878
000050 93 88 d7 39 78 15 b8 39 69 4c b1 39 ca c9 94 39
       0.0004110975 0.0003511121 0.00033817 0.00028379104
000060 fa 4e b9 39 89 0d b2 39 78 eb a4 39 18 83 a4 39
       0.00035344792 0.0003396089 0.00031455955 0.0003137819
000070 97 17 ac 39 d3 b0 c8 39 f0 46 84 39 8b 06 89 39
       0.00032823972 0.00038278717 0.00025229855 0.0002613555
000080 c0 f9 89 39 d6 1a 9c 39 b3 2a c1 39 3a e0 73 39
       0.00026316755 0.00029774633 0.00036843642 0.00023257817
000090 71 82 81 39 c7 d0 5e 39 57 d4 99 39 53 a3 bc 39
       0.00024701984 0.00021249345 0.0002934064 0.0003597984
0000a0 68 1f 79 39 31 a5 6b 39 e6 c9 7f 39 e9 d6 ad 39
       0.0002375819 0.00022472885 0.00024393908 0.00033157252
0000b0 24 9b c4 39 2b dc 7f 39 8e 91 8b 39 fb ff a5 39
       0.00037499622 0.00024400714 0.00026620593 0.00031661973
0000c0 45 1d be 39 97 1d ce 39 91 7c d0 39 97 3a cd 39
       0.00036261432 0.00039313428 0.0003976566 0.000391443
0000d0 33 aa c3 39 46 eb ac 39 9a aa a5 39 3b 53 ac 39
       0.00037320107 0.0003298169 0.0003159836 0.00032868408
0000e0 7a e0 a4 39 f4 f3 b6 39 a4 85 b2 39 4b 4a a3 39
       0.00031447766 0.00034895504 0.00034050376 0.00031145135
0000f0 39 29 b6 39 da e3 d3 39 71 60 9f 39 28 4d b0 39
       0.00034744458 0.0004041482 0.00030398698 0.00033626822
000100 d0 2f a3 39 88 fa ba 39 8d b1 aa 39 bf 57 ad 39
       0.00031125406 0.00035663345 0.00032557212 0.00033062507
000110 7b c0 b6 39 55 ae a3 39 e9 09 c5 39 ba 5b cc 39
       0.00034857154 0.0003121967 0.00037582152 0.00038978254
000120 b9 5b d0 39 6c fb b4 39 ad 84 b1 39 dc 8f bb 39
       0.0003974119 0.000345196 0.00033858922 0.00035774603
000130 e6 38 b4 39 1a 7f c0 39 6c d2 da 39 a7 11 f3 39
       0.00034374668 0.00036715792 0.00041736977 0.00046361724
000140 be e5 b2 39 52 c0 af 39 c5 f5 bc 39 55 2e ed 39
       0.00034121977 0.0003352189 0.00036041267 0.00045238683
000150 50 04 08 3a 98 b6 b7 39 85 90 b5 39 56 ce c8 39
       0.0005188631 0.00035040523 0.00034630686 0.00038300705
000160 dd 0e 0d 3a bd b4 00 3a 67 30 c4 39 e8 86 ca 39
       0.0005380938 0.00049097446 0.00037420096 0.00038628955
000170 9e 31 ea 39 1b 3f 0c 3a d2 61 db 39 cf 5b c8 39
       0.00044668926 0.00053499796 0.00041843817 0.00038215375
000180 89 a8 dd 39 ea 86 ff 39 5e b5 f2 39 b7 9b be 39
       0.00042277973 0.0004873791 0.00046292966 0.0003635564
000190 a7 5c aa 39 f8 e2 df 39 50 15 e5 39 ed d3 ce 39
       0.00032493958 0.0004270298 0.00043694163 0.0003944928
0001a0 29 1a e4 39 08 d8 a1 39 0a 7c cd 39 f1 55 9c 39
       0.0004350704 0.0003086927 0.00039193063 0.0002981867
0001b0 a1 b9 a8 39 bf ad d2 39 a4 1e a7 39 4a 5d 85 39
       0.0003218176 0.00040183772 0.0003187555 0.00025437243
0001c0 49 47 87 39 ce 33 c2 39 db 7d d6 39 fe 28 ab 39
       0.00025802318 0.0003704116 0.0004091103 0.00032646203
0001d0 c1 f7 87 39 40 67 ba 39 f1 5d e1 39 65 a7 eb 39
       0.00025933798 0.00035553612 0.00042985336 0.00044947412
0001e0 60 cc bd 39 ed 1d ce 39 6b 8b e3 39 9d a4 f5 39
       0.0003620116 0.00039313678 0.00043400688 0.00046852688
0001f0 3d 77 03 3a f3 72 9c 39 65 8d ac 39 56 4c af 39
       0.00050150213 0.00029840283 0.00032911744 0.00033435476
000200 51 f6 9f 39 89 5d 9c 39 d2 ce 9a 39 58 cc 9d 39
       0.00030510363 0.00029824328 0.00029527262 0.00030097621
000210 b6 9a 9c 39 c9 0f 9c 39 50 d9 a0 39 3b 4c 9b 39
       0.00029869907 0.000297664 0.0003067949 0.000296207
000220 6d b7 94 39 f3 59 9c 39 25 43 9f 39 e1 7c a6 39
       0.00028365423 0.00029821656 0.0003037687 0.0003175503
000230 1d cd 99 39 cd 54 9a 39 78 32 a3 39 65 92 a2 39
       0.00029335255 0.0002943635 0.00031127385 0.0003100812
000240 29 9b 9e 39 45 8e 9c 39 f0 10 a0 39 d0 f4 a3 39
       0.00030251712 0.00029860638 0.00030530198 0.00031272182
000250 5a c9 9f 39 77 42 9c 39 59 02 ba 3a 9e 11 b5 3a
       0.00030476862 0.0002980416 0.0014191373 0.0013814454
000260 7f 87 c1 3a 62 ae c4 3a 10 63 c9 3a ad 59 ce 3a
       0.0014765112 0.0015005583 0.0015364606 0.0015743278
000270 5f e4 d2 3a ba 98 cc 3a 24 8c bf 3a 40 68 cb 3a
       0.0016089788 0.0015609481 0.0014613909 0.001551874
000280 b1 13 d5 3a 51 43 be 3a 76 d6 ae 3a c7 76 ad 3a
       0.0016256479 0.0014515911 0.0013339061 0.0013234251
000290 6f 4e c1 3a e7 c5 bf 3a 01 72 ae 3a 3f e7 b7 3a
       0.0014748106 0.0014631123 0.0013309122 0.0014030709
0002a0 c4 58 b4 3a 3e 0e c6 3a 8c 02 b5 3a 16 6b c0 3a
       0.0013759364 0.0015110446 0.0013809963 0.0014680352
0002b0 3a 24 cb 3a 49 89 ce 3a 4f 91 d8 3a 56 68 2a 3a
       0.0015498467 0.0015757467 0.0016522798 0.00065005326
0002c0 f4 39 1d 3a 27 76 14 3a 92 74 09 3a b0 53 04 3a
       0.00059977104 0.0005663358 0.00052435056 0.0005047871
0002d0 7c 4a 37 3a bf c0 26 3a 3f 46 1f 3a 05 aa 15 3a
       0.0006991995 0.0006361119 0.0006075836 0.0005709234
0002e0 cf eb 03 3a 36 65 30 3a a1 4f 26 3a 81 be 1b 3a
       0.00050323916 0.0006728949 0.0006344263 0.0005941168
0002f0 76 0f 15 3a 7f 00 08 3a 6d 08 31 3a d5 8c 29 3a
       0.0005686203 0.0005188062 0.00067532697 0.0006467824
000300 41 f2 1c 3a 47 1c 0a 3a e2 6b 0d 3a 0a 24 30 3a
       0.00059870264 0.0005268496 0.0005394799 0.00067192374
000310 e0 45 27 3a 02 f7 1a 3a b9 b9 0e 3a 2a 07 1e 3a
       0.00063809566 0.0005911441 0.0005444545 0.0006028289
000320 f3 fa 88 39 ab 35 aa 39 c4 cd d3 39 6e d9 bc 39
       0.00026126913 0.00032464913 0.00040398363 0.00036020152
000330 54 60 b2 39 68 fa 82 39 40 c2 b0 39 42 4f a9 39
       0.00034022576 0.000249821 0.00033714063 0.00032293244
000340 fa 64 80 39 fd ef 91 39 c0 cd 86 39 82 11 9c 39
       0.00024489296 0.0002783536 0.00025711767 0.00029767683
000350 a7 49 84 39 93 58 81 39 81 f4 9d 39 01 cb 81 39
       0.00025231877 0.0002467079 0.00030127543 0.00024756047
000360 94 6d 90 39 36 d1 7d 39 36 2a 9d 39 e2 33 c3 39
       0.00027547462 0.00024205897 0.00029976823 0.00037231954
000370 9b b6 95 39 0b 43 97 39 d8 f8 af 39 4e 50 d8 39
       0.00028555546 0.00028850915 0.00033564004 0.00041258562
000380 d6 f4 ed 39 2a 39 30 39 c8 34 1d 39 1d 5f 1b 39
       0.0004538658 0.00016805963 0.0001499235 0.00014817384
000390 ef 92 2b 39 3d 41 40 39 6b f0 1b 39 55 27 02 39
       0.00016362568 0.0001833485 0.00014871515 0.00012412418
0003a0 ab b0 01 39 62 61 1d 39 35 63 3a 39 7f ca 28 39
       0.00012368213 0.00015008965 0.000177753 0.00016097164
0003b0 ef 96 10 39 e9 4a 08 39 bf 80 22 39 1f b5 39 39
       0.00013789137 0.00012997877 0.00015497486 0.00017710448
0003c0 af 0c 2e 39 c4 b7 35 39 5a eb 2a 39 bf ea 22 39
       0.00016598658 0.00017329963 0.00016300139 0.00015536974
0003d0 dc 10 3d 39 7e 94 4d 39 48 83 54 39 e2 17 49 39
       0.00018030725 0.00019605641 0.00020266802 0.00019177751
0003e0 62 26 3b 39 bc 52 57 39
       0.00017848008 0.00020534819

exp_avg f4 [10]
000000 20 69 0a bb ec 75 5e 3a a2 cb d4 3b 93 58 95 3a
       -0.0021119788 0.00084861997 0.0064940015 0.0011394195
000010 c4 33 f0 ba 98 54 d3 3a fc 78 d0 3b e6 1c 04 3c
       -0.0018325974 0.0016123233 0.0063620787 0.008063531
000020 bb 86 49 bb 97 77 9a 3a
       -0.0030750472 0.0011784908

exp_avg_sq f4 [10]
000000 14 c8 2c 3a 6c ca db 39 96 6b 56 3a ce 94 ac 39
       0.0006591093 0.0004192175 0.00081794837 0.00032917265
000010 a9 d1 11 3a 6b 56 af 39 b8 93 0b 3b 2d 18 5c 3a
       0.0005562553 0.00033442987 0.0021297764 0.00083959365
000020 8a 7e a4 39 69 4a 27 39
       0.00031374797 0.00015954081
