MNIST_/checkpoint/model_epoch10.pth (torch, 268573 bytes, 24 tensors)

conv1.weight f4 [10, 1, 5, 5]
00000000: 2d6a 343d a046 933e b5f6 c13e 4056 bd3c
00000010: e094 77bc 3143 dfbd 283a 34bb ae4b 983e
00000020: c2f9 723e f23e 5fbd fcc7 cfbe 3b69 213d
00000030: 1895 f13e 4f1f 153e 1973 04be b00b 94be
00000040: 8c15 96bd 3962 ad3e 8608 323e 6ae5 ed3d
00000050: dd2f 50be 14f4 fdbc 2859 513e 1460 6d3e
00000060: 66d7 5e3d 35a8 833d 4040 7c3e 9f89 233e
00000070: fafb 75bc 66df 46ba 27b3 11be 2d64 9d3e
00000080: fb28 233d 8253 1abd a2e1 5bbe 9077 a43b
00000090: bed6 9d3e dfdc 033e abf6 7fbd 2e49 58be
000000a0: 31ab 083e 8fff 613e 615f 5d3c 5106 e7bd
000000b0: 4f5b 12be 9994 1a3e b158 623e d8ff 6abd
000000c0: 1c21 5ebe b624 41be 2b93 eb3e d4be 0c3f
000000d0: abe4 a43e 1e3f 413e 267e 97be ed6a 9fbd
000000e0: 1af8 40be cdf5 60bb 4383 283e 6628 8c3d
000000f0: 1e87 82be c0ec 12bf cd50 03be 2170 2cbb
00000100: 3045 a13e b010 21bd 2e97 91be 2906 b73b
00000110: aa9b 5a3e 070d e1bb cb92 be3e e36d 003f
00000120: 51e4 b63d 8a19 6abe 75c7 b13d 32c9 fbbd
00000130: 5732 b1bd 1d86 e53d d208 053e 6a89 bbbd
00000140: e2de a4be fee9 22be df59 75be a18e 513d
00000150: 6edf 1b3e b1bc a8bd 9b9b 81be fffc 7bbe
00000160: 5a06 0b3e 27cf 143e bba0 a6be feea 03be
00000170: 6c61 573d bbe1 ae3e 7102 433e 6295 13be
00000180: daed 903d b3ca 793e 0ac0 923e 203e a43e
00000190: d773 693d 1292 363d 96aa 3f3e c010 363d
000001a0: 3760 fe3d 4865 533e 2d98 733d be4b 8dbd
000001b0: a504 09bd 2495 4fbd 7a1d 023f ce9d 85bc
000001c0: 7b19 7cbe edd7 49bd bf4e a43d 3bfb af3e
000001d0: d61f 0fbe ee62 44be b9c8 0abe 7642 2ebe
000001e0: 88f5 0f3e 36bb 28be 71d6 17bd 5cd4 35bd
000001f0: 4910 38be 82bf 17be ee94 983d 97d0 283e
00000200: 9ab5 97bb 4745 8fbe 0ba2 21be 13c6 453e
00000210: ff89 023e d8e7 2dbe 5d63 12be 6382 09bd
00000220: 8e52 66bc 1110 3cbd 923b f6bc 03e2 48be
00000230: f880 2bbc 03cb a8bd 7481 43bc 013d 2cbd
00000240: b7e1 3dbe 519f bb3d 8c93 03be 9ea6 023e
00000250: 8e40 7dbe 038c 8ebd 444f 713e cf10 303e
00000260: a830 4b3e 5467 6d3e 1cc8 883e 614b b43e
00000270: f72c 293e f5a2 773e 5463 ac3d d471 923e
00000280: 1e6b bd3c bc60 253e 023a ec3a 3450 4f3d
00000290: dd6f 9c3d c4f1 9bbe 0255 cdbd f3fd 45be
000002a0: f4fe b1bd 0f13 c5bd 27c5 aebe f97f 01bf
000002b0: 16f7 b5be d88d c6be 9112 fdbd 8076 8dbb
000002c0: a2e4 9b3e 19da 2b3e e0fc 74bd 80dd 57be
000002d0: 0522 9d3d 2dae f73d 5c7a 603e 4fe4 3a3e
000002e0: daba c5bd e383 b2be da88 a9bd 528e 3e3e
000002f0: 90ca c53e a167 363e f080 88bd 144e 13be
00000300: e9c5 67be 5ab2 203d 927c 3c3e 0833 9bbe
00000310: 18d3 7ebd ff1f 6abe 027f 54be 6085 92bb
00000320: 6034 0f3d d6e2 81bd ed6d 243e ff58 d83c
00000330: 0b6f 2e3e 6d4c 14be 8e78 b73d 2e12 ccbc
00000340: a965 7fbe 3c3c 47be a005 35bd 660a 8a3e
00000350: 0006 2cbe 7b4d d7be 9736 b7be 7967 3bbe
00000360: 7f2c 043f 9f86 c03e 2775 b7be 4d4b 98bd
00000370: 9a7b 13be 931d 1d3e a291 0b3f bbee 233e
00000380: 59cd 373e e60c ffbe bd18 6bbc 09cd 963e
00000390: 641a 993e 9b9e d23d b5fc cc3b 78ca 053f
000003a0: 6d1f e93e de91 9dbd 8c69 eebc bba5 e93d
000003b0: 5d59 893e 219c 4dbe 9eaa 9dbe 8813 6bbe
000003c0: 38fd 3e3e 19c4 32bd b28b 32be d499 0ebe
000003d0: 65d7 f13c 351e b63d ef20 bcbd 37ee 043e
000003e0: 1992 abbc 8cdc 363e
0.04404657 0.2876482 0.37883535 0.023112416 -0.015111178 -0.109014876 -0.0027500484 0.2974524
0.23728088 -0.05450339 -0.40582263 0.039406996 0.47184062 0.14562725 -0.12934531 -0.28915167
-0.073283285 0.33864 0.17386064 0.11616023 -0.20330758 -0.031000175 0.20444167 0.23181182
0.05440464 0.06428567 0.24633884 0.15970467 -0.015013689 -0.00075863895 -0.14228497 0.3074049
0.039834004 -0.037677296 -0.21472791 0.005019136 0.30827898 0.12877224 -0.0624911 -0.21121666
0.13346554 0.22070144 0.01351151 -0.11280502 -0.14292644 0.15095748 0.22104146 -0.057372898
-0.21692318 -0.1886166 0.46010718 0.5497868 0.3220571 0.18871734 -0.2958843 -0.07784066
-0.18844643 -0.0034326196 0.16456322 0.06843643 -0.2549371 -0.573925 -0.12823792 -0.0026311951
0.31498098 -0.039322555 -0.28435653 0.005585451 0.21348444 -0.006868008 0.3722137 0.50167674
0.08930267 -0.22861305 0.086806215 -0.12294234 -0.0865218 0.11207221 0.12991646 -0.09157069
-0.32201296 -0.15909573 -0.23960064 0.051161412 0.1522195 -0.08239115 -0.2531403 -0.24608229
0.13576642 0.14532147 -0.32544503 -0.12882611 0.052583143 0.34156594 0.190439 -0.14412454
0.070766166 0.2439373 0.2866214 0.32078648 0.05699524 0.044572897 0.18717417 0.044449568
0.12420695 0.20644104 0.059471298 -0.06899212 -0.033451695 -0.05067934 0.5082623 -0.016310599
-0.24619095 -0.04927819 0.08022832 0.3437136 -0.13976988 -0.19178364 -0.13553132 -0.1701754
0.14058506 -0.16477665 -0.03706974 -0.044391975 -0.17974962 -0.14819148 0.07450281 0.1648582
-0.004629803 -0.27982542 -0.1578447 0.1931384 0.12747954 -0.16982973 -0.14295717 -0.033571612
-0.0140577685 -0.04591376 -0.030057702 -0.19617467 -0.01046776 -0.082418464 -0.0119327195 -0.042050365
-0.18543135 0.091612466 -0.12849253 0.12758872 -0.24731657 -0.06960299 0.23565394 0.17193912
0.1984278 0.23183948 0.2671517 0.3521376 0.16521059 0.24183257 0.08417383 0.2860247
0.023122367 0.16150182 0.0018022659 0.050613597 0.07638524 -0.3045789 -0.100259796 -0.19335155
-0.086912066 -0.09622776 -0.3413479 -0.50585896 -0.35540074 -0.38780093 -0.12357057 -0.004317105
0.3044787 0.16782416 -0.059811473 -0.2108059 0.07672504 0.12093768 0.21921676 0.18251155
-0.0965478 -0.34866247 -0.082780555 0.18608978 0.38631105 0.17812969 -0.06665218 -0.14385253
-0.2263409 0.03923259 0.18406895 -0.3031237 -0.062213033 -0.22863768 -0.20751575 -0.004471466
0.034962058 -0.06342094 0.16057558 0.026409624 0.17034547 -0.14482279 0.08958541 -0.024911013
-0.24941124 -0.19456571 -0.044194818 0.26961058 -0.16799164 -0.420513 -0.35783836 -0.1830119
0.51630396 0.37602708 -0.35831568 -0.074362375 -0.14402619 0.15343313 0.54519093 0.16009037
0.17949428 -0.49814528 -0.01434916 0.29453304 0.29902947 0.10284158 0.006255711 0.5226207
0.45531788 -0.076938376 -0.029103063 0.11408564 0.2682599 -0.2007909 -0.30794233 -0.2295667
0.18651283 -0.043644045 -0.17436102 -0.13925868 0.029521653 0.0889248 -0.09185969 0.12981497
-0.020943688 0.1785757

conv1.bias f4 [10]
00000000: be35 40bd 3fad 4bbe 5a6a 923d def0 acbd
00000010: f960 a0be 3af7 03bf ad9f e33d a321 543d
00000020: e37b 8fbe ac75 5b3c
-0.046926253 -0.19890307 0.07149191 -0.08444379 -0.31323984 -0.5154911 0.1111444 0.05178989
-0.28024206 0.013394754

conv2.weight f4 [20, 10, 5, 5]
00000000: 749a f1bd 178b da3d 79d5 2dbd 1126 11bd
00000010: 9562 2d3e 5f41 b8bd e045 3b3e 507a f63d
00000020: eb7b 2e3c 7617 5c3e 2edc edbd 2d3b 0d3d
00000030: 5d75 f93d d038 c4bd 4681 89bd 525b 05be
00000040: 56bd 193d 0dfb 833d c61c 1cbe 6315 4cbe
00000050: 84c8 e4bd f55a 74bd 012f 1f3d 1838 0bbe
00000060: 9e44 79be c43e 60bc e191 533d 8af7 ca3c
00000070: 77b3 833d 6d70 5abd 75f3 cebe a944 783d
00000080: 368f 9f3d 0494 a43d f95a 313d 03f0 11be
00000090: ceb3 583d 4b21 ad3d 1ad1 973d fcb3 383d
000000a0: 9059 a83d c347 4a3d a643 273d 9516 bbbc
000000b0: 4014 5d3c 5202 f73b 2eaa 9a38 ad2d 923d
000000c0: 60cf 613d 0149 6b3d 40a6 74be 5dc8 2abe
000000d0: 9080 89bd 02b7 d9bd 61ee 013d 4bac 4fbd
000000e0: b5f7 433d de67 143d 5a36 74be 49dd 05bd
000000f0: 24d2 d23c 7acf 7fbd 35ca bcbe a7fc 15be
00000100: c402 38be 1d97 0dbe 11af 77be 8871 10be
00000110: b38c 6bbe 99a4 30be 1943 18be dbb9 52be
00000120: 3fc9 32be 1c66 05bd 6745 bfbd c60d f53d
00000130: 9895 e83d 665a 993d fd39 37be 40e8 99be
00000140: 7b7a fb3d 8226 cf3d 6451 4e3d c36f 27be
00000150: 0e87 13be 8438 253e 5976 473e 946c 263e
00000160: 2a39 29bd c5dc 1abd 45fd ad3d d3d2 103e
00000170: 48fa 1bbd d437 0bbe e628 1cbe 39a8 c83b
00000180: fe87 d13d 0e5e 083e 5c91 b03d ad22 2bbe
00000190: db9c c7bd a23c 56be bb9c d53d 4b1e f13b
000001a0: 2af9 a7bc 8f10 cdbe 8aec ccbd 81a5 cf3d
000001b0: d3e6 e33d 7004 653d 1b8b bcbe 307f a33d
000001c0: 8bdf 123e 71aa f23d 708c 28bd b71f eb3c
000001d0: 9ab5 123d fcd1 35bd fa77 90bd 77d8 39bd
000001e0: fab7 c33d 8b32 81bd bb1d 22be dd0a b03b
000001f0: 809e 093c 4754 aebc 8d41 6d3d 8082 d7bd
00000200: c161 0fbe aba1 0dbe 66bc 95bd 0fdf 0a3e
00000210: f4c9 9dbd 8cf8 9f3d 1d36 d2bd 88ba fd3c
00000220: 7039 2e3d 925a ceba ac46 40bd 6fbe 2cbd
00000230: 9d92 183d 854f d23d 2ffe 833d 3968 a7bd
00000240: d3f3 99bc d9c5 24bc d046 8a3c 1625 1a3d
00000250: a191 1a3d 8671 2c3d 8e4b 5abe 1100 51bd
00000260: 17bb 243d ba66 6c3d 8172 f43d f257 913d
00000270: 3aba fa3c 588e 0f3c 3fed 4a3d 1b7b 0f3d
00000280: 8a00 253d 8145 f33b 1c37 143d d2c2 ddbd
00000290: 0f7f 12bb 3f93 2ebd e70e abbd a003 46bd
000002a0: ae3a 84bd b8c5 30bd cc7e 01be e66e d93c
000002b0: bd32 0abd d4bf b5bd edff 0abe fc17 7cbe
000002c0: ee97 98be d7e8 25be 35b3 05be 5f8b 913c
000002d0: 6cd1 f2bb 98b6 00bb 017c d23c 132b 613d
000002e0: 9394 833c 94ec babd 0bdc c23d 301b 693d
000002f0: c549 25bc fd0c d8bd 664e c2bd 8102 60bb
00000300: 4a76 a13d 93d2 d13c 9a56 cfbd e6bf fbbd
00000310: de9f 17bd ec8f fabd ba3e 0fbd 17b9 dbbd
00000320: c8da b9be 8f4b 58be 7311 d5bd 17ab 843d
00000330: b053 70be 6d73 f4be 5d87 ccbc 1510 bdbc
00000340: 1c05 1c3e 8f2c e9bd 9e89 91be f783 0a3e
00000350: e316 123d e4d7 c83b d691 c6bd 7b87 c6bc
00000360: 491f c33d 2671 dabb 6726 bbbd c472 573c
00000370: 6b5d 723d 6549 163d 2111 793c d3c3 123c
00000380: 8f21 83bd 00e8 88bd 4ed0 773e f466 cfbc
00000390: 06e1 e0bc ffa8 80bc 5959 15bd 3358 103e
000003a0: 730c 0c3e cb3b 513d e375 59bd 9214 a5bd
000003b0: 96a0 283d 859c 763d 5943 643d 954b 1bbc
000003c0: 64bd 1dbd deb6 e73c 903f b4bd 5f7c 86bd
000003d0: 0da5 b2bd e0d3 08bd e3e9 2bbe e47f e7bd
000003e0: 655b 03be 247a 43bd 46d5 b4bd 9ae9 38bd
000003f0: 3b11 5abe 60b5 cc3d d707 1e3e b528 85bd
-0.11797038 0.106710605 -0.04243991 -0.035436694 0.16932137 -0.089968435 0.18288374 0.12035048
0.0106496615 0.21493325 -0.116142616 0.034480263 0.121805884 -0.095811486 -0.0671411 -0.13023117
0.03753408 0.064443685 -0.15245351 -0.19930033 -0.11171058 -0.059657056 0.038863186 -0.13595617
-0.24342582 -0.0136868395 0.051652793 0.024776239 0.064307146 -0.053329874 -0.40420118 0.060612354
0.07790987 0.08036044 0.04329965 -0.14251713 0.05290585 0.08453616 0.0741293 0.04509352
0.08220208 0.049384844 0.040836 -0.022837916 0.0134935975 0.0075381184 7.374991e-05 0.07137618
0.05512941 0.05744267 -0.23891544 -0.16677995 -0.067139745 -0.10630609 0.031721476 -0.05070142
0.047843654 0.036231868 -0.23848858 -0.032681737 0.025734968 -0.062453724 -0.36873022 -0.1464716
-0.17969805 -0.13827176 -0.24187876 -0.14105809 -0.23002891 -0.17250289 -0.14869346 -0.2057871
-0.17459582 -0.032568082 -0.09339409 0.11965518 0.11356658 0.07487945 -0.17893215 -0.30060005
0.12279221 0.10114767 0.05037059 -0.16351227 -0.14406988 0.1613484 0.1947874 0.16252357
-0.04131428 -0.0378082 0.08495573 0.14142923 -0.038080484 -0.13595515 -0.15249977 0.0061235693
0.102310166 0.13317129 0.08621475 -0.16712447 -0.09746715 -0.20921567 0.104302846 0.0073583475
-0.020504553 -0.40051696 -0.10006054 0.10138989 0.111280106 0.055912435 -0.3682488 0.079832435
0.14343087 0.11848915 -0.041149557 0.028701646 0.03581772 -0.04438971 -0.07054134 -0.045372453
0.09556575 -0.063084684 -0.15831654 0.0053723888 0.008399606 -0.021280421 0.057923842 -0.10522938
-0.14002134 -0.13831203 -0.07311325 0.13561653 -0.07704535 0.078110784 -0.102642275 0.030972734
0.042535245 -0.0015743545 -0.046942398 -0.0421738 0.037249196 0.102690734 0.06444966 -0.08174176
-0.018793022 -0.010056936 0.01687947 0.037633024 0.03773654 0.042100452 -0.21317884 -0.051025454
0.040217485 0.057715155 0.119359024 0.07096852 0.030606378 0.008761965 0.04954266 0.035029512
0.040283717 0.007424057 0.03618537 -0.10828175 -0.0022353565 -0.042620894 -0.08352452 -0.0483433
-0.06456505 -0.04315731 -0.12646025 0.026542138 -0.033739794 -0.08874479 -0.1357419 -0.24618524
-0.29803413 -0.16202103 -0.13056643 0.017766653 -0.007410219 -0.0019640084 0.025693895 0.05497272
0.016062057 -0.09127155 0.09514626 0.056910694 -0.010088389 -0.10549352 -0.094876096 -0.003418118
0.0788389 0.025613105 -0.1012394 -0.12292461 -0.037017696 -0.12234482 -0.03497193 -0.107286625
-0.3629973 -0.21122573 -0.10403719 0.06477945 -0.23469424 -0.47744313 -0.02496689 -0.023078958
0.15236324 -0.11385452 -0.28425306 0.13526903 0.035666358 0.006129252 -0.09695785 -0.024234524
0.095274515 -0.0066663204 -0.09138184 0.013149921 0.05917112 0.03669109 0.015201838 0.008957821
-0.06402885 -0.066848755 0.24200556 -0.025317647 -0.02745105 -0.015705584 -0.03646216 0.14096145
0.13676624 0.051082414 -0.05309094 -0.08060564 0.04116877 0.060207862 0.05572829 -0.009478469
-0.038510695 0.02828544 -0.08801186 -0.06566691 -0.08722887 -0.033405185 -0.1678844 -0.1130369
-0.12827833 -0.047723904 -0.08829741 -0.045144655 -0.21295635 0.09995532 0.15432678 -0.06501905

conv2.bias f4 [20]
00000000: 92c0 fdbb 5298 e23b f7b4 e73b 40df f2bd
00000010: 4c21 b8bc 7b08 bcbd 3a17 c5bd 54ce f1bc
00000020: 8e51 173d 5126 fc3c 6912 873a 7fd8 3fbc
00000030: 1fb6 13be 97b9 f83c 1c4d 293d da9d f4bc
00000040: e106 17ba 27e9 93bd 5f84 32bc 14fc 3abc
-0.0077439034 0.0069151307 0.0070711332 -0.11858988 -0.022476815 -0.09181305 -0.09623571 -0.02951733
0.03694301 0.03077999 0.0010305169 -0.011709332 -0.14424942 0.030361934 0.041333303 -0.029860426
-0.0005761218 -0.07222205 -0.010895818 -0.011412639

fc1.weight f4 [50, 320]
00000000: 750c 003e eb8a b73d 924a a43d f8fb df3d
00000010: 5571 6dbe 1626 fbbc a987 1f3c 076d ef3d
00000020: c0b8 39be d2d2 c3bd 8f0d 403d a98b 6d3d
00000030: aa5f 4c3e 7a22 e7bc 7a86 0cbe 7a96 69bd
00000040: ca82 21bc 1ee6 3f3c b94d c03d 9e3d 5a3d
00000050: 3a0d 8f3d 9d22 043e f1b7 063e 8351 13bd
00000060: 0191 db3d 5418 c6bd 0af0 e93d fd52 c0bd
00000070: c366 f5bd b20b adbd b2af 43be 2091 d7bd
00000080: ecf8 d5bd 6a15 2abe e2c5 28bd 7ec2 ebbd
00000090: 541e 9cbc 4c66 dd3c 5c9d b33c 3dd6 8abe
000000a0: 1d7a 923d 291e 373d 13c7 f13d e4da 32bd
000000b0: e79e f83d 1f50 3c3d 3330 843d 2944 af3e
000000c0: e7ee 58be 62d0 02be 0a09 e2bd d243 06bd
000000d0: c416 213e 1718 45bd d314 e9bd 90fd 43be
000000e0: dc43 6c3e 26ad 1c3e ab0f 033d 27d4 b23d
000000f0: 797f 783d b333 6d3d 3f8e e0bd c3e6 ec3d
00000100: cba2 b3bd 5056 5abd 48f3 31be bb4b ccbd
00000110: d5a5 2f3e e075 77bc 4a04 0d3d 6d0f 20bd
00000120: 725f 0e3e 6db9 903d 75b4 f6bb 1946 843d
00000130: 745c 80bd 6348 a93d 96b5 17be e20a a1bd
00000140: 9d8f 06bd d4c0 23bd 9c6b 19bd e889 933b
00000150: 77f2 b13d a1f8 c43d c9a4 6cbc 3e03 3b3d
00000160: c7cb a8bd a6a0 823d b8a1 583d 9fac d83c
00000170: 5429 453d 59e3 bfbd 712a 59bc bc00 dbbd
00000180: e34d b0bd 8386 abbc 0cf6 243e 393d 843d
00000190: 89e8 ecbd a49c c7bd 3d0f 5b3d 8c09 073e
000001a0: 732b a53d 0ea3 783c 8698 d7bd d774 7d3c
000001b0: b4a5 0d3d 940e 0e3e 13d6 09be 89dd 83be
000001c0: 94ae cebc e0ac 953d 996b 873d e08b 8e3c
000001d0: f659 adbd 0182 ff3c f846 10bd 1be8 4e3d
000001e0: bdfc 48bc c477 c8bd cf3b ed3d d79c 5ebd
000001f0: 44d5 9abe 5c86 a9bd f230 c53c 0db6 04be
00000200: af1d d7bd 60c6 b5bd db4c 74bd 0267 05be
00000210: 6789 b4bd 7837 1b3d 6696 03be 0e98 29be
00000220: 5879 2dbd d90e 073e b9f2 c73c c8f9 053e
00000230: 0abd 9bbd f1e6 a7bd 02ed 1d3e b581 8b3e
00000240: cbfe f7bd 0139 01bd 0395 0cbe d94f 793b
00000250: fb0e 8b3e 6b73 733d 1e4e c5bd 28fc 19bd
00000260: 9e74 423c 470e 9b3d 4b1e f73d b193 ba3d
00000270: 6a05 4d3e e5dc c33d 2a3c 20be a628 c2be
00000280: 941b c43d 3c7e 213e 2961 303e 889f c3bd
00000290: 22b0 37bd bdab d93c 9d52 533e cd7c 34be
000002a0: 39e8 243d 58a9 033c eec5 823c 1201 87be
000002b0: a6d5 393d a630 aa3c cfdf 88bd 3d1a 063d
000002c0: c2cb 45bc 69d4 c93d 47dd ec3d b139 ff3c
000002d0: e780 38bd 555f a2bd 75c6 a83c 421b db3d
000002e0: 9340 e73d 1b1c 2fbe a0cf ab3d 2d12 403d
000002f0: e628 953d 58ff c2bd 861a 8bbd 8316 59be
00000300: 54a5 15be 793f b33c 3af1 b1bd b70f 963c
00000310: 0516 69bd c17a fc3b ab8e 3fbd 5058 533c
00000320: ee5c 873d eed7 bfbd f215 5e3e 7d79 eebb
00000330: 2501 16be 6cd1 29be 95a2 0e3d ab11 153e
00000340: df84 723e b733 943c 95e8 263e 35f7 88bd
00000350: 078f 02be 840f 0fbe 14ab 2d3e 083a 673d
00000360: 643b 0bbe cf55 533d 8451 1fbe 1a52 c2bd
00000370: 978b c03d 4f7b a23d e883 0f3e c0eb c9bd
00000380: 61c8 093e 985f 473d f95d 6abd cb92 5cbd
00000390: 84ee 073e cf59 cd3d fa62 c93c b744 d63d
000003a0: 7187 9e3d 6c75 f9bc c34d 053d 48f2 afbd
000003b0: 8cf6 74be 9532 76be 9ef1 8ebd d843 26bd
000003c0: 88c3 433c acaf da3d 4728 b83c 6ada cdbe
000003d0: cf73 943d b79f ce3d d700 8abe 08fa 5bbe
000003e0: 085b 583c 96c8 d2bd 4c1d 7cbc 527a 8c3e
000003f0: ec6f 2f3d d4d6 55bd 1a2a 04bc 854e 6b3e
0.12504752 0.089620434 0.08022036 0.10936731 -0.23187764 -0.03065781 0.009736934 0.11690717
-0.18136883 -0.09561695 0.04688793 0.05799452 0.19958368 -0.028214682 -0.13723174 -0.05702827
-0.009857843 0.011712579 0.093898244 0.05328142 0.06984945 0.12903829 0.13156106 -0.035966408
0.10721017 -0.09672609 0.11422737 -0.09390829 -0.11982491 -0.08449496 -0.19109991 -0.10525727
-0.10447869 -0.16609731 -0.04120434 -0.11511706 -0.01905743 0.027026318 0.02192562 -0.27116576
0.071521975 0.044706497 0.118055485 -0.04366578 0.12139683 0.045974847 0.06454506 0.3423169
-0.21184884 -0.12774804 -0.1103688 -0.032779522 0.1573134 -0.048118677 -0.11380925 -0.19139695
0.23072761 0.15300426 0.031997364 0.08731871 0.060668442 0.057910632 -0.10964631 0.11567452
-0.08771285 -0.05330497 -0.1737796 -0.09975382 0.17153104 -0.015103787 0.03442792 -0.03907721
0.13903597 0.07066617 -0.0075288364 0.064586826 -0.06267634 0.0826576 -0.14815363 -0.07863404
-0.032851804 -0.039978817 -0.03745614 0.0045025237 0.086888246 0.09617735 -0.014443585 0.04565739
-0.082419924 0.063782975 0.052888602 0.0264495 0.048135117 -0.09369535 -0.013254748 -0.106934994
-0.08608606 -0.020938164 0.16109484 0.0645699 -0.1156779 -0.09746674 0.05348133 0.13187236
0.08064928 0.015175594 -0.105271384 0.015469751 0.034581855 0.13872749 -0.13460569 -0.25754955
-0.02522973 0.07308364 0.066123195 0.017400682 -0.08464424 0.03118992 -0.03522393 0.05051432
-0.012267289 -0.097884685 0.11583673 -0.054348793 -0.30240834 -0.0827758 0.02407119 -0.12960072
-0.105037086 -0.08875728 -0.059643608 -0.13027576 -0.0881527 0.037894696 -0.12850341 -0.1656191
-0.04235205 0.13189258 0.024407731 0.13083565 -0.07604416 -0.081983455 0.15422443 0.27247396
-0.12109145 -0.031548504 -0.13728718 0.0038041978 0.27159867 0.059436243 -0.0963404 -0.03759399
0.011868624 0.075710826 0.12066325 0.09110201 0.20021597 0.09563617 -0.15647951 -0.37921637
0.095755726 0.15770811 0.17224564 -0.095519125 -0.044845708 0.026571149 0.20636983 -0.17625733
0.040260527 0.00803598 0.01596352 -0.26368004 0.045369767 0.02077515 -0.06683313 0.032739867
-0.012072505 0.09854967 0.11565643 0.03115544 -0.045044806 -0.079283394 0.020602444 0.106985584
0.112916134 -0.17100565 0.08389211 0.046892334 0.072831914 -0.09521359 -0.06792168 -0.21199994
-0.14613849 0.021880852 -0.086885884 0.01831804 -0.056905765 0.007705063 -0.04676692 0.012899473
0.06609522 -0.09367357 0.21688059 -0.007277666 -0.14648874 -0.16583794 0.03482302 0.14557521
0.23683499 0.018091066 0.1629966 -0.06687776 -0.12749873 -0.13970762 0.16959792 0.056451827
-0.13596874 0.051595505 -0.1555844 -0.09488316 0.09401625 0.079336755 0.14015162 -0.09859419
0.13455345 0.04867515 -0.057218526 -0.05385093 0.1327458 0.10026895 0.024583329 0.10462325
0.07740677 -0.030451499 0.032544862 -0.08591133 -0.23922175 -0.24042733 -0.069796786 -0.040592045
0.011948474 0.10678038 0.022480143 -0.402057 0.07248651 0.10089057 -0.26953766 -0.21482098
0.013205297 -0.10292165 -0.015387844 0.27437073 0.042831346 -0.05220683 -0.008066678 0.22979172

fc1.bias f4 [50]
00000000: 8f5d 1c3d f294 ec3d 6230 783e b9dd a63e
00000010: 5328 8c3e 9c5c ad3e 1bb9 883e 8800 8c3e
00000020: bfef 513d c35e 423e 256e f0bd 1bf3 1e3d
00000030: 92e9 093e 72c5 393d 76e6 f43d c760 8d3e
00000040: cfd6 f33d 0f64 243d 6903 13be 7c90 003e
00000050: e87d b43e 8cda b5ba 83b8 073e 847f 533e
00000060: 2e13 ca3d 276c 643e 59b4 463d 368b 5a3e
00000070: a707 253e 90fa 5f3e ce5c 0b3e d6ac 2c3e
00000080: 3a2d 753e 799c 183e 22e4 663e 38ee 473d
00000090: 6906 b03d e4ba b63e 287c 11b9 c4ef b23d
000000a0: 95a6 8a3d 05c5 413e 7add 1e3e 0e44 a5bb
000000b0: 60b8 543e 7b65 ee3d 3a1b 603e dfec 1f3e
000000c0: 1e34 a23e a4a4 023e
0.038175162 0.115518466 0.24237207 0.32591036 0.27374515 0.33859718 0.26703724 0.27344155
0.05125403 0.18981461 -0.117397584 0.038806062 0.13468006 0.045354314 0.119580194 0.27612898
0.11906206 0.040134486 -0.1435677 0.12555116 0.3525231 -0.0013874336 0.1325398 0.20654112
0.098669395 0.22306882 0.048511837 0.21342167 0.161162 0.21872926 0.13609621 0.16862807
0.23943034 0.1490344 0.22547963 0.048811167 0.08594973 0.3568946 -0.0001387453 0.08737138
0.06770054 0.18922813 0.15514174 -0.005043513 0.20773458 0.116404496 0.21885386 0.15617703
0.31680387 0.12758118

fc2.weight f4 [10, 50]
00000000: 3b23 99bd d65e e83d 7739 e2be 13b7 67be
00000010: 970e 18be 4f45 0d3e d8e2 173e 9223 5fbe
00000020: 6d8d 69be 5541 19be e40b 44bb 3631 173e
00000030: 476f 55be 11f0 a5be 2e6e 51be fce0 94be
00000040: 51e2 64bd 5b3d 013e 2ef4 3fbe 72fd 023e
00000050: c42e 1bbe 48a1 34be d580 2ebd cff5 8c3d
00000060: ec82 f63d b7d0 3ebe 9624 1cbe 255e 0a3e
00000070: a757 d0be 14f2 d6be 24f6 293e bbf3 1f3e
00000080: 7d31 e0be a1ac 473e 236f e33d fb2f df3d
00000090: 4da3 50be 75a7 0e3e 4fa4 453b 5844 e8bd
000000a0: fb57 323e 9426 8dbe 0e56 133e a087 cf3d
000000b0: 118f 97be 537f ebbd 91af 0dbe 2c19 ba3d
000000c0: c211 08be 8e08 33be 91d5 ee3d a5c0 093e
000000d0: b47c f43d ee65 033e a6a1 0e3e f34c fd3d
000000e0: 777c 013e eb29 783d cf0d 9fbe fa19 293e
000000f0: 0d09 cebe ad79 dfbe 0ca8 3fbe 81af 41be
00000100: e195 893d 4af2 153e 7396 1bbe 071f 1abe
00000110: 8552 c2be d5d9 80be 6584 153e 98c8 66be
00000120: 1092 cfbd d05a 02be 54c3 adbe 0787 1a3e
00000130: f4f4 10be 5508 79be 8954 a63d 8876 003e
00000140: 40a7 81bd b282 c2bd 74bd c1be 90ed 49be
00000150: cf84 a23d 9e21 36be 04b3 d93d 1371 0f3e
00000160: 67c2 f7be 2e94 b7be 94c4 a6be 9500 363d
00000170: ceae 943d d4e5 9ebe 6f09 1d3e e276 bdbd
00000180: 0aea d93d 9f06 95be 73ba 243e 8df8 adbd
00000190: 3a97 2f3e c908 76bd f9c2 26be 300c 203e
000001a0: ff4c 28bd de51 f43d 54f1 803d 45ef 8fbd
000001b0: ab4f 0bbe d2f8 6bbb c170 99bd 3779 37be
000001c0: 69d5 31be 8115 d5bd e39f a63d 17b0 19be
000001d0: 1432 3e3e 0721 0c3e 5561 9bbd ccbc 8a3d
000001e0: f515 373e 4872 963d eb5d a8bd ad57 c43d
000001f0: 7ce8 3fbe d908 32be 35fe 1d3e da93 aabe
00000200: e08f 6ebe 3df2 163e 2895 533e 549e 2b3e
00000210: 8cc6 9e3b 6932 16be 9e29 623d 503d b83d
00000220: bb86 cdbe ea57 4ebe 411f 67be 2ce8 9bbd
00000230: 5a1c 413a 89df 65be 2831 9dbd 80e2 c73d
00000240: 6cdd 113e 6dfb ef3d 6f9f 2c3d 8bc2 f3bd
00000250: b408 113e fa93 f93d f7d9 33be fc25 c7bd
00000260: d485 01be 4805 513c fea1 57be f86f ebbd
00000270: 1875 ea3d be3e 84be 4f2f 2d3e df17 a5be
00000280: 8628 3ebe aace 59be 1b5b 503e f60b 0d3e
00000290: f37e 9f3d 0862 3f3e d6ab 24bd de9b 053e
000002a0: c065 41be 108c c53d 500f 363e 8d73 98bd
000002b0: 48b0 43bd 5ba9 a43d 07b5 e23d 6830 2f3e
000002c0: f22d 853d 8cb1 4dbe 9e2c 4bbd 47a0 093e
000002d0: 51d6 c9bd 48e1 e23d 06b3 563e d140 c1bd
000002e0: 2a16 91be de88 8c3d 2e1e 33bd c7f2 c93d
000002f0: 0f9b 05be 1ec6 62be 5b12 32be 763a 093e
00000300: c5bb a9be f216 45be 345a c6bd 93a1 fc3d
00000310: 7900 5fbe 715f 30be 49ae 59be 0ea7 273e
00000320: f92a 153e 24c5 223e c5ed 063e ef87 bdbd
00000330: eda8 eb3d a5bb 0cbe 0bf3 b2be 8096 1a3d
00000340: 0276 9abd 8b3f 2c3e 45e3 343e e23c 60bd
00000350: 2429 4cbe 9b2a 0c3e 1472 cf3d 185b 5ebe
00000360: 8597 27bd d604 b7be f304 473e 41ec f93d
00000370: a3f9 1ebe 4ea7 db3d c1a1 f43d c741 85be
00000380: 0309 08be a6d1 46be 935f 5ebe e770 0d3e
00000390: 52c0 d93d 86d3 de3d 76a0 283d f592 fa3c
000003a0: b24d e43c e21b 92be 67f7 c1bd a2b7 cd3d
000003b0: c3be 873d 27df 56be 3cf4 c73d d4fa c43d
000003c0: 540b f4bd 8d25 e63c 7376 8c3d 6a27 03bd
000003d0: 1378 3bbd 758a 42be 2bd2 c53d 1b2b 8fbe
000003e0: 842d 1bbb 70c5 a8be 731c 2abe 1176 87bc
000003f0: 42d5 9abe 4f1c bebd 636f a3bd baad 0c3d
-0.07477423 0.113462135 -0.44184467 -0.22628431 -0.14849316 0.1379597 0.14832628 -0.21790913
-0.22807856 -0.14966328 -0.0029914314 0.14764866 -0.2084323 -0.3240972 -0.20452186 -0.290779
-0.055879895 0.12621062 -0.18745491 0.12791994 -0.15154558 -0.17639649 -0.042603333 0.06882822
0.1203669 -0.18634306 -0.15248331 0.13512476 -0.40691873 -0.41981566 0.16597801 0.1562032
-0.43787757 0.19499446 0.11105182 0.108978234 -0.20374794 0.13931067 0.003015775 -0.113411605
0.17416374 -0.27568495 0.14388296 0.1013329 -0.29601339 -0.114988945 -0.13836505 0.090868324
-0.13288024 -0.17483732 0.11661828 0.13452394 0.11937848 0.12831852 0.13928851 0.123681925
0.12645136 0.06058685 -0.31065223 0.16513816 -0.4024128 -0.4364752 -0.18716449 -0.18914606
0.0671804 0.14643207 -0.1519411 -0.15050898 -0.37953582 -0.25166193 0.14601286 -0.22537458
-0.10135281 -0.12729955 -0.33938086 0.15090571 -0.14155942 -0.24319585 0.081215926 0.12545216
-0.063307285 -0.094975844 -0.37839854 -0.19719529 0.079354875 -0.17786261 0.10629848 0.14007978
-0.48390505 -0.3585524 -0.32571852 0.04443415 0.07259904 -0.3103472 0.1533563 -0.09251191
0.106403425 -0.29106614 0.1608675 -0.08494673 0.17147532 -0.060066972 -0.16285314 0.15629649
-0.041089054 0.119296774 0.0629603 -0.07028059 -0.1360461 -0.0036006463 -0.07492209 -0.17917334
-0.17366566 -0.10404492 0.08135965 -0.15008579 0.18573791 0.13684474 -0.07586924 0.067742914
0.1787947 0.07346016 -0.082210384 0.09587035 -0.1874103 -0.17386188 0.15429004 -0.33315927
-0.23297071 0.14740844 0.20662367 0.16759616 0.004845446 -0.14667667 0.05521547 0.089960694
-0.40141854 -0.20150724 -0.22570516 -0.07612643 0.00073665904 -0.22448553 -0.076753914 0.09759998
0.14244622 0.117178775 0.042144235 -0.119023405 0.14163476 0.121864274 -0.17563616 -0.09724042
-0.12648708 0.012757607 -0.21057889 -0.11495966 0.11448115 -0.25829118 0.16912578 -0.32244775
-0.18570146 -0.21270242 0.20347254 0.13774094 0.077878855 0.1868974 -0.040202938 0.1304774
-0.18886471 0.096458554 0.17779279 -0.074439146 -0.047775537 0.080401145 0.110696845 0.1710831
0.06502904 -0.2008726 -0.049603097 0.13440047 -0.09855331 0.11078125 0.2096673 -0.09436191
-0.28337222 0.06862043 -0.043729953 0.09860759 -0.13047431 -0.22145888 -0.17389815 0.13401207
-0.3315107 -0.19247034 -0.09685174 0.12335505 -0.21777524 -0.17223908 -0.21257891 0.1637232
0.14567174 0.15895516 0.1317664 -0.09254443 0.115068294 -0.13743456 -0.34951052 0.037741184
-0.075420395 0.16821115 0.17664821 -0.054745562 -0.19937569 0.13688128 0.101291806 -0.21714437
-0.040915985 -0.35745877 0.19435482 0.12203265 -0.15524916 0.1072527 0.119449146 -0.26026747
-0.13284688 -0.19415912 -0.21716146 0.138126 0.10632385 0.10880189 0.041168652 0.030587653
0.02786908 -0.28536898 -0.094710164 0.10044791 0.06628182 -0.20983563 0.09763381 0.09618154
-0.11916223 0.028094077 0.0685853 -0.03202001 -0.04576881 -0.1899813 0.09659227 -0.27962574
-0.0023678252 -0.32963133 -0.16612415 -0.01653579 -0.30240828 -0.09282743 -0.0798023 0.034345366

fc2.bias f4 [10]
00000000: 417b ca3e 7d8d d53e 19ed dfbd 508a 633d
00000010: 75bd d5be 8a38 17be 4390 93be 7eee 77bd
00000020: 4ed2 403e e5a8 a63b
0.3954716 0.4170951 -0.10933895 0.055551827 -0.41746107 -0.14767662 -0.28821 -0.06053018
0.18830225 0.0050860518

exp_avg f4 [10, 1, 5, 5]
00000000: 72ef bc3b 7926 943b 0cb1 33ba c686 edba
00000010: 094a 513b f46f 383c 7831 f73b f9b6 5ebb
00000020: 36ee 10bb 97f0 e03b bb8a 5e3c dc45 1d3c
00000030: ec8b b9ba f9ef 3d3b 8666 343c 70ab 693c
00000040: 00ee df3b 56b9 5fbb d661 623b a06f 2f3c
00000050: c38c 233c ef31 ae3b 34cd f5ba 4452 a03b
00000060: 0121 213c 728b 513c fc1a d83b 1d6e 1c3b
00000070: 2b4a cc3b a7b5 2a3c 3818 423c 4fbf 483b
00000080: 6261 ef39 2f53 cc3b eb6d 2c3c 0cba 183c
00000090: e444 903a f444 9d3a 0d83 b23b 5a0d cd3b
000000a0: c480 8a3a 609e 37bb 9985 8739 3e1f 823b
000000b0: 4a15 693b f677 97bb 329d 9cbb b495 4aba
000000c0: ae7b a83b 9296 943b 18d5 74bc 88d5 28bc
000000d0: 8216 f4bb c7d1 22bc 3cd5 65bc c9ca 6abc
000000e0: 25e1 70bc 8198 2abc 942c efbb c431 2ebc
000000f0: b8d3 49bc 1362 50bc 3b10 ecbb b21c 89b9
00000100: 3ab2 8bbb 959c d6bb 87d9 5aba 50ac ae3b
00000110: 8fcd b63b fd63 c5ba d1bd c53b 270c 523c
00000120: 246a 343c 6810 473b b1e0 97bb 6fe0 4e3c
00000130: 75f0 293c 447b 223c 6610 813b 5c2c 80bb
00000140: de07 473c 5960 2d3c 0d28 3e3c cc81 213b
00000150: 5ea3 fabb 0975 483c bd2d 263c a3a1 113c
00000160: 165f 2ebb 0e5d 15bc 05bc 5d3c 3cdd 0d3c
00000170: c519 483b 3ec9 bebb adc0 94bb fed4 2b3c
00000180: fce1 063b c6d6 85bb 44c9 a9bb 2045 be37
00000190: 5408 413b 21eb 263b 7b94 943b 1460 aa3b
000001a0: 04bb 103c d23d b9b9 4d31 843b dce9 263c
000001b0: 58dd 173c 0880 dc3b 2236 47bb 7c98 d73b
000001c0: 7c17 f73b 42fc c33b 3a80 b73b 39bb 5bbb
000001d0: a438 2d3b 84da 063b 7060 0b3b 16cf 713b
000001e0: c32d 90bb e9cd 8839 b6d4 bdba 94a3 feb9
000001f0: c027 af38 9af4 743c 7f71 6c3c e649 553c
00000200: d816 403c 2be2 2c3c 8e88 6f3c c46e 593c
00000210: 0abd 073c 8d90 153c 9ff2 433c 2b94 693c
00000220: 7e7e 543c b04d 1f3c 1533 353c 214a 603c
00000230: 9924 4d3c 1a27 2f3c 2d97 0f3c 5c6c 393c
00000240: c3a3 2e3c 02b3 163c 3a69 fa3b 76d5 a13b
00000250: 342a f13b b5a3 6e3b 2957 c73b 0b9d b13b
00000260: 0c7c 4ab9 6d27 c4bb 9b8f 17bc b407 37ba
00000270: 2c09 7abb e6de ddbb cdbc fabb 6b27 2ebc
00000280: 0996 3dbc 90c3 54bc bbcf 45bc 72e0 21bc
00000290: c6cf 55bc 1158 49bc 0159 4bbc 6028 63bc
000002a0: d561 43bc a541 4fbc 0707 3fbc 5b88 23bc
000002b0: 5caf 4cbc 7620 1fbc 77df 3bbc 286a 2ebc
000002c0: 4e57 eabb 2551 04bc e81b 7ebc 4cf6 72bc
000002d0: 25fe 60bc 2f8c 39bc 9b4b 0abc 4441 29bc
000002e0: b612 52bc dccd 4cbc 87dd 1abc f7b4 ebbb
000002f0: 5f3f 02bc b0d7 f8bb b7ea 1bbc 4472 11bc
00000300: 3ace 0bbc 2085 e0bb 83aa 94bb dd30 33bc
00000310: 0c17 22bc c204 19bc 8823 01bc 5743 dabb
00000320: 8081 62bc 37f9 25bc 86f9 f8ba c00d b539
00000330: b088 1ebb b8ba 05bc 18d8 b0bb 3a67 1aba
00000340: 7821 82ba 7da8 b4bb ea8a 7fba 306f a338
00000350: 78d4 edb8 aadd 61bb ecd6 aebb d358 2fbb
00000360: 4e7c 293a 4494 fd3a 12ac 2bbb 3fc6 58bb
00000370: 72c2 f4ba 8234 76ba 2e0c 503b 4c3f ee3a
00000380: 4429 003b c35a 813b 8392 093c 76d6 593b
00000390: 4a41 7c3b 360f 8b3b 7121 2f3b d9e6 903b
000003a0: 1370 883b a0c5 bf3b 98f4 843b 7f2b 15bb
000003b0: f3ee e239 49b4 583b ef30 193b aa81 9ab9
000003c0: f83b ddbb dcc5 89bb fa42 c1bb 76f5 d8bb
000003d0: 095f b3bb 7e42 04bc dba3 d9bb 4320 16bc
000003e0: fa80 06bc e6f2 c4bb
0.005765849 0.004521188 -0.000685469 -0.0018121831 0.0031934998 0.01125716 0.007543739 -0.0033983572
-0.002211464 0.006864618 0.013582881 0.009599175 -0.001415608 0.0028982146 0.011010772 0.014262065
0.0068337917 -0.0034137568 0.0034543178 0.010707766 0.009982291 0.005316011 -0.0018753172 0.0048926193
0.009834529 0.012789594 0.0065950137 0.0023869344 0.0062344274 0.010419286 0.0118465945 0.0030631607
0.00045658188 0.006235502 0.010524253 0.009321701 0.0011006859 0.0011998699 0.0054477514 0.006257695
0.001056694 -0.0028017983 0.00025848745 0.0039710095 0.0035565668 -0.0046224548 -0.0047794813 -0.0007727996
0.005141697 0.004534551 -0.014943384 -0.010304816 -0.007448972 -0.00993771 -0.01402789 -0.014330574
-0.014702116 -0.010412336 -0.0072990153 -0.010631982 -0.012318544 -0.012718695 -0.0072040833 -0.00026152056
-0.0042631896 -0.0065494278 -0.0008348454 0.0053306 0.0055787037 -0.0015059706 0.006034591 0.01282028
0.011011634 0.003037477 -0.0046349396 0.012626751 0.010372271 0.009917084 0.0039387224 -0.003911538
0.012147872 0.010582053 0.011606229 0.0024644015 -0.0076488694 0.012234935 0.010142741 0.008888635
-0.0026606969 -0.009116424 0.013533597 0.008658703 0.0030532938 -0.00582233 -0.0045395703 0.010487793
0.0020581475 -0.004084441 -0.0051814634 2.2681954e-05 0.0029454427 0.0025469738 0.004534302 0.0051994417
0.0088336505 -0.0003533201 0.0040341974 0.010187592 0.009269081 0.0067291297 -0.0030397256 0.006579457
0.0075406414 0.005980999 0.0056000026 -0.0033528341 0.0026431466 0.0020577023 0.0021267198 0.0036897114
-0.0043999865 0.00026093356 -0.0014482948 -0.0004856853 8.352054e-05 0.014950896 0.014431356 0.013018107
0.011724196 0.0105519695 0.0146199595 0.0132710375 0.0082848165 0.009128702 0.011959701 0.014256517
0.012969611 0.009723112 0.011059542 0.013689549 0.012520933 0.010690475 0.00876407 0.011317339
0.010659161 0.009197952 0.0076419385 0.0049387766 0.0073597673 0.0036413495 0.0060833883 0.0054203323
-0.00019310432 -0.005986145 -0.009250547 -0.0006982044 -0.003815244 -0.0067709563 -0.0076519013 -0.010629515
-0.011571416 -0.012986079 -0.012073453 -0.009880172 -0.013050025 -0.012289063 -0.012411357 -0.013864607
-0.01192518 -0.012649928 -0.01165939 -0.00998124 -0.012492981 -0.009712329 -0.011466852 -0.010645427
-0.007151521 -0.008075987 -0.015509583 -0.01482923 -0.013732468 -0.011324926 -0.008440877 -0.010330502
-0.012821844 -0.012500253 -0.00945223 -0.0071932035 -0.007949679 -0.0075940713 -0.00951641 -0.008877341
-0.008533055 -0.0068518072 -0.004536928 -0.010936943 -0.00989319 -0.009339513 -0.0078820065 -0.0066608596
-0.0138248205 -0.010130218 -0.0018995262 0.00034533255 -0.0024190359 -0.008162193 -0.005396854 -0.0005890016
-0.0009928187 -0.0055132494 -0.0009748178 7.793156e-05 -0.00011340616 -0.0034464397 -0.0053356793 -0.0026755824
0.0006465361 0.0019346555 -0.0026195091 -0.0033077148 -0.0018673672 -0.00093919795 0.003174554 0.0018176823
0.0019555846 0.003947587 0.0083967475 0.00332394 0.0038491064 0.0042437566 0.0026722813 0.0044220504
0.004163751 0.005852416 0.004057478 -0.0022761521 0.0004328411 0.0033066443 0.0023375114 -0.00029469776
-0.0067515336 -0.004204495 -0.005897877 -0.006621058 -0.0054739756 -0.008072494 -0.0066418475 -0.009162965
-0.008209461 -0.006010401

exp_avg_sq f4 [10, 1, 5, 5]
00000000: 589f 5e3a 5019 343a 8d9a 233a c050 2b3a
00000010: 1068 393a 7e93 493a 867f 163a 1133 1d3a
00000020: 8bc3 263a 2b72 1b3a 0194 483a 6dcf f039
00000030: f831 343a 09b1 323a 76fa 173a 7764 453a
00000040: 0fca 0a3a b2d9 463a 09e9 343a da67 2b3a
00000050: 04d1 4e3a 4c25 3d3a 2725 403a e98e 303a
00000060: 0255 443a 4da7 603a 1068 533a 0983 543a
00000070: 9091 463a 6c89 583a 2b02 2d3a 4c5f 4a3a
00000080: 347b 373a afb0 283a 9c9e 663a 8817 213a
00000090: 1dcb 3f3a 8add 063a 052e 2f3a 7b02 8c3a
000000a0: fcb7 363a 6b3c 333a 722d 133a 83f9 763a
000000b0: 73c0 9f3a ea33 393a a754 523a 5aac 813a
000000c0: c353 9e3a 9cac ac3a dd61 cc3a 4a98 c43a
000000d0: 6a0d ae3a 45e2 aa3a 5e5d c33a 72dc bd3a
000000e0: df2c b33a ca7d c23a a765 b63a 4f7e b23a
000000f0: 1b60 e43a acb4 033b 4fc0 c73a 185a b03a
00000100: 3c3f af3a 875e e53a 276b c43a 1e14 cf3a
00000110: 4398 b23a 5367 c33a d7d8 ca3a ccbd ea3a
00000120: 1b92 d83a a893 c13a 2b42 f13a 4fef 933a
00000130: 6823 8c3a fdc6 883a 2113 833a 2799 6f3a
00000140: 5058 923a c2f1 8a3a 822b 843a 0423 6f3a
00000150: 3230 6c3a db12 923a 030a 8b3a 23a8 753a
00000160: dbf4 723a 70a8 763a 64e9 913a 50a2 823a
00000170: f129 663a b162 883a ec59 6f3a 4a89 8a3a
00000180: 0e9d 733a aefd 853a 0be3 8e3a 4989 5e3a
00000190: 26cd 343a 9a20 463a 953d 4c3a 1d4e 453a
000001a0: 809d 5e3a a053 2e3a 8069 353a 2d12 1c3a
000001b0: f83a 343a b4a9 663a 0b1d 1c3a c395 d939
000001c0: bff4 213a d095 5f3a 3cef 813a 4651 153a
000001d0: a5d1 143a 91bd 663a cb87 873a 9c04 903a
000001e0: 5c20 463a 1351 743a 456f 883a ca7e 8f3a
000001f0: 0bb9 963a 26b4 b13a c224 b63a 9d87 bf3a
00000200: 0fc6 bb3a de8d c53a cd00 aa3a 0944 a83a
00000210: 1c20 a23a dce0 b63a 0405 ce3a cef4 a23a
00000220: d773 a23a 2716 a83a b885 c03a aaee d43a
00000230: 24b7 9b3a 43d1 a23a 2429 b33a f7a0 c73a
00000240: 2f9d cf3a 04e7 9e3a a383 a83a 131a b73a
00000250: ab60 c73a 7644 c03a 8c80 ee3a 908b bb3a
00000260: 737f d13a c287 f23a dc6e 0d3b 8d8c ed3a
00000270: b78b c83a 0b92 dd3a e9a9 f33a ce9a 133b
00000280: ee1e e13a 7864 c13a 824d d43a d6d9 f53a
00000290: 3da4 183b 1ba6 d03a 9c2a cc3a f5d0 f43a
000002a0: 6a25 083b d86d 1f3b 2aa2 de3a b119 f53a
000002b0: e1a4 083b 064a 123b 673a 233b 0bec f33a
000002c0: 81cf dd3a 7ee6 bb3a e5ee 9f3a 83f1 933a
000002d0: 6f3b ec3a 5e23 c23a db5d b03a eb1d 9d3a
000002e0: 1ad8 873a 766a e83a 550d c63a 8832 a23a
000002f0: cfbb 9b3a 6991 af3a d2ce f53a 46d5 c03a
00000300: 6774 8b3a a4ce 943a 0f28 be3a c07d ee3a
00000310: 45ef ad3a 44bb 8c3a 1fba 9f3a 5e2c b13a
00000320: f386 853a f4f9 913a 29c1 9c3a b474 863a
00000330: a9af 603a d5b0 733a bd28 8f3a 8cda 903a
00000340: 8e97 583a 761a 4e3a c716 573a 7b43 813a
00000350: a6dc 5a3a 4898 333a eee3 3c3a 5a7e 363a
00000360: 9748 483a 3754 1a3a 2c42 1b3a 66d9 423a
00000370: 8b1c 323a 2cd5 203a 064b 2b3a da7d 533a
00000380: 9af1 6b3a 462b 013a d893 eb39 7c12 fa39
00000390: c741 0a3a 3f27 163a 7a47 f639 4195 e139
000003a0: 0b28 db39 de84 dd39 0dc7 053a a9a2 063a
000003b0: eab6 e639 9efa bd39 e241 e939 e166 083a
000003c0: f578 0d3a ab08 033a dde4 013a 4eaa 063a
000003d0: 86a3 0c3a 03da 1c3a eaa2 203a 8b34 213a
000003e0: bb1a 1d3a 00f7 1d3a
0.0008492372 0.0006870227 0.00062409864 0.0006535165 0.00070726965 0.00076895196 0.00057410484 0.0005996684
0.00063615356 0.0005929793 0.0007651449 0.0004593091 0.0006873901 0.00068165414 0.00057975145 0.0007529924
0.00052943913 0.000758554 0.000690118 0.00065386074 0.0007889422 0.00072153355 0.0007329755 0.00067351625
0.0007489474 0.00085698516 0.0008064518 0.0008106684 0.0007574791 0.00082602235 0.00065997493 0.0007719889
0.00069992547 0.00064350193 0.00087974383 0.0006145169 0.0007316338 0.0005144706 0.00066825777 0.0010681892
0.0006970165 0.0006837311 0.0005614377 0.00094213354 0.0012188092 0.0007064926 0.00080234784 0.0009893284
0.0012079406 0.0013174 0.001559313 0.0014998999 0.0013279144 0.0013037404 0.0014905145 0.0014485253
0.0013669989 0.0014838513 0.0013915793 0.0013617965 0.0017423661 0.0020096703 0.0015239808 0.0013454584
0.0013370286 0.0017499485 0.0014985547 0.0015798842 0.00136257 0.0014908112 0.0015476 0.0017909347
0.0016523035 0.0014768736 0.001840656 0.001128653 0.0010691704 0.001043528 0.0010000208 0.0009139948
0.0011165235 0.0010600614 0.0010083767 0.0009122344 0.0009009867 0.0011144535 0.0010607842 0.00093710626
0.00092680537 0.00094092544 0.0011132178 0.0009966586 0.00087800535 0.0010405389 0.0009130526 0.001056948
0.00092931173 0.0010222697 0.0010901404 0.0008489085 0.00068970246 0.00075579586 0.0007791159 0.00075265934
0.0008492097 0.00066500343 0.0006920323 0.0005953636 0.0006875242 0.00087990914 0.00059552555 0.00041501047
0.00061781326 0.00085290987 0.0009913216 0.00056960096 0.00056769914 0.00088020513 0.0010340152 0.0010987702
0.00075579225 0.00093199423 0.0010409137 0.001094782 0.0011499239 0.0013557717 0.0013896453 0.001461256
0.0014325994 0.0015072187 0.0012970209 0.0012837659 0.0012369188 0.0013952511 0.0015718048 0.0012432577
0.0012394142 0.0012823985 0.0014688289 0.0016245444 0.0011880142 0.0012421984 0.0013668877 0.0015230466
0.0015839691 0.0012123291 0.0012856614 0.0013969563 0.0015211304 0.001466884 0.0018196269 0.0014308561
0.0015983417 0.0018503594 0.002158097 0.0018123552 0.0015300427 0.0016904486 0.0018590066 0.002252269
0.0017175355 0.0014754673 0.0016197416 0.0018756937 0.0023291253 0.0015918644 0.0015576663 0.0018677997
0.0020774254 0.0024326947 0.0016985585 0.0018699673 0.0020850229 0.0022321953 0.0024906637 0.0018609775
0.0016922803 0.001433566 0.0012201933 0.0011287186 0.0018023084 0.0014811566 0.0013455705 0.0011987066
0.0010364086 0.0017731923 0.0015110174 0.0012374679 0.0011881533 0.0013394776 0.0018753654 0.0014711998
0.0010639549 0.0011353088 0.0014507788 0.0018195435 0.001327016 0.0010736962 0.0012186206 0.0013517251
0.0010187313 0.0011137114 0.0011959422 0.0010258169 0.0008571097 0.00092960644 0.0010922175 0.001105146
0.00082623295 0.00078622194 0.0008204993 0.000986203 0.0008348919 0.0006851 0.0007205595 0.0006961577
0.0007640211 0.0005887183 0.0005922641 0.00074329076 0.00067944144 0.0006135281 0.00065343117 0.00080677646
0.000900054 0.0004927408 0.00044932845 0.00047697488 0.0005274084 0.0005727894 0.0004697403 0.00043026547
0.0004180077 0.000422514 0.0005103208 0.00051359326 0.000440053 0.00036235614 0.0004449031 0.00052033184
0.0005396747 0.0004998545 0.0004955063 0.0005137072 0.0005364943 0.0005983414 0.0006127792 0.0006149492
0.0005993058 0.00060258806

exp_avg f4 [10]
00000000: 4dec 23bc cc75 d0bb 16b5 7e3c b710 66bc
00000010: 8972 9ebb 41ed 4cbc 58de 903c e282 833c
00000020: 667c dc3b 3fe1 d53b
-0.010005069 -0.0063616987 0.015546104 -0.014042071 -0.004835431 -0.012507738 0.017684147 0.01605362
0.0067286966 0.0065270956

exp_avg_sq f4 [10]
00000000: 7eba a33a 601e c93a 4b95 8e3b 67f2 a03a
00000010: bacc 973a 9ab4 dc3a 8005 483b ae25 263b
00000020: b430 7f3a 11e3 103a
0.0012491492 0.0015344135 0.004351293 0.0012279273 0.0011581399 0.0016838491 0.0030520856 0.0025352049
0.00097347354 0.00055269996

exp_avg f4 [20, 10, 5, 5]
00000000: 8db7 61ba 7d40 e73a 20b2 993b 6d79 143b
00000010: 252e a3b7 77e0 46ba d53f a1ba c477 0c3b
00000020: 1e78 e83a e836 04ba 4f8b 483a 47cd 46bb
00000030: 33ca d6ba 62fd cc3a b7e9 33b9 3938 4f3a
00000040: 6f8e 19bb c2e4 6ebb 7242 923a 5e29 a9b9
00000050: 315c 023a 3a33 a6ba dd0e 83bb 3858 3e3a
00000060: 80b4 b0b9 c289 afb8 94fd 90ba 28ea 143a
00000070: b635 303b 8063 853a ec36 1e39 20bc fcb9
00000080: b389 8239 99ab 033b 6cb3 c0b8 d94a 6d39
00000090: 3248 0c3a adde 2aba 4a76 fd38 3517 27ba
000000a0: b445 e739 acc5 843a 6271 48ba e91c 16b9
000000b0: 26c2 e4b9 bdfb c539 f4dd 2e3a e355 9eba
000000c0: c653 25ba 34c7 ffb8 92fa 8e3a be00 c73a
000000d0: d485 8c39 69bc ae39 fe80 8c3a d589 2dba
000000e0: 60a6 f439 ecfe 6d3a 6f82 5fb9 20ac 10b9
000000f0: 6611 533a ac9b 9d39 3e78 15bb 62c0 4bbb
00000100: 6c29 1bba 77ea 1c3a 34c7 d3ba d062 caba
00000110: 3f30 c7ba a8f3 97ba a2ae 5439 1e4f c7b9
00000120: a12c faba 6c64 a8ba ff18 b3ba 7ff2 2cba
00000130: bd72 b6ba 4bd9 1cbb 5c3d 98ba 784b b2b9
00000140: 9821 3bbb da89 41bb 4286 30ba 376d 04b9
00000150: 7aa3 c2ba f6dd 8aba 9ec0 09bb d611 0d3a
00000160: 38f8 88ba d699 91ba a0e8 77b9 c361 67bb
00000170: 13c0 273a b9bd b237 6b53 14ba 7e60 c2ba
00000180: 981b 83bb 8a8e 70ba 35ae 84ba 0c13 7cba
00000190: 6962 bd39 4504 55b9 aab3 d8b9 00a8 0b3b
000001a0: e40e 423b acd4 9339 40e9 9137 a92a dfb9
000001b0: 13bf 013b 3bbe d93a 72c0 e139 dabe bc39
000001c0: 0f7e 97b9 4339 2cba e5f3 31b8 b92f a638
000001d0: b006 633a c28e e939 03f5 0abb 5f42 073a
000001e0: c766 1e3a 8778 603a c7bd f639 6745 deba
000001f0: df53 c838 a0a1 06ba 4757 4cba 9e70 dab9
00000200: eafb 0cba 9577 4eba d8b7 f637 904f 6239
00000210: ab59 203a 5c94 f039 d4b9 8b38 decb c139
00000220: 8abe a237 e239 f539 b719 003a 5402 9db8
00000230: d24e 28ba 78ba c539 025e 2fba eb92 4c39
00000240: 15b8 51ba 94dd 67b9 ac46 5f3a 7411 52ba
00000250: 65b7 be39 4a67 8bb9 e13b 053b db7b 173b
00000260: bbe7 2f3b f776 3d3b d310 2b3b 0419 9f3a
00000270: a1ce 263b 329f 413b 8499 3f3b 0c41 423b
00000280: a696 72ba ecac a4ba d19d cfba 80c4 68ba
00000290: 25a8 ecba 650d 0bbb 6801 a5ba 28da c3ba
000002a0: 10fa 31bb 5330 5ebb fbbe 1d3b 0009 283a
000002b0: 8092 e6b7 e6b5 c5ba 4883 bbba 4cf6 7639
000002c0: 2328 143b bb50 e13a 6eca 023b dae5 df3a
000002d0: d2c4 fdba b88e b6ba 993e b739 91ca 8b3a
000002e0: 30b7 133a fc34 f9ba a538 43bb 3616 feba
000002f0: 74f1 ccba a801 b2ba 24e4 65b9 ef45 6fbb
00000300: 29cd ebba ac05 79ba 527a ffba 6666 973a
00000310: 06a3 0db9 19cb 6eba a471 a6b8 52b9 3eba
00000320: d1e6 d639 85ad c6ba 6f16 2cbb d855 e5b9
00000330: dff0 a038 0229 3c39 1fd7 daba e80f 19bb
00000340: 18b3 2bbb ba0d d1ba 6888 89b9 c7b3 a1ba
00000350: 8f53 41bb 167b 2cb9 7ade 95b9 20ec 03b7
00000360: 5e73 a2b9 c632 07bb 2c6e 8639 eefb c7b9
00000370: 1ba7 34ba 5949 27ba 9e38 fcba 7cde 8438
00000380: 7d65 47ba 9ca4 4039 e687 22ba 3256 683a
00000390: 1127 043b fda0 d1ba 5b8f 6c3a 2894 54b9
000003a0: e417 d6b8 96b2 98b9 806c 7139 63e8 1dba
000003b0: eb9a 21bb 2987 0bbb 2a30 053a bb6c b239
000003c0: 7d1d df39 3062 8c39 5cd4 dbb9 d614 8cba
000003d0: c578 75ba 1029 953a d425 4e3a 86da 23ba
000003e0: 5ec5 6ab9 0a46 0aba 9213 8cba 4b84 cbba
000003f0: c4d2 9b37 3b76 6fbb 0871 ecbb 155d 5bba
-0.000861042 0.001764312 0.0046904236 0.0022655383 -1.9452602e-05 -0.00075865485 -0.0012302349 0.002143369
0.0017735993 -0.0005043582 0.0007650153 -0.0030334757 -0.0016387164 0.0015639479 -0.00017157836 0.0007904801
-0.0023430844 -0.0036452268 0.0011158718 -0.00032265013 0.0004972844 -0.0012680062 -0.0039995746 0.00072610704
-0.0003370382 -8.37031e-05 -0.00110619 0.0005680644 0.0026887483 0.0010176748 0.00015088514 -0.0004820535
0.00024898126 0.0020091294 -9.1886934e-05 0.00022629964 0.0005351334 -0.00065181666 0.00012086013 -0.00063740026
0.00044111686 0.0010129712 -0.000764629 -0.00014315885 -0.000436322 0.00037762328 0.0006670647 -0.001208004
-0.00063067337 -0.00012196452 0.0010908416 0.0015182716 0.0002680259 0.00033328243 0.0010719595 -0.0006619965
0.00046663266 0.0009078819 -0.00021315528 -0.00013797032 0.0008051604 0.00030061358 -0.0022807266 -0.003109001
-0.0005918953 0.0005985866 -0.001615739 -0.0015440825 -0.0015196874 -0.0011593001 0.00020282951 -0.00038015185
-0.0019086787 -0.0012847311 -0.0013664066 -0.0006597414 -0.0013919693 -0.0023933228 -0.0011614966 -0.00034007034
-0.002855396 -0.0029531629 -0.0006733873 -0.00012629187 -0.0014849745 -0.0010594714 -0.002101935 0.0005381381
-0.0010449952 -0.0011108469 -0.00023642415 -0.0035306073 0.0006399166 2.13076e-05 -0.0005658182 -0.0014829782
-0.004001092 -0.00091765134 -0.0010122719 -0.00096158753 0.0003612221 -0.00020314853 -0.0004133259 0.0021309853
0.0029610926 0.00028196478 1.7393962e-05 -0.0004256566 0.0019797727 0.0016612479 0.00043058727 0.0003600035
-0.00028894885 -0.0006569812 -4.2427233e-05 7.924386e-05 0.00086603593 0.00044547586 -0.0021203167 0.00051597314
0.00060425367 0.0008562882 0.00047062172 -0.0016957939 9.5523654e-05 -0.00051357783 -0.0007794988 -0.00041664107
-0.00053781143 -0.00078760955 2.9411094e-05 0.00021582679 0.0006116877 0.00045886904 6.66265e-05 0.00036963722
1.9400632e-05 0.00046773168 0.00048866443 -7.486777e-05 -0.00064204365 0.00037713698 -0.00066897285 0.00019509687
-0.00080001476 -0.00022112421 0.0008517306 -0.0008013465 0.00036376264 -0.00026589102 0.002032988 0.0023114595
0.0026841003 0.002891002 0.0026102557 0.0012138193 0.002545275 0.002954435 0.002923579 0.0029640822
-0.0009254016 -0.0012563742 -0.001583988 -0.00088793784 -0.0018055482 -0.00212177 -0.001258892 -0.0014942335
-0.0027157106 -0.0033903315 0.0024070132 0.00064100325 -2.7486356e-05 -0.0015084117 -0.0014306093 0.00023552141
0.002260693 0.0017190197 0.0019957083 0.0017082051 -0.0019361025 -0.0013928032 0.0003495112 0.0010665228
0.0005634902 -0.0019012983 -0.0029788401 -0.0019385281 -0.0015635923 -0.0013580816 -0.00021924131 -0.003651019
-0.001799022 -0.00094994414 -0.001949141 0.0011550903 -0.00013507539 -0.00091092434 -7.936664e-05 -0.00072755397
0.00040989232 -0.0015157914 -0.0026258489 -0.00043742242 7.67426e-05 0.00017944354 -0.0016696191 -0.0023355428
-0.0026199277 -0.0015949525 -0.00026232307 -0.0012336903 -0.0029499268 -0.00016449051 -0.00028585253 -7.863186e-06
-0.00030985003 -0.0020629629 0.00025640556 -0.0003814394 -0.0006891356 -0.0006381474 -0.0019242947 6.3356914e-05
-0.00076063705 0.00018371869 -0.000620006 0.0008862942 0.0020164887 -0.0015993413 0.0009024047 -0.00020273088
-0.00010208765 -0.00029124756 0.0002302397 -0.0006023703 -0.0024658989 -0.0021290279 0.00050807244 0.00034031816
0.00042555845 0.00026776036 -0.00041929155 -0.0010687362 -0.00093640044 0.0011380035 0.0007863913 -0.0006250519
-0.00022389504 -0.0005274719 -0.0010686985 -0.0015527097 1.8575585e-05 -0.0036538977 -0.007215623 -0.00083680573
