MNIST_/checkpoint/model_epoch3.pth (torch, 268573 bytes, 24 tensors)

conv1.weight f4 [10, 1, 5, 5]
0	0x3838d8b8	4.4070854e-05
1	0x3e8ede46	0.27903956
2	0x3eda90cb	0.42688593
3	0x3da23b3c	0.07921454
4	0xbd96eeb0	-0.07369745
5	0xbdfc101d	-0.12307761
6	0x3d88e8a3	0.06684997
7	0x3e8027c4	0.2503034
8	0x3e807787	0.25091192
9	0xbd178c44	-0.036999002
10	0xbebb1e3f	-0.36546513
11	0x3e21f17a	0.15814772
12	0x3ee4dfb3	0.4470192
13	0x3dffe43f	0.12494706
14	0xbe20cb53	-0.15702562
15	0xbea14c14	-0.31503356
16	0x3cf0b0a6	0.029381108
17	0x3eb0e619	0.3455055
18	0x3e4ac51a	0.19801751
19	0x3ccef9d5	0.025265614
20	0xbe751059	-0.23932017
21	0x3e0e2982	0.13883021
22	0x3ea3c595	0.3198668
23	0x3e5b0e34	0.21392137
24	0x3bb2f2f8	0.005461093
25	0x3dc49a24	0.095997125
26	0x3e5b8a64	0.2143951
27	0x3e3ed0ff	0.18634413
28	0x3ccb1cbe	0.024793979
29	0xbcc336ef	-0.023829905
30	0xbd46dba8	-0.048549324
31	0x3eab676b	0.3347734
32	0x3e0e9711	0.13924815
33	0xbda64879	-0.08119292
34	0xbe8355e1	-0.25651458
35	0x3dcbae7d	0.099453904
36	0x3e8099fe	0.25117487
37	0x3e6510da	0.2236971
38	0xbd74f87b	-0.059807282
39	0xbe70aad8	-0.23502672
40	0x3e84c7a7	0.25933573
41	0x3e130ac7	0.1435958
42	0x3ca4c1f0	0.020112008
43	0xbe44b04c	-0.19207877
44	0xbe4ddc58	-0.20103586
45	0x3e3f81ac	0.1870181
46	0x3e862455	0.26199594
47	0xbcaf121a	-0.021370936
48	0xbe848e8a	-0.2589
49	0xbe366bc2	-0.17814544
50	0x3ece3d70	0.40281248
51	0x3ef8d402	0.4859925
52	0x3e404e5b	0.1877989
53	0x3e39c51b	0.18141596
54	0xbe8433f2	-0.2582088
55	0xbd7e5eb1	-0.062102024
56	0xbe45b355	-0.19306691
57	0xbd5fd03e	-0.054641955
58	0x3e2d3a69	0.16916813
59	0x3dd0b86e	0.10191427
60	0xbe3d09f6	-0.18460831
61	0xbedf632a	-0.43630344
62	0xbd2b404e	-0.041809373
63	0x3b8faaa2	0.0043843547
64	0x3e9d8bec	0.30770814
65	0x3bc6d328	0.0060676523
66	0xbe8a26e0	-0.26982784
67	0xbd19115e	-0.03737008
68	0x3e468e7d	0.19390292
69	0xbd2c4233	-0.04205532
70	0x3e9bbf70	0.30419493
71	0x3edfc5cd	0.43705598
72	0x3dc10c04	0.0942612
73	0xbe186634	-0.14882737
74	0x3da78532	0.08179702
75	0xbe11f170	-0.14252257
76	0xbd809b3a	-0.06279607
77	0x3deeb3a8	0.116553605
78	0x3dad4fd1	0.084624894
79	0xbda8f461	-0.082497366
80	0xbeb64750	-0.35601282
81	0xbe2bf01d	-0.16790815
82	0xbe6b341e	-0.229691
83	0x3de2b4bf	0.11069631
84	0x3e4b0ea3	0.19829802
85	0xbd918099	-0.07104606
86	0xbe9028de	-0.2815618
87	0xbe899916	-0.26874608
88	0x3e580134	0.21094209
89	0x3e268578	0.16261852
90	0xbeb7c14f	-0.3588967
91	0xbe4b7613	-0.1986926
92	0x3d5c540c	0.05379109
93	0x3ebafbde	0.36520284
94	0x3e84d321	0.2594233
95	0xbe20f904	-0.15719992
96	0x3ccfdd68	0.02537413
97	0x3e9908cb	0.2988952
98	0x3ea8c3ab	0.32961783
99	0x3eaf3a0d	0.34223977
100	0x3d906d2b	0.07052072
101	0x3dae7306	0.08518033
102	0x3e6be4b1	0.23036458
103	0x3c22d7d7	0.009939156
104	0x3d423ac9	0.047419343
105	0x3e71070f	0.23537849
106	0x3e1c8e2e	0.15288612
107	0x3be7572f	0.0070599536
108	0xbd96dbd7	-0.0736615
109	0xbe50205d	-0.20324846
110	0x3ef7c915	0.483956
111	0x3dae5c27	0.085136704
112	0xbe81d2fc	-0.2535628
113	0xbe06b03b	-0.13153164
114	0x3badc677	0.0053032
115	0x3eb48fa2	0.35265833
116	0xbc8eb19e	-0.017418679
117	0xbe6a1145	-0.2285815
118	0xbe44471b	-0.1916775
119	0xbe0d3337	-0.13789068
120	0x3e88f58c	0.26749837
121	0xbe09946f	-0.13435529
122	0xbdd8bd6f	-0.105830066
123	0xbc9ec80a	-0.019382495
124	0xbd9d03d2	-0.07666744
125	0xbd989f38	-0.074522436
126	0x3daf228a	0.0855151
127	0x3e381fa0	0.17980814
128	0xbc13338e	-0.00898446
129	0xbe7d46e9	-0.24734081
130	0xbdfb77e0	-0.12278724
131	0x3e4fa229	0.20276703
132	0x3e09bf88	0.1345197
133	0xbe4321dd	-0.19055887
134	0xbe16edb0	-0.14739108
135	0xbceb83ce	-0.028749373
136	0xbbb3c4e6	-0.0054861186
137	0xbc8aad36	-0.016928297
138	0xbcec77d5	-0.028865734
139	0xbe6429c2	-0.22281554
140	0xbbfe6c5e	-0.007764383
141	0xbd10c890	-0.03534752
142	0x3c96bf1c	0.018401675
143	0xbc8cd886	-0.01719309
144	0xbe574c54	-0.2102521
145	0x3d962716	0.07331674
146	0xbdec376c	-0.115340084
147	0x3dd9aff8	0.106292665
148	0xbe8a901c	-0.27063072
149	0xbdc8522e	-0.097812995
150	0x3e4f7bab	0.2026202
151	0x3e7b1176	0.2451838
152	0x3e8a73f7	0.270416
153	0x3ea5883c	0.323305
154	0x3e89e803	0.26934823
155	0x3eb51651	0.3536859
156	0x3e54cf22	0.2078214
157	0x3e9e7416	0.30947942
158	0x3df82f72	0.121184245
159	0x3eaecd65	0.3414108
160	0x3d444e12	0.047926016
161	0x3e2d21e7	0.16907464
162	0xbdb860e8	-0.090028584
163	0x3d40563d	0.046957243
164	0x3dcc2157	0.099672966
165	0xbe8a7cc0	-0.27048302
166	0xbd957fe2	-0.07299782
167	0xbe8554a2	-0.26041132
168	0xbd7e4937	-0.062081542
169	0xbd337a04	-0.043817535
170	0xbecc5bf5	-0.39913908
171	0xbef4bb35	-0.47799078
172	0xbec2c370	-0.38039732
173	0xbedafdd0	-0.4277177
174	0xbdd123ca	-0.10211904
175	0x3d992cdf	0.074792616
176	0x3eb24788	0.348202
177	0x3e442ddc	0.19158119
178	0x3d999619	0.07499332
179	0xbdce380f	-0.10069286
180	0x3e5f95f5	0.21834548
181	0x3e2d0886	0.16897783
182	0x3e196182	0.14978603
183	0x3e43db68	0.19126666
184	0xbd6df11a	-0.05809126
185	0xbe9110c5	-0.28333107
186	0xbde01eb6	-0.10943358
187	0x3ddede6d	0.10882268
188	0x3ec38669	0.38188484
189	0x3e3ae385	0.18250854
190	0xbd8199c6	-0.06328158
191	0xbde2bccd	-0.11071167
192	0xbe874633	-0.26420745
193	0x3d143d3f	0.03619122
194	0x3de9ca2d	0.11415515
195	0xbeb86f74	-0.36022532
196	0xbcad5b7b	-0.021161785
197	0xbe76437e	-0.24049184
198	0xbdee84bc	-0.11646411
199	0x3c8ba877	0.017048104
200	0xbbfdd31a	-0.0077461125
201	0xbbb10492	-0.005402156
202	0x3e87a24f	0.2649102
203	0x3dc58896	0.09645192
204	0x3d9f2b81	0.077719696
205	0xbe04d392	-0.12971333
206	0x3e198aa1	0.14994289
207	0x3d4095f4	0.047018006
208	0xbe3240cf	-0.17407535
209	0xbe8793e7	-0.26480028
210	0x3e073c92	0.132067
211	0x3e8899d9	0.26679876
212	0xbdc69d43	-0.09697964
213	0xbea6c6af	-0.3257346
214	0xbe9ed126	-0.31018943
215	0xbe1900df	-0.14941739
216	0x3ec75bf1	0.38937333
217	0x3e8af96d	0.27143422
218	0xbe7213b4	-0.23640329
219	0x3d3448b3	0.044014644
220	0xbdc93f1b	-0.098264895
221	0x3e7be4f3	0.24599056
222	0x3edba0de	0.4289617
223	0x3de3b330	0.11118162
224	0x3e6957ba	0.22787371
225	0xbeb360bc	-0.3503474
226	0x3e2632ef	0.16230367
227	0x3e90b8af	0.28265902
228	0x3e85ec39	0.26156786
229	0x3d709943	0.05873991
230	0x3e4d5387	0.20051394
231	0x3ee8115a	0.45325738
232	0x3ed00deb	0.4063562
233	0xbc8ee9b8	-0.01744543
234	0xbb8ad9db	-0.004237396
235	0x3d8bc23d	0.068241574
236	0x3e34edc6	0.17668828
237	0xbdb521fa	-0.08844371
238	0xbe8b1e79	-0.27171686
239	0xbea72c6e	-0.32651085
240	0x3e7aec9a	0.24504319
241	0x3d55247c	0.052036747
242	0xbd627d15	-0.05529507
243	0xbe4187c8	-0.18899453
244	0xbda39b7c	-0.07988641
245	0x3e254458	0.16139352
246	0xbd94ed4f	-0.072718255
247	0x3dc3d1ad	0.09561477
248	0xbdfa3fc7	-0.12219196
249	0x3e2a697f	0.16641806

conv1.bias f4 [10]
0	0xbd5f38eb	-0.05449764
1	0xbd9b01af	-0.075686805
2	0x3e6e2034	0.23254472
3	0x3cd34b5b	0.025792768
4	0xbe6c9083	-0.23102002
5	0xbebc98fe	-0.36835474
6	0x3e8b5842	0.27215773
7	0x3e9c5824	0.30535996
8	0x3c98c250	0.018647343
9	0x3e675852	0.22592285

conv2.weight f4 [20, 10, 5, 5]
0	0xbdd97b6e	-0.106192455
1	0x3dfc186b	0.12309345
2	0x3e108ca8	0.14116156
3	0x3d92fc77	0.0717706
4	0x3cc6b611	0.024256738
5	0xbdd0d56d	-0.10196958
6	0x3e229b05	0.15879448
7	0x3e2fd46e	0.17170879
8	0x3d877443	0.06613972
9	0x3d39f7e2	0.045402415
10	0xbdccc322	-0.09998156
11	0xbbf2cd7a	-0.0074097486
12	0x3df660ea	0.12030204
13	0xbde0e78a	-0.109816626
14	0xbd7dd800	-0.06197357
15	0xbdd395d0	-0.10331309
16	0xbc9aad00	-0.018881321
17	0x3d03c8fa	0.032174088
18	0xbdea67bd	-0.11445568
19	0xbd9149ef	-0.0709418
20	0xbd48565a	-0.048910476
21	0xbdd19b62	-0.10234715
22	0xb8f4cc3e	-0.0001167287
23	0xbd259196	-0.040422045
24	0xbe02e4f6	-0.12782654
25	0xbd9f2f76	-0.07772724
26	0xbdaadcd8	-0.08342904
27	0x3d38fb27	0.045161393
28	0x3ddd7e41	0.10815097
29	0x3b0a24bd	0.0021079027
30	0xbe4ff389	-0.20307745
31	0x3d20b8ff	0.039238926
32	0x3db4cce4	0.08828142
33	0x3d678753	0.05652554
34	0x3ce1d89a	0.027569104
35	0xbdf99ab6	-0.12187712
36	0x3d097478	0.03355834
37	0x3dac505b	0.08413764
38	0x3d9d1e0a	0.07671745
39	0xbcafc2d8	-0.021455213
40	0x3d32cb34	0.04365082
41	0x3c3b6af1	0.011439071
42	0x3d1418e4	0.03615655
43	0xbd56bd61	-0.0524267
44	0x3d5e3784	0.054252163
45	0xbd22213b	-0.039582472
46	0x3c56f846	0.013120716
47	0x3d47f9d2	0.04882223
48	0xbbd9ec06	-0.0066504506
49	0x3d648007	0.05578616
50	0xbde50ff6	-0.11184685
51	0xbc98d257	-0.018654985
52	0xbd1e90c3	-0.038712274
53	0xbde71c93	-0.11284747
54	0xbdd7e974	-0.105425745
55	0xbd2bca17	-0.041940775
56	0x3c8eb6cc	0.017421149
57	0x3d38807a	0.0450444
58	0xbe556e74	-0.20842916
59	0xbd12e7c9	-0.03586558
60	0x3d663e74	0.056211904
61	0xbd847bc6	-0.064689204
62	0xbe7db28d	-0.24775143
63	0xbe170059	-0.14746226
64	0xbdd8feb0	-0.10595453
65	0xbd99bff0	-0.07507312
66	0xbe453e9f	-0.1926217
67	0xbdc6fcc9	-0.09716184
68	0xbe13fbad	-0.14451475
69	0xbe02ac20	-0.12760973
70	0xbdb1d3e3	-0.08682992
71	0xbdb9b050	-0.09066832
72	0xbde08699	-0.109631725
73	0xbd8322cb	-0.064031206
74	0xbd6e97b8	-0.05825016
75	0x3d601a07	0.05471232
76	0x3e01e861	0.12686302
77	0x3db502be	0.08838414
78	0xbde0855d	-0.10962937
79	0xbe254d16	-0.16142687
80	0x3d83d82c	0.06437716
81	0x3ddd349f	0.10801052
82	0x3d4e2fe8	0.050338656
83	0xbddadc83	-0.106865905
84	0xbe3bf4b0	-0.1835506
85	0x3dbf6276	0.09344952
86	0x3e22c373	0.1589487
87	0x3dd98cb0	0.10622537
88	0xbdf9a7f1	-0.121902354
89	0xbd387a10	-0.045038283
90	0x3d6247c4	0.055244222
91	0x3da7da10	0.08195889
92	0xbd1540f3	-0.036438894
93	0xbe4c2667	-0.19936524
94	0xbdca0c13	-0.09865584
95	0xbb88f703	-0.0041798367
96	0x3d302840	0.043007135
97	0x3cd1edee	0.025626149
98	0xbca2a24e	-0.019852784
99	0xbdf29ef7	-0.118467264
100	0xbd4beee6	-0.04978838
101	0xbe4fa30d	-0.20277043
102	0x3dd0616d	0.101748325
103	0x3ddb4747	0.107069544
104	0xbc3e2e70	-0.011607751
105	0xbe82d668	-0.25554204
106	0xbd0ad99a	-0.033898927
107	0x3da8d242	0.082432285
108	0x3e1ce42e	0.15321419
109	0x3c90ace5	0.017660568
110	0xbe5eb975	-0.21750434
111	0x3d7b4b5b	0.06135116
112	0x3e09e42d	0.13465948
113	0x3e11ab8b	0.14225595
114	0xbdb4c8d4	-0.088273674
115	0xbd0bf1c5	-0.034166116
116	0x3d742788	0.059608012
117	0xbd1e3381	-0.038623337
118	0xbd6f44fa	-0.05841539
119	0xbdc6fcf3	-0.09716215
120	0x3d610a37	0.054941382
121	0xbca793da	-0.020456243
122	0xbe02fd4b	-0.12791936
123	0xbcb5d71f	-0.022197304
124	0xbce5d8ab	-0.028057417
125	0x3ca8e198	0.020615384
126	0x3c92d1e7	0.017922355
127	0x3d3fcfae	0.04682892
128	0xbd99697b	-0.07490822
129	0xbd901a99	-0.07036323
130	0xbcbd43a9	-0.023103552
131	0x3dc52a81	0.096272476
132	0xbbc891ac	-0.006120881
133	0x3d38bbc1	0.04510093
134	0xbd1c8024	-0.038208142
135	0x3ce64cd8	0.028112814
136	0x3c95420f	0.018219976
137	0x3cc41d52	0.023939762
138	0xbcf5562e	-0.02994832
139	0xbd00f0e3	-0.031479727
140	0x3caa203b	0.020767322
141	0x3d8f875b	0.07008239
142	0x3dbd593d	0.092455365
143	0xbd33f86d	-0.04393809
144	0xbc1ec67a	-0.009690875
145	0xbc5ebbe0	-0.013594598
146	0xbc0148ce	-0.007890893
147	0x3d3328b6	0.043739997
148	0x3d34f2a5	0.044176716
149	0xbbd9c593	-0.006645867
150	0xbda79469	-0.08182604
151	0xbd4ea482	-0.050449856
152	0xbd526e36	-0.051374637
153	0x3d158c3f	0.036510702
154	0x3da66d23	0.08126285
155	0x3d666e45	0.056257505
156	0xbcf02012	-0.029312167
157	0xbd8b23bb	-0.067939244
158	0x3d11ac17	0.03556451
159	0x3d2f738d	0.042834807
160	0x3d03077f	0.03198957
161	0xbd388366	-0.045047186
162	0x3d2622a9	0.0405604
163	0xbdc44948	-0.0958429
164	0xbb96f9fd	-0.0046074376
165	0xbd98d0ad	-0.07461677
166	0xbd57529b	-0.052569013
167	0xbd2655d6	-0.040609203
168	0xbd8b6c4b	-0.068077646
169	0xbd89105e	-0.06692575
170	0xbde85272	-0.1134385
171	0xbc99b44d	-0.018762732
172	0xbcf2c5da	-0.029635359
173	0xbd996338	-0.074896276
174	0xbe0dfcbb	-0.1386594
175	0xbe1d771e	-0.15377471
176	0xbe032e43	-0.12810616
177	0xbd6f75c5	-0.058461923
178	0xbcd4f877	-0.025997384
179	0xbd316044	-0.043304697
180	0xbccb3140	-0.024803758
181	0xbc8ac5b2	-0.016939972
182	0x3d014bcd	0.03156643
183	0xbb8f3e34	-0.004371429
184	0x3d2f2c87	0.042767074
185	0xbe19e571	-0.15028931
186	0x3d0eabe5	0.0348319
187	0x3d450dac	0.04810874
188	0xbcf8aeb4	-0.030356742
189	0xbcc0cf48	-0.02353634
190	0xbe37ca70	-0.17948318
191	0xbd26772a	-0.040640987
192	0x3d964591	0.073374875
193	0x3c5f973c	0.013646897
194	0xbd84cc91	-0.064843304
195	0xbd54cb2f	-0.051951583
196	0xbd52086b	-0.05127756
197	0xbd989877	-0.07450955
198	0xbaa08d78	-0.0012249192
199	0xbde2db2c	-0.1107696
200	0xbe272607	-0.163231
201	0xbe24b320	-0.16083956
202	0xbcb92a52	-0.022603188
203	0x3dd0a621	0.101879366
204	0xbd43eba1	-0.047832135
205	0xbec05a3f	-0.37568852
206	0xbd3b891e	-0.045785062
207	0xbbc66b9a	-0.0060553076
208	0x3e014275	0.12623008
209	0xbce06169	-0.027390199
210	0xbe8b5d14	-0.2721945
211	0x3c75529e	0.014973311
212	0x3d0160b6	0.03158637
213	0x3cc2a976	0.023762446
214	0xbd3d59e5	-0.04622831
215	0xbcab4364	-0.020906158
216	0x3c387ef4	0.011260737
217	0xbca84c64	-0.020544238
218	0xbdaa229f	-0.08307385
219	0x3c599045	0.013279025
220	0x3cf0c7fd	0.029392237
221	0xbc6558be	-0.013998209
222	0xbd2ace1b	-0.041700464
223	0xbc733159	-0.014843308
224	0xbd4344cb	-0.047673028
225	0xbe198c22	-0.14994863
226	0xbd70a05e	-0.058746688
227	0xbcc7c805	-0.024387369
228	0xbc534819	-0.012895607
229	0xbbe87b76	-0.007094796
230	0xbd8af8d4	-0.067857414
231	0x3d0c006d	0.034180094
232	0x3e09cd4b	0.1345722
233	0x3d4b8350	0.049685776
234	0x3ccab853	0.024746096
235	0xbda9b75e	-0.08286928
236	0x3cd86eab	0.026419958
237	0x3dd48f9a	0.10378952
238	0x3dcdaa5a	0.100422576
239	0xbd5e5595	-0.054280836
240	0xbd824489	-0.06360728
241	0x3d455b16	0.04818257
242	0xbc89f407	-0.016839994
243	0xbdb7becf	-0.08971941
244	0xbe0ed886	-0.13949785
245	0x3bebd301	0.0071967845
246	0xbddddd71	-0.10833252
247	0xbd879466	-0.06620102
248	0xbd644885	-0.055733223
249	0xbd615675	-0.055014092
250	0xbd0fa592	-0.03507001
251	0x3c087e0d	0.008330834
252	0xbe171545	-0.14754207
253	0x3dd43dcc	0.10363349
254	0x3db003da	0.085944846
255	0xbdb4edc6	-0.08834414

conv2.bias f4 [20]
0	0x3c34c904	0.011034254
1	0x3c3c62d4	0.011498172
2	0x3d72b2e0	0.05925262
3	0xbcd422b9	-0.025895463
4	0xbcd1011f	-0.02551323
5	0xbd20df1a	-0.039275266
6	0xbd9b6046	-0.07586722
7	0xbd14531b	-0.036212068
8	0x3d74d152	0.059769936
9	0xbd4fe589	-0.05075601
10	0x3cfb7adc	0.030698232
11	0xbd23595f	-0.039880153
12	0xbd970f66	-0.07375984
13	0x3cf6a70e	0.030108955
14	0x3d44914a	0.04799012
15	0xbc51f783	-0.012815359
16	0xbd866e4e	-0.06564008
17	0xbd2421d7	-0.040071335
18	0xbd23bacd	-0.03997307
19	0x3cbe4f6e	0.023231234

fc1.weight f4 [50, 320]
0	0x3dc86154	0.09784189
1	0x3ce5c73b	0.028049102
2	0x3cfa56f1	0.030559035
3	0x3db6d6ad	0.08927665
4	0xbd884f76	-0.06655781
5	0xbc947645	-0.018122802
6	0xbcecde98	-0.028914735
7	0x3d8ab47e	0.067727074
8	0xbd86edc0	-0.06588316
9	0xbdec4c72	-0.11538018
10	0x3bf00fbb	0.007326094
11	0x3dce4d6c	0.10073361
12	0x3e825954	0.25458777
13	0xbd1acc20	-0.037792325
14	0xbde89bbd	-0.1135783
15	0xbca97329	-0.020684795
16	0xbd4a6d3b	-0.049420577
17	0xbd63d707	-0.055624988
18	0x3d81a09c	0.06329462
19	0x3cdf0602	0.027224544
20	0x3d5a5e63	0.05331267
21	0x3d44743a	0.047962405
22	0x3dd5bd34	0.10436478
23	0xbd2159c5	-0.03939225
24	0x3db4124c	0.08792552
25	0xbd1c22e7	-0.038119223
26	0x3dd28cbd	0.1028075
27	0x3c8bb381	0.017053368
28	0xbd9d31fd	-0.0767555
29	0xbd2a6611	-0.041601244
30	0xbe22f328	-0.15913069
31	0xbd71a425	-0.05899443
32	0xbd8b6f30	-0.06808317
33	0xbd96ac4e	-0.07357083
34	0xbc857e4f	-0.01629558
35	0xbe07a311	-0.13245799
36	0x3d715d6d	0.05892699
37	0x3ca90d5a	0.02063625
38	0x3c09b574	0.008405078
39	0xbe51e213	-0.20496397
40	0x3d889921	0.06669832
41	0x3cc8beb0	0.02450499
42	0x3cd23b04	0.025662906
43	0xbd61da57	-0.055139866
44	0x3d96b174	0.07358065
45	0x3d4c23ab	0.049838703
46	0x3bd49834	0.0064878706
47	0x3e299773	0.1656168
48	0xbdee3ab7	-0.11632293
49	0xbddea8c5	-0.10872034
50	0xbd7b0a53	-0.061289143
51	0xbd9fb88b	-0.07798871
52	0x3de582f7	0.1120662
53	0x3d1cca03	0.03827859
54	0xbd8ee14f	-0.06976568
55	0xbe296243	-0.1654139
56	0x3e371dd0	0.17882466
57	0x3d9f6c8f	0.07784378
58	0x3cc5ff26	0.024169516
59	0x3cfa01e4	0.03051848
60	0x3d38398d	0.04497676
61	0x3d0bd87d	0.034142006
62	0xbdb3993f	-0.08769464
63	0x3d956f01	0.07296563
64	0xbd8dec42	-0.06929828
65	0xbd0a7457	-0.033802357
66	0xbd3a0a9c	-0.045420274
67	0x3a373489	0.00069887243
68	0x3d93c030	0.07214391
69	0xbd5eb5b3	-0.0543725
70	0x3d557eda	0.05212293
71	0xbc9a8360	-0.018861473
72	0x3e01217c	0.1261043
73	0x3d421435	0.047382552
74	0x3d8ec487	0.06971078
75	0xbd169ae0	-0.036768794
76	0xbd14826c	-0.036257192
77	0x3c9396ca	0.018016238
78	0xbd9cef86	-0.07662873
79	0xbdcf484f	-0.10121214
80	0x3b897107	0.004194382
81	0xbd394609	-0.045232806
82	0xbda2a43f	-0.07941484
83	0xbcba84cd	-0.022768402
84	0x3df4676d	0.119337894
85	0x3db1ddfd	0.08684919
86	0x3bbdcc03	0.0057921424
87	0x3c1c559a	0.009541893
88	0xbcb41dbe	-0.021986838
89	0x3cf6414a	0.03006043
90	0x3d5ca177	0.053864922
91	0x3d86911b	0.065706454
92	0x3d364695	0.044500906
93	0xbe12b986	-0.14328584
94	0xbc14b3fd	-0.009076116
95	0xbd91fb64	-0.07128027
96	0xbd485c0c	-0.048915908
97	0xbca212b3	-0.019784307
98	0x3d8cda08	0.06877524
99	0x3dc7b0f6	0.097505495
100	0xbd68a6f1	-0.056799833
101	0xbd162373	-0.0366549
102	0x3d1ac345	0.03778388
103	0x3e0e9fa0	0.1392808
104	0x3d9a6dad	0.0754045
105	0xbd458b35	-0.04822846
106	0x3d843a06	0.064563796
107	0xbdc0e287	-0.09418207
108	0x3cb2b03a	0.021812547
109	0x3c0ddf18	0.008659147
110	0xbde24be1	-0.11049629
111	0xbe7957cc	-0.24349898
112	0xbcc0db5c	-0.023542099
113	0x3d547574	0.051869825
114	0x3d6423bf	0.055698153
115	0xbc55085c	-0.013002481
116	0xbd18e018	-0.037323087
117	0x3c4e16cc	0.012578677
118	0xbd94090f	-0.0722829
119	0x3ce36783	0.02775932
120	0xbaae20ac	-0.0013284883
121	0xbdd829a3	-0.105548166
122	0x3d533ede	0.051573627
123	0xbd450866	-0.048103712
124	0xbe34cd48	-0.17656434
125	0xbd6e0b2f	-0.058116134
126	0x3ccbc08a	0.024872083
127	0xbd716393	-0.058932852
128	0xbd96d5e5	-0.07365016
129	0xbdc07a6f	-0.09398352
130	0xbd5e3028	-0.054245144
131	0xbde8ed34	-0.11373368
132	0xbcde1b1c	-0.027112536
133	0x3c3c1620	0.011479884
134	0xbd8dd0cb	-0.0692459
135	0xbdea3194	-0.114352375
136	0xbc59e914	-0.013300199
137	0x3da5e61a	0.08100529
138	0x3d214cca	0.039379872
139	0x3d062fbf	0.032760378
140	0xbc8dd679	-0.017314183
141	0xbd98bb70	-0.07457626
142	0x3deeb8df	0.11656355
143	0x3e44cc65	0.19218595
144	0xbd9ce146	-0.07660155
145	0xbce6f047	-0.028190745
146	0xbd929295	-0.071568646
147	0x3c1e2e40	0.009654582
148	0x3e854db6	0.2603585
149	0xbd5a8b4f	-0.05335551
150	0xbdbe54e0	-0.09293532
151	0xbe16ca3b	-0.14725582
152	0x3d5ca9d0	0.053872883
153	0x3de68628	0.11256057
154	0x3daf6811	0.08564771
155	0x3c791814	0.015203495
156	0x3de57f2e	0.11205898
157	0xbde8b8bb	-0.113633595
158	0xbdd4b96f	-0.10386931
159	0xbe6721d1	-0.22571494
160	0x3d544940	0.05182767
161	0x3d5cb370	0.053882062
162	0x3e028db0	0.12749362
163	0xbd84981f	-0.06474327
164	0x3db6b4fc	0.08921239
165	0x3d7b91c8	0.061418325
166	0x3d43650f	0.0477038
167	0xbd2c8519	-0.04211912
168	0xbd0688f4	-0.032845452
169	0xbc9e0479	-0.019289242
170	0xbd848724	-0.064710885
171	0xbda6cae0	-0.08144164
172	0x3cffbce3	0.031217998
173	0x3cca6074	0.024704196
174	0xbcb5836e	-0.022157397
175	0x3d871c96	0.06597249
176	0x3c1c3a86	0.009535437
177	0x3da0ff86	0.07861237
178	0x3d99d329	0.07510979
179	0x3c3e6e4d	0.011622977
180	0xbd18d2b2	-0.03731031
181	0xbc793214	-0.015209693
182	0x3caed52c	0.021341883
183	0x3da0fe45	0.07860998
184	0x3d8a200c	0.06744394
185	0xbdcd932c	-0.100378364
186	0xbc5bba64	-0.013411138
187	0x3aebe251	0.0017996525
188	0xbc87f3f6	-0.016595822
189	0xbdcf2e9b	-0.10116311
190	0xbe082e25	-0.13298853
191	0xbe0ab457	-0.13545357
192	0xbd745393	-0.059650015
193	0x3c4ee04d	0.01262672
194	0xbd0b1a22	-0.03396047
195	0x3cae3f00	0.021270275
196	0xbd8d6a2b	-0.069050156
197	0xbdc8c4bf	-0.09803151
198	0xbda79e10	-0.08184445
199	0x3d10d230	0.0353567
200	0x3dbb5582	0.09147169
201	0xbc21c1db	-0.009872879
202	0x3dfa9cd5	0.122369446
203	0xbd96de1f	-0.07366585
204	0xbe1c1c96	-0.1524528
205	0xbe00fbb4	-0.12596017
206	0xbc25b4fb	-0.01011395
207	0x3d8983ad	0.06714568
208	0x3e05aaeb	0.13053481
209	0x3d5f6033	0.054535102
210	0x3e00f374	0.1259287
211	0xbd4bf9be	-0.04979872
212	0xbd7895dd	-0.060689796
213	0xbdc15915	-0.09440819
214	0x3d225a5a	0.039636947
215	0xbd273724	-0.04082407
216	0x3ceeef89	0.029166954
217	0x3d4afb55	0.049556095
218	0xbde9bae6	-0.11412601
219	0xbce4d58e	-0.027933862
220	0x3d97cf64	0.074126035
221	0x3d551ab6	0.052027427
222	0xbb828549	-0.003983174
223	0xbdc282be	-0.09497593
224	0x3dad0fb0	0.08450258
225	0x3c1e5c13	0.009665507
226	0xbde2224d	-0.110416986
227	0x3bf8488f	0.007577009
228	0x3df6755b	0.120341025
229	0x3db349e7	0.0875433
230	0xb6057080	-1.9884028e-06
231	0x3d5a1108	0.0532389
232	0xbb6ec543	-0.0036433495
233	0xbc62a4ae	-0.013833208
234	0xbbe457c5	-0.0069684708
235	0xbc41975e	-0.011815874
236	0xbdf9f92a	-0.122057274
237	0xbe1719c1	-0.14755918
238	0xbe0d8f94	-0.13824302
239	0x3d0073b9	0.03136036
240	0x3b568a58	0.0032736268
241	0x3d81cde0	0.06338096
242	0xbd184a49	-0.03718022
243	0xbe91fb8a	-0.28512222
244	0x3cf67203	0.030083662
245	0x3c35ee01	0.011104108
246	0xbe414f0f	-0.18877815
247	0xbdc94a8b	-0.09828671
248	0x3c86518d	0.016396308
249	0xbcffdaf7	-0.03123234
250	0x3c963d9e	0.018339928
251	0x3e52d682	0.2058964
252	0x3d071f8d	0.032989074
253	0xbd69a6e9	-0.057043944
254	0xbcfa387b	-0.03054451
255	0x3e0cc284	0.13746077

fc1.bias f4 [50]
0	0xbd39c3f0	-0.045352876
1	0x3d03651e	0.032078855
2	0x3dc47c41	0.09594012
3	0x3e2b44f8	0.16725528
4	0x3dc6ca2f	0.09706532
5	0x3e11e28f	0.14246581
6	0x3dab934b	0.08377703
7	0x3dcd3ecf	0.100217454
8	0x3e0129bb	0.12613575
9	0xbc92a255	-0.017899672
10	0xbd6ec667	-0.05829468
11	0x3b52e646	0.003218071
12	0x3d967afd	0.07347677
13	0x3d055298	0.03254947
14	0x3d9bd8e2	0.076097265
15	0x3dcf5732	0.10124053
16	0x3d81256e	0.06305967
17	0x3d01ac3a	0.03165839
18	0xbd8dc777	-0.069228105
19	0x3d453977	0.048150506
20	0x3e1453ee	0.14485142
21	0xbcd57e83	-0.026061302
22	0x3d9419f2	0.07231511
23	0x3dbb3628	0.09141189
24	0x3dce27d7	0.100661926
25	0x3dbc62fb	0.091985665
26	0x3d4b376d	0.049613405
27	0x3e03a622	0.12856343
28	0x3d8b35e3	0.067973875
29	0x3d78d6b6	0.06075164
30	0x3d48bbd4	0.04900725
31	0x3d12b87c	0.03582047
32	0x3e0222c0	0.12708569
33	0x3c1ffb3b	0.009764488
34	0x3b99a395	0.00468869
35	0x3d0af211	0.03392226
36	0x3d5e2c0d	0.05424123
37	0x3e30d48a	0.17268577
38	0x3cb5c663	0.022189325
39	0x3c7aca1f	0.0153069785
40	0x3d2fe96e	0.042947225
41	0x3e1d7bb0	0.15379214
42	0x3d830680	0.06397724
43	0xbbc0eeef	-0.005887858
44	0x3d2c1e4c	0.04202108
45	0x3e038860	0.12844992
46	0x3d2ac7bc	0.041694388
47	0x3df45a5a	0.11931296
48	0x3df3f8e6	0.11912708
49	0x3d96ec95	0.07369343

fc2.weight f4 [10, 50]
0	0xbdc25f84	-0.094908744
1	0x3dcaf3d9	0.099097915
2	0xbea23441	-0.31680492
3	0xbe1cf030	-0.15326
4	0xbe19b198	-0.15009153
5	0x3dfc31f1	0.12314213
6	0x3de50c69	0.11184008
7	0xbe631daf	-0.22179292
8	0xbe586da3	-0.21135573
9	0xbc20696d	-0.00979076
10	0xbd60791f	-0.05480301
11	0x3e050bee	0.12992832
12	0xbd489392	-0.04896886
13	0xbe8340ed	-0.25635472
14	0xbe01a991	-0.1266234
15	0xbe1acfae	-0.15118286
16	0xbbb9c6bc	-0.005669443
17	0x3df54197	0.11975401
18	0xbe062c45	-0.13102825
19	0x3dc749bd	0.09730861
20	0x3cf8b81b	0.030361226
21	0xbe145cf2	-0.14488581
22	0x3dc11388	0.094275534
23	0x3d7eed64	0.062238112
24	0x3dbea060	0.09307933
25	0xbdd2bb28	-0.102896035
26	0xbdcd672c	-0.10029444
27	0x3e1ef5b6	0.15523419
28	0xbe99c1ce	-0.30030674
29	0xbeaae58b	-0.33378252
30	0x3e1c5262	0.15265802
31	0x3e35cb8a	0.17753425
32	0xbea0e3f8	-0.31423926
33	0x3e59e8b3	0.21280174
34	0x3df571da	0.11984606
35	0x3da4574a	0.080244616
36	0xbe1474ae	-0.14497635
37	0x3de36d09	0.11104781
38	0xbda3a7aa	-0.07990964
39	0xbdb40c39	-0.08791394
40	0x3e23cc36	0.15995869
41	0xbe9e60b1	-0.30933145
42	0x3df702d9	0.1206109
43	0x3da14259	0.07873983
44	0xbe723241	-0.23651983
45	0xbe2e41ee	-0.17017338
46	0xbe042bb1	-0.12907292
47	0x3dc1f72f	0.09470975
48	0xbdc20dbe	-0.09475277
49	0xbdf0283d	-0.11726425
50	0x3cc73365	0.024316499
51	0x3e0b042f	0.13575815
52	0x3df1aca7	0.11800509
53	0x3e203aec	0.15647477
54	0x3df2a1c2	0.11847259
55	0x3e0da39b	0.13831942
56	0x3decbe61	0.115597494
57	0x3da8ce65	0.08242492
58	0xbe2ac891	-0.16678073
59	0x3e18d39f	0.14924477
60	0xbe947fcf	-0.2900376
61	0xbea34dc8	-0.3189528
62	0xbe718baa	-0.23588434
63	0xbde4d6ea	-0.11173804
64	0x3d91ba63	0.071156286
65	0x3e0be13a	0.13660136
66	0xbd3a614b	-0.045502942
67	0xbde8e904	-0.11372569
68	0xbe921456	-0.2853114
69	0xbe4a07ed	-0.19729586
70	0x3e17751e	0.1479077
71	0xbe7309cb	-0.23734204
72	0xbccbabf6	-0.02486227
73	0xbd949c5b	-0.07256385
74	0xbeb985a3	-0.3623477
75	0x3df76cea	0.120813206
76	0xbe07e6d7	-0.13271652
77	0xbe23e0d8	-0.1600374
78	0x3daee11f	0.08539032
79	0x3e10cbd9	0.14140262
80	0xbca7526c	-0.020425044
81	0xbd369ce5	-0.04458322
82	0xbe56a7bd	-0.20962425
83	0xbe33919a	-0.17536011
84	0x3d511451	0.051044766
85	0xbe33cb3b	-0.17557995
86	0x3d78ac4e	0.060711198
87	0x3e14b905	0.14523704
88	0xbe922ce1	-0.28549865
89	0xbe70adfa	-0.23503867
90	0xbe890d27	-0.26767847
91	0x3d8be165	0.068301
92	0x3dba3aaa	0.090932205
93	0xbeae429e	-0.340352
94	0x3df31610	0.118694425
95	0x3bf48937	0.0074626463
96	0x3e08664d	0.13320275
97	0xbe7b957c	-0.24568743
98	0x3e197cbb	0.14988987
99	0xbd942ee5	-0.07235507
100	0x3e23f264	0.16010433
101	0xbdccb1b5	-0.099948324
102	0xbd287577	-0.04112765
103	0x3e14002b	0.14453189
104	0xbd26f268	-0.04075852
105	0x3deadeeb	0.114682995
106	0x3d89c755	0.06727473
107	0xbd35d6b9	-0.04439423
108	0xbe0c7da5	-0.13719805
109	0xbd29f67e	-0.04149484
110	0xbd7f96d6	-0.062399708
111	0xbe314439	-0.17311181
112	0xbe021079	-0.12701596
113	0xbcf03bd8	-0.02932541
114	0x3db1cae9	0.0868128
115	0xbdabd4b1	-0.08390177
116	0x3e159851	0.14608885
117	0x3e0d073f	0.13772295
118	0xbd35c5e4	-0.044378176
119	0x3dbcf844	0.092270404
120	0x3e3a3672	0.18184832
121	0x3d75448c	0.059879825
122	0xbdc5326e	-0.09628759
123	0x3db10bb5	0.08644811
124	0xbe576330	-0.21033931
125	0xbe155eeb	-0.1458699
126	0x3e1484e3	0.14503817
127	0xbe73d22e	-0.23810646
128	0xbe3f52c0	-0.1868391
129	0x3deaa8de	0.1145799
130	0x3e3beb47	0.1835147
131	0x3e00bf60	0.12573004
132	0x3d14da0c	0.03634076
133	0xbdb1c8a0	-0.08680844
134	0x3c8f7073	0.017509675
135	0x3dabe634	0.08393517
136	0xbe91b264	-0.28456414
137	0xbe2a3d67	-0.16624986
138	0xbe55a064	-0.20861965
139	0xbd17ff76	-0.03710886
140	0x3d3a6499	0.045506094
141	0xbe28e888	-0.16494954
142	0xbd3a8480	-0.045536518
143	0x3d82820a	0.06372459
144	0x3e11a528	0.14223158
145	0x3de4ca32	0.11171378
146	0xbb8c1a15	-0.00427557
147	0xbe0ae3cf	-0.13563465
148	0x3e1d7603	0.15377049
149	0x3e037485	0.12837417
150	0xbdae9fe4	-0.085265905
151	0xbd9547ee	-0.0728911
152	0xbe0b87ae	-0.13625976
153	0xbd5b036f	-0.05347007
154	0xbe0820de	-0.13293788
155	0xbd6dc3ed	-0.058048178
156	0x3e059eaa	0.13048807
157	0xbe95dae1	-0.29268554
158	0x3e0864de	0.13319728
159	0xbe46b1a8	-0.19403708
160	0xbde7475d	-0.11292908
161	0xbe4c4f09	-0.19952025
162	0x3e3c9458	0.18415964
163	0x3e00dd5b	0.1258444
164	0x3daa9051	0.083283074
165	0x3e2c36bb	0.16817753
166	0xbd92ec2e	-0.07173954
167	0x3e1ecfad	0.1550891
168	0xbe0ac674	-0.13552266
169	0x3dce6899	0.10078544
170	0x3e136c3d	0.14396758
171	0xbd97c6ee	-0.0741099
172	0xbd036407	-0.032077815
173	0x3dbd1519	0.0923254
174	0x3d2949c9	0.041330133
175	0x3e28c0d4	0.16479808
176	0x3d5b39d3	0.053521942
177	0xbe482702	-0.1954613
178	0xbd1af86c	-0.03783457
179	0x3e0baa39	0.13639154
180	0xbd63e5f1	-0.05563921
181	0x3e03ece8	0.12883341
182	0x3e33c9a5	0.1755739
183	0xbd10e10d	-0.035370875
184	0xbe579d57	-0.21056114
185	0x3dbedc7a	0.09319396
186	0xbc0fa90e	-0.008768333
187	0x3dafdeb9	0.08587403
188	0xbd88d758	-0.066816986
189	0xbe55f29b	-0.20893328
190	0xbe1e7486	-0.15474138
191	0x3e160737	0.1465119
192	0xbe8c94b6	-0.27457207
193	0xbe3313ac	-0.17487973
194	0xbdcf05d7	-0.10108536
195	0x3dde3c4b	0.10851344
196	0xbe2ad1f8	-0.16681659
197	0xbe4b8365	-0.19874342
198	0xbe1f932b	-0.15583484
199	0x3e217a73	0.15769367
200	0x3e3ef8e9	0.18649639
201	0x3e0aa06e	0.13537762
202	0x3e000361	0.12501289
203	0xbdb481d3	-0.088138245
204	0x3e07b1da	0.13251439
205	0xbde460d7	-0.11151283
206	0xbe8113c3	-0.2521039
207	0x3d1e7c7f	0.038692947
208	0xbcd0fcde	-0.025511201
209	0x3ded37f0	0.11582935
210	0x3e101a1c	0.1407246
211	0x3d0e65f9	0.034765217
212	0xbe0a39af	-0.13498567
213	0x3dfa22cc	0.12213668
214	0x3d95e3ae	0.07318817
215	0xbdfe26ad	-0.124097206
216	0xbde07727	-0.109602265
217	0xbec50a61	-0.3848448
218	0x3e342575	0.17592414
219	0x3ddd4915	0.10804955
220	0xbe2afe8c	-0.16698664
221	0x3dcfd2ad	0.10147605
222	0x3dd40354	0.10352197
223	0xbe73994f	-0.23788951
224	0xbd021a6c	-0.03176348
225	0xbe1e90a5	-0.15484865
226	0xbe380d19	-0.17973746
227	0x3d92292c	0.07136759
228	0x3dbf5c2f	0.093437545
229	0x3dc9cf9f	0.09854054
230	0x3d1e1b8c	0.03860049
231	0xbd572ee6	-0.05253496
232	0xbca8c0e6	-0.020599794
233	0xbe672a61	-0.2257476
234	0xbdd55ddd	-0.104182936
235	0x3dea1e14	0.11431518
236	0x3dcabf21	0.09899736
237	0xbe44af78	-0.19207561
238	0x3dce82ef	0.10083567
239	0x3d9b4930	0.07582319
240	0xbdda4979	-0.10658545
241	0x3c989cb8	0.018629417
242	0x3da3ee4e	0.080044374
243	0xbb08025a	-0.0020753355
244	0xbd2e1b6f	-0.04250663
245	0xbe723256	-0.23652014
246	0x3de8f71c	0.113752574
247	0xbe78b876	-0.24289116
248	0xbd329ebd	-0.043608416
249	0xbe632e42	-0.22185615
250	0xbe3e0841	-0.18557836
251	0x3d69384a	0.056938447
252	0xbe1440ab	-0.14477794
253	0xbddfefe4	-0.109344274
254	0xbd6ff124	-0.05857958
255	0x3cd8c498	0.02646093

fc2.bias f4 [10]
0	0x3d1976bf	0.03746676
1	0x3dfbccfb	0.12294956
2	0xbe150244	-0.14551646
3	0x3dea71cb	0.114474855
4	0xbe78185a	-0.2422804
5	0xbde4c000	-0.111694336
6	0xbdbeb2c8	-0.093114436
7	0xbda91672	-0.08256234
8	0x3e53d794	0.20687705
9	0x3dfbb53d	0.12290428

exp_avg f4 [10, 1, 5, 5]
0	0xbc06cf97	-0.008228204
1	0xbba8c71f	-0.00515069
2	0xb9d30424	-0.0004024814
3	0xbb28d8c2	-0.0025763963
4	0xbbc902fd	-0.0061343894
5	0xbbb8df69	-0.005641867
6	0xba6e257c	-0.0009084565
7	0x3b2c15dc	0.0026258146
8	0xba92ee79	-0.0011209986
9	0xbbee47d4	-0.007271746
10	0xbaf5f91e	-0.0018766259
11	0x3b419188	0.0029536206
12	0x3bd5756f	0.0065142433
13	0xb97a8640	-0.0002389187
14	0xbc0f7a8e	-0.008757247
15	0x3adc30ba	0.001679919
16	0x3b838d2e	0.0040146327
17	0x3c08e3a5	0.008355056
18	0x3a0ccce4	0.0005371107
19	0xbba77f0f	-0.005111582
20	0x3af8ac50	0.0018972252
21	0x3bd46f74	0.006483013
22	0x3be6eab0	0.00704702
23	0x3b039d9d	0.0020082959
24	0xbba74a24	-0.005105274
25	0x3ace34c8	0.0015732283
26	0x3aa7b4e1	0.0012794995
27	0xbb22db1c	-0.0024849838
28	0xbb65add0	-0.0035046227
29	0x395e36c6	0.00021191975
30	0x3b205bd8	0.0024468806
31	0x3a93026c	0.0011215932
32	0xbb4c06ae	-0.003113191
33	0xbb89661f	-0.004193082
34	0xba6a347a	-0.0008934211
35	0xbaacfe92	-0.0013198426
36	0xbb13655f	-0.0022490842
37	0xbb73adbc	-0.0037182411
38	0x3a192010	0.00058412645
39	0x3a33f000	0.0006864071
40	0x3a675c4d	0.00088257046
41	0x3842b6f0	4.6423578e-05
42	0xba0ac5fc	-0.0005293784
43	0x3aaddc96	0.0013264592
44	0xb99641f0	-0.00028659357
45	0xbaf58cb1	-0.0018733946
46	0x3a2dfdb8	0.00066372333
47	0x3a80e288	0.0009833137
48	0x3a2a741c	0.0006502287
49	0xb97f8720	-0.00024369033
50	0x3b1e37d2	0.0024142158
51	0xbafe2788	-0.0019390443
52	0xbb5579d8	-0.0032573845
53	0xbbb736c4	-0.0055912454
54	0xbbacab38	-0.0052694343
55	0x3c02d416	0.007985136
56	0x3bb01e77	0.0053747254
57	0x3b27d9ee	0.0025612074
58	0xbb66d6a8	-0.003522316
59	0xbbfc1eda	-0.0076941075
60	0x3c302030	0.010749862
61	0x3c6c01d1	0.01440473
62	0x3c088d13	0.008334416
63	0xbb287a95	-0.002570783
64	0xbbb069b3	-0.005383694
65	0x3c47e883	0.012201431
66	0x3c4586f3	0.0120561
67	0x3b9889d2	0.0046551013
68	0xbb837f8b	-0.004013007
69	0xbb7179b2	-0.0036846218
70	0x3c37bdf4	0.011214722
71	0x3bcc441d	0.0062337057
72	0xb7f39200	-2.9035844e-05
73	0xba82a106	-0.0009966202
74	0xbb6152c6	-0.0034381612
75	0xbc5c86ef	-0.013459905
76	0xbc74b34a	-0.014935324
77	0xbc4b91a4	-0.01242486
78	0xbc2e19a4	-0.01062623
79	0xbc0fe1f0	-0.008781895
80	0xbc3db6ce	-0.011579229
81	0xbc3019f3	-0.010748374
82	0xbc28def9	-0.010307067
83	0xbbfed739	-0.0077771214
84	0xbb8cf188	-0.0043012537
85	0xbbc8b09b	-0.0061245686
86	0xbbd27cc6	-0.0064235656
87	0xbba5ff5b	-0.005065841
88	0xbaf35992	-0.0018566123
89	0x38442c80	4.6771485e-05
90	0xbb3a7e6a	-0.0028456696
91	0x39d82db4	0.00041232782
92	0x3b8412c4	0.0040305573
93	0x3be74bac	0.0070585813
94	0x3c173cb4	0.009230781
95	0x3b37e006	0.0028057112
96	0x3bd04cbd	0.006356804
97	0x3bfaaba3	0.007649855
98	0x3bb0a98d	0.005391306
99	0x3bc9801b	0.0061493046
100	0x396b3ccc	0.00022433995
101	0xbb2e54ca	-0.0026600831
102	0xbab49a09	-0.0013778816
103	0x3a89ebe7	0.0010522575
104	0x3a87bed7	0.0010356557
105	0x390339e0	0.00012514694
106	0x3a9e61c2	0.0012083577
107	0x3af6e653	0.0018836953
108	0x3a6505c9	0.0008736519
109	0xbb85d722	-0.0040844837
110	0x3ac7bc54	0.0015238621
111	0x3ac18e15	0.0014767075
112	0x3a7b4a58	0.0009585968
113	0xbb6a3377	-0.0035736242
114	0xbbd0356d	-0.006354025
115	0x3bdb6d0a	0.006696348
116	0x3b90b4ed	0.0044160993
117	0xbb1b2b7c	-0.0023677042
118	0xbba9ac05	-0.005177977
119	0xbb89861b	-0.004196895
120	0x3c086048	0.0083237365
121	0x3bee0d5a	0.007264775
122	0xba4d457c	-0.00078304834
123	0xbb23405a	-0.0024910183
124	0xba0e9289	-0.00054387056
125	0xbbe504de	-0.0069891056
126	0xbb9a6aee	-0.004712454
127	0xbb9a5530	-0.004709862
128	0xbb3532e0	-0.0027648732
129	0xbb182ec2	-0.002322123
130	0xbc0af363	-0.0084808795
131	0xbc018f89	-0.007907757
132	0xbbb1bd14	-0.005424151
133	0xbb446aad	-0.002997081
134	0xbb3382aa	-0.0027391114
135	0xbc641417	-0.013920805
136	0xbc303dbc	-0.010756906
137	0xbbbcdba2	-0.005763487
138	0xbbb1513a	-0.0054112943
139	0xbbab2eb3	-0.005224073
140	0xbc453735	-0.012037088
141	0xbc158028	-0.009124793
142	0xbbb2be9e	-0.0054548522
143	0xbbb8a0e6	-0.005634415
144	0xbbb8b848	-0.0056372024
145	0xbc25f158	-0.010128342
146	0xbc128942	-0.008943858
147	0xbbae22a1	-0.0053141867
148	0xbba0f3f0	-0.004911892
149	0xbbc10de8	-0.0058915503
150	0xbb238f54	-0.0024957256
151	0xbb694ac2	-0.0035597538
152	0xbbca9fc8	-0.006183598
153	0xbb2ac3f8	-0.0026056748
154	0x3aaaba76	0.001302554
155	0x3a9c9b98	0.0011948226
156	0xbbb68c9a	-0.00557096
157	0xbbc53326	-0.0060180603
158	0xbb3a0fff	-0.0028390882
159	0x3b911c5e	0.0044284305
160	0x3a2b37ec	0.00065314653
161	0xbb99e12f	-0.0046960334
162	0xbb229d81	-0.0024813118
163	0x3b1de864	0.0024094814
164	0x3b9878ea	0.004653086
165	0x3a9d3b64	0.0011995849
166	0xbbe0e06b	-0.00686269
167	0x3ab22530	0.0013591405
168	0x3b753372	0.0037414697
169	0x3a13bed8	0.0005636043
170	0xbc15ef1f	-0.009151249
171	0xbc33a524	-0.010964666
172	0xbb3b7201	-0.0028601887
173	0x39afbab0	0.00033517694
174	0xbb856afa	-0.0040715905
175	0x3c0c313f	0.008556663
176	0x3b3ba562	0.0028632511
177	0x39cd809a	0.00039196463
178	0x3aa868b4	0.0012848587
179	0x3bb05bbc	0.0053820293
180	0x3c3bf1bf	0.011471211
181	0x3b87e16a	0.0041467445
182	0xba2012b4	-0.00061063026
183	0xbbc7447e	-0.006081163
184	0x3b601150	0.0034190007
185	0x3c2a75d2	0.010404067
186	0x3ae3972c	0.0017363778
187	0xbba1a7b1	-0.0049333205
188	0xbc138619	-0.009004139
189	0xbb006c54	-0.0019595819
190	0x3bdc5f7e	0.0067252507
191	0x3a5324df	0.00080545055
192	0xbb378d6b	-0.0028007876
193	0xbbc58551	-0.0060278554
194	0xbc08ff5c	-0.008361664
195	0x3b8372d1	0.00401149
196	0xbb252307	-0.002519788
197	0xbb922fa1	-0.004461244
198	0xbc0f4a03	-0.008745673
199	0xbc35505d	-0.011066523
200	0x3c1e4a3f	0.009661256
201	0x3c1b7aa0	0.009489685
202	0x3b551f19	0.0032519756
203	0xbad55b0c	-0.0016277744
204	0xba1a4b12	-0.000588582
205	0x3bdc7b4f	0.0067285667
206	0x3a7957f8	0.00095117046
207	0xbaa4a164	-0.0012560305
208	0xbaaaef6c	-0.0013041324
209	0xbb4a6b9f	-0.00308869
210	0x3b50a62f	0.0031837334
211	0xbb5a88ac	-0.0033345623
212	0xbb9d7f00	-0.0048063993
213	0xbb6d01f0	-0.0036164485
214	0xbb399e7d	-0.0028323226
215	0x3b046aa9	0.0020205176
216	0xbb3dc305	-0.0028955352
217	0xbbc2982c	-0.0059385505
218	0xbaddd7bc	-0.0016925256
219	0xb8815040	-6.166147e-05
220	0xba280f4a	-0.00064109697
221	0xbb847783	-0.004042567
222	0xbb8dc8bb	-0.0043269075
223	0xbaeba6fe	-0.0017978845
224	0xbaf11d46	-0.0018395565
225	0x3b9a235a	0.0047039213
226	0x3b4ddc7f	0.0031411943
227	0xbaaa2ade	-0.0012982746
228	0xba801954	-0.0009773173
229	0xbb567c00	-0.0032727718
230	0x3b53d5fc	0.003232359
231	0x3b9aa122	0.0047189156
232	0x3b39012f	0.0028229465
233	0x39beae66	0.0003636956
234	0xbb61383b	-0.0034365791
235	0xba4db3b6	-0.00078469084
236	0x3b32b16e	0.00272664
237	0x39150ea8	0.00014215207
238	0xbb312a1d	-0.0027033158
239	0xbbaf1e54	-0.0053441916
240	0x3b8dd2cb	0.004328107
241	0x3b8db23b	0.0043242252
242	0xba95a14f	-0.0011415872
243	0xbb95e34d	-0.0045742155
244	0xbbef1cc9	-0.0072971326
245	0x3bf01099	0.0073261973
246	0x3aecb751	0.0018060004
247	0xbb86fd4d	-0.0041195513
248	0xbb8d9210	-0.0043203905
249	0xbb7e9cf2	-0.003885087

exp_avg_sq f4 [10, 1, 5, 5]
0	0x3a1a3588	0.00058826106
1	0x39e41647	0.00043504147
2	0x39c24d9c	0.00037060387
3	0x39c889ea	0.00038249727
4	0x39d93a09	0.00041432705
5	0x3a03ad3e	0.00050230685
6	0x39ada78f	0.00033121972
7	0x39b8a94f	0.0003522136
8	0x39bd94ba	0.000361597
9	0x39be927a	0.00036348758
10	0x39f9e570	0.00047663925
11	0x398703e1	0.00025752097
12	0x39d87159	0.0004128318
13	0x39bdc5fb	0.00036196396
14	0x39ba40c1	0.0003552493
15	0x39e95e47	0.00044511465
16	0x399b3e8e	0.0002961051
17	0x39ed35f6	0.00045244367
18	0x39bd1a73	0.00036068595
19	0x39ca38f2	0.0003857087
20	0x39f04c99	0.00045833437
21	0x39cefe8b	0.0003948103
22	0x39d1e9b8	0.0004003772
23	0x39bcd170	0.00036014197
24	0x39e2731a	0.00043191836
25	0x39c753c4	0.00038018648
26	0x39ba262e	0.0003550513
27	0x39c601a5	0.00037766728
28	0x39c73256	0.0003799374
29	0x39e70e82	0.00044070563
30	0x398e6d70	0.00027165888
31	0x39a41228	0.00031294045
32	0x39acd8d2	0.0003296794
33	0x39adb58a	0.00033132388
34	0x39e6b2d2	0.0004400225
35	0x3989b25f	0.00026263573
36	0x399cc92d	0.00029904526
37	0x397f6fae	0.00024360299
38	0x39b84903	0.00035149613
39	0x39fd1f8d	0.00048279428
40	0x39956bd0	0.0002849982
41	0x3986833d	0.00025656252
42	0x3991546e	0.0002771946
43	0x39ec2545	0.00045041196
44	0x3a0ba6af	0.0005327267
45	0x399ab42c	0.00029507407
46	0x39a8f4f4	0.0003222596
47	0x39e29492	0.00043216773
48	0x3a0842e6	0.0005197957
49	0x3a11c87a	0.00055611844
50	0x3a296ad1	0.0006462755
51	0x3a24442a	0.0006266261
52	0x3a16e905	0.00057567685
53	0x3a156b17	0.00056998566
54	0x3a170e98	0.00057623675
55	0x3a0efc08	0.00054544257
56	0x3a0622aa	0.00051168597
57	0x3a19aa10	0.0005861828
58	0x3a16706f	0.00057388
59	0x3a0dcdfd	0.0005409418
60	0x3a1aca02	0.00059047353
61	0x3a3a0481	0.0007096008
62	0x3a0bcaf5	0.0005332672
63	0x3a137bd6	0.0005626058
64	0x3a10002f	0.00054931914
65	0x3a1c4cb4	0.00059623574
66	0x3a11496f	0.00055422535
67	0x3a19ac87	0.00058621954
68	0x3a1a518f	0.0005886787
69	0x3a141936	0.00056495087
70	0x3a1e0483	0.0006027894
71	0x3a2e3f6b	0.0006647023
72	0x3a2f6433	0.0006690651
73	0x3a1b2e11	0.0005919645
74	0x3a28b47f	0.00064355874
75	0x39ec2d48	0.00045047165
76	0x39e492a1	0.00043596796
77	0x39f0a1f4	0.00045897032
78	0x39ff225c	0.0004866299
79	0x39f6a9fb	0.00047047422
80	0x39ead633	0.0004479155
81	0x39e8cda3	0.000444037
82	0x39e7e3df	0.0004422953
83	0x39f61407	0.00046935698
84	0x39fad634	0.0004784331
85	0x39f5f1e3	0.0004691026
86	0x39f108f9	0.00045973787
87	0x39dd2938	0.00042183115
88	0x3a0665a9	0.0005126843
89	0x39fe73c6	0.00048532913
90	0x39fd9bfe	0.00048372144
91	0x39f61975	0.00046939743
92	0x39eba10a	0.00044942676
93	0x3a0ed3ce	0.00054484315
94	0x39e1ffbf	0.0004310589
95	0x39f5ef4b	0.0004690833
96	0x39f5c788	0.00046878704
97	0x3a05db3b	0.0005106215
98	0x3a03b2e1	0.00050239085
99	0x39c8f8cd	0.00038332344
100	0x39bb88e3	0.00035769408
101	0x39f1ada8	0.00046096486
102	0x39ff0651	0.00048642096
103	0x39e994e6	0.0004455216
104	0x3a049568	0.00050576637
105	0x39b8223c	0.0003512072
106	0x39ec4fdf	0.00045072936
107	0x39b2dfdc	0.00034117594
108	0x39d412e7	0.00040449874
109	0x3a0ca3af	0.0005364967
110	0x39c6a25f	0.0003788648
111	0x3994b290	0.000283618
112	0x39b9fc5e	0.00035473978
113	0x3a0c33b0	0.0005348278
114	0x3a1a71c2	0.0005891585
115	0x39babad2	0.00035615877
116	0x39a854f6	0.00032106758
117	0x3a02b9c1	0.0004986786
118	0x3a1df533	0.0006025612
119	0x3a260f67	0.00063346926
120	0x39da6577	0.00041655797
121	0x3a07bab4	0.0005177662
122	0x3a1cc3d1	0.00059801067
123	0x3a265829	0.00063455343
124	0x3a2fc64b	0.0006705268
125	0x39e95836	0.00044506945
126	0x39f4bf08	0.00046681636
127	0x3a03e74a	0.0005031718
128	0x39ea8e68	0.0004473806
129	0x39e5b29b	0.00043811355
130	0x39f19026	0.000460745
131	0x39f02f62	0.0004581167
132	0x39e04916	0.00042779063
133	0x39d55c89	0.0004069547
134	0x39e6de7e	0.00044034788
135	0x39ec8804	0.00045114767
136	0x39df265f	0.00042562463
137	0x39d14286	0.0003991315
138	0x39d85716	0.00041263615
139	0x39e76308	0.00044133537
140	0x39dd8e38	0.00042258366
141	0x39d882e0	0.0004129624
142	0x39d5f80f	0.00040811344
143	0x39dfe0f6	0.00042701483
144	0x39dde61b	0.00042323847
145	0x39e0798e	0.00042815175
146	0x39dcdcb7	0.00042126115
147	0x39d69be4	0.00040933408
148	0x39d5e69a	0.00040798337
149	0x39ccd08b	0.0003906529
150	0x3af210ba	0.001846812
151	0x3ae260a8	0.0017271237
152	0x3ae9b51e	0.0017830466
153	0x3af3a057	0.0018587214
154	0x3b032cdc	0.0020015752
155	0x3afb0053	0.0019149877
156	0x3af6c971	0.0018828345
157	0x3aef4cbd	0.0018257123
158	0x3af2b8b1	0.0018518177
159	0x3b079f80	0.0020694435
160	0x3b0106be	0.0019687857
161	0x3ae66200	0.0017576814
162	0x3ae3dbc7	0.0017384224
163	0x3af06755	0.0018341342
164	0x3b0842cb	0.0020791765
165	0x3aec4099	0.0018024623
166	0x3aea99c9	0.0017898615
167	0x3afeee03	0.0019449595
168	0x3af8bbdb	0.0018976884
169	0x3b07f3ec	0.0020744754
170	0x3aebcfaa	0.0017990966
171	0x3b056f16	0.0020360402
172	0x3b0b9520	0.0021298602
173	0x3b066e5e	0.0020512561
174	0x3b0b6025	0.0021267023
175	0x3a853dd6	0.0010165523
176	0x3a6f8212	0.00091365085
177	0x3a5ddf3e	0.00084637466
178	0x3a59987e	0.0008300616
179	0x3a524f28	0.00080226595
180	0x3a87d72a	0.0010363807
181	0x3a6a7335	0.0008943559
182	0x3a5ad7f7	0.00083482213
183	0x3a57eb2f	0.0008236644
184	0x3a46d58c	0.00075849216
185	0x3a8267be	0.000994913
186	0x3a6f6988	0.0009132852
187	0x3a5808dc	0.0008241066
188	0x3a4c80ad	0.00078011566
189	0x3a503da9	0.00079437584
190	0x3a85e936	0.0010216597
191	0x3a7ec57e	0.00097187597
192	0x3a5b4b86	0.0008365441
193	0x3a413a6f	0.0007371073
194	0x3a5cbb21	0.00084202184
195	0x3a8b0229	0.0010605502
196	0x3a802d0b	0.0009779049
197	0x3a5a6697	0.0008331327
198	0x3a4fe182	0.00079300266
199	0x3a655b46	0.00087492575
200	0x39c20bfd	0.00037011495
201	0x39ea8f04	0.00044738513
202	0x3a0b550d	0.0005315103
203	0x39f4cb9b	0.00046691005
204	0x39d62d1a	0.00040850864
205	0x39c37bdb	0.00037285578
206	0x39fb2b16	0.00047906552
207	0x39f3aa9f	0.00046475694
208	0x39ad5e25	0.00033067274
209	0x39aff263	0.00033559193
210	0x39bc812c	0.00035954395
211	0x39db71d3	0.0004185574
212	0x39aea406	0.00033310073
213	0x399687c3	0.0002871138
214	0x39ac74fa	0.0003289355
215	0x39a75bdd	0.00031921166
216	0x39b11355	0.00033774474
217	0x399ba22f	0.0002968474
218	0x39b9a382	0.00035407773
219	0x39ec7808	0.00045102858
220	0x39b291f6	0.00034059555
221	0x39a8fdb5	0.00032232483
222	0x39d13ddb	0.00039909672
223	0x3a045048	0.0005047363
224	0x3a113739	0.000553954
225	0x395eb27c	0.0002123806
226	0x393a2003	0.00017750268
227	0x39352e9f	0.00017278873
228	0x3957bf68	0.00020575302
229	0x39761b35	0.00023470524
230	0x394f12fc	0.0001974813
231	0x391e1a18	0.00015077775
232	0x391bc046	0.0001485358
233	0x39553fe5	0.00020337066
234	0x39833ec4	0.0002503303
235	0x39538075	0.00020170382
236	0x392bf69b	0.00016399699
237	0x39218d39	0.00015406766
238	0x3960bdda	0.0002143303
239	0x3987485a	0.00025803113
240	0x39571e5e	0.0002051531
241	0x395f4e4a	0.00021296102
242	0x395bca94	0.00020960934
243	0x396a39b2	0.00022337472
244	0x3987127e	0.00025762984
245	0x39804a1f	0.00024469287
246	0x398c017f	0.00026703996
247	0x398c44f7	0.00026754264
248	0x398b7988	0.00026602694
249	0x3996e7eb	0.00028783022

exp_avg f4 [10]
0	0x3c057640	0.008145869
1	0xb7d0cd00	-2.4890993e-05
2	0xbc30fe6b	-0.0108028455
3	0x3c0b8561	0.008515687
4	0x3bbd478e	0.0057763522
5	0x3bc23351	0.0059265275
6	0x3c165332	0.009175109
7	0xbc1a09e8	-0.009401776
8	0x3b2efede	0.0026702206
9	0x3c045d99	0.008078956

exp_avg_sq f4 [10]
0	0x3a463b57	0.0007561943
1	0x3a19173c	0.0005839949
2	0x3abbc883	0.0014326725
3	0x39f525e2	0.00046758266
4	0x3a37c45c	0.0007010156
5	0x39f3764a	0.00046436704
6	0x3b372509	0.0027945659
7	0x3aa946b8	0.0012914753
8	0x39b9b472	0.00035420392
9	0x397829b5	0.0002366666
